evaluation-code/output/models/tflite/CNN_128units_framesize_5_20230623-134049.tflite (tflite, 231456 bytes, 3 tensors)

sequential_6/dense_10/MatMul i1 [10, 15360] scale=0.0012139571 zero_point=0
000000 12 f2 06 01 02 0a fa 02 00 18 0c 10 f8 ef ed 0a
       0.021851227 -0.0169954 0.0072837425 0.0012139571 0.0024279142 0.012139571 -0.0072837425 0.0024279142 0.0 0.02913497 0.014567485 0.019423313 -0.009711657 -0.02063727 -0.023065185 0.012139571
000010 01 21 ff 04 11 05 f6 07 09 f9 f7 f7 03 0b 03 f6
       0.0012139571 0.040060584 -0.0012139571 0.0048558284 0.02063727 0.0060697854 -0.012139571 0.0084977 0.010925613 -0.0084977 -0.010925613 -0.010925613 0.0036418713 0.013353528 0.0036418713 -0.012139571
000020 fc 07 04 17 f6 fc 01 f7 fa ed 03 fa fe eb ef 0f
       -0.0048558284 0.0084977 0.0048558284 0.027921014 -0.012139571 -0.0048558284 0.0012139571 -0.010925613 -0.0072837425 -0.023065185 0.0036418713 -0.0072837425 -0.0024279142 -0.025493098 -0.02063727 0.018209357
000030 0a 12 ee fe 1e fd 0e f2 0b 0d 17 f9 20 03 eb fc
       0.012139571 0.021851227 -0.021851227 -0.0024279142 0.036418714 -0.0036418713 0.0169954 -0.0169954 0.013353528 0.015781442 0.027921014 -0.0084977 0.038846627 0.0036418713 -0.025493098 -0.0048558284
000040 e5 0a f6 e7 fd fa 1a f4 fd 03 e8 05 fa f5 00 f8
       -0.03277684 0.012139571 -0.012139571 -0.030348927 -0.0036418713 -0.0072837425 0.031562883 -0.014567485 -0.0036418713 0.0036418713 -0.02913497 0.0060697854 -0.0072837425 -0.013353528 0.0 -0.009711657
000050 f4 02 04 07 17 08 1e 1a 07 ef e4 e3 04 ea 01 e3
       -0.014567485 0.0024279142 0.0048558284 0.0084977 0.027921014 0.009711657 0.036418714 0.031562883 0.0084977 -0.02063727 -0.0339908 -0.035204757 0.0048558284 -0.026707057 0.0012139571 -0.035204757
000060 e3 fb 01 02 07 0b 10 09 fd 12 19 05 17 01 17 fa
       -0.035204757 -0.0060697854 0.0012139571 0.0024279142 0.0084977 0.013353528 0.019423313 0.010925613 -0.0036418713 0.021851227 0.030348927 0.0060697854 0.027921014 0.0012139571 0.027921014 -0.0072837425
000070 03 eb ee 0b f5 0f 13 03 0b 00 05 0a 05 01 fb f5
       0.0036418713 -0.025493098 -0.021851227 0.013353528 -0.013353528 0.018209357 0.023065185 0.0036418713 0.013353528 0.0 0.0060697854 0.012139571 0.0060697854 0.0012139571 -0.0060697854 -0.013353528
000080 ff 0c 06 03 fe 0e fa 0a fc 0c 0e 00 10 e7 e9 06
       -0.0012139571 0.014567485 0.0072837425 0.0036418713 -0.0024279142 0.0169954 -0.0072837425 0.012139571 -0.0048558284 0.014567485 0.0169954 0.0 0.019423313 -0.030348927 -0.027921014 0.0072837425
000090 0a 18 f4 fb 09 fd f2 f6 ff ff 05 fd 07 fa 06 fd
       0.012139571 0.02913497 -0.014567485 -0.0060697854 0.010925613 -0.0036418713 -0.0169954 -0.012139571 -0.0012139571 -0.0012139571 0.0060697854 -0.0036418713 0.0084977 -0.0072837425 0.0072837425 -0.0036418713
0000a0 f0 01 0b 07 ff fa f9 01 ed fc f7 04 ee f3 03 00
       -0.019423313 0.0012139571 0.013353528 0.0084977 -0.0012139571 -0.0072837425 -0.0084977 0.0012139571 -0.023065185 -0.0048558284 -0.010925613 0.0048558284 -0.021851227 -0.015781442 0.0036418713 0.0
0000b0 ef fa e8 01 04 07 0c fd fe fd 15 02 12 03 e6 09
       -0.02063727 -0.0072837425 -0.02913497 0.0012139571 0.0048558284 0.0084977 0.014567485 -0.0036418713 -0.0024279142 -0.0036418713 0.025493098 0.0024279142 0.021851227 0.0036418713 -0.031562883 0.010925613
0000c0 01 fc 00 eb 05 01 0b e9 da 0a f5 05 13 0e ff 03
       0.0012139571 -0.0048558284 0.0 -0.025493098 0.0060697854 0.0012139571 0.013353528 -0.027921014 -0.04613037 0.012139571 -0.013353528 0.0060697854 0.023065185 0.0169954 -0.0012139571 0.0036418713
0000d0 fe 0b fd 0e 0f f3 11 13 0d dd dd f3 fd ef 0f e8
       -0.0024279142 0.013353528 -0.0036418713 0.0169954 0.018209357 -0.015781442 0.02063727 0.023065185 0.015781442 -0.042488497 -0.042488497 -0.015781442 -0.0036418713 -0.02063727 0.018209357 -0.02913497
0000e0 f1 02 02 08 01 f5 22 0f 06 11 fd 1c 1b e8 1d fd
       -0.018209357 0.0024279142 0.0024279142 0.009711657 0.0012139571 -0.013353528 0.04127454 0.018209357 0.0072837425 0.02063727 -0.0036418713 0.0339908 0.03277684 -0.02913497 0.035204757 -0.0036418713
0000f0 10 f9 ec 08 eb 17 1c f9 f5 e5 03 08 e8 0d e0 f7
       0.019423313 -0.0084977 -0.024279142 0.009711657 -0.025493098 0.027921014 0.0339908 -0.0084977 -0.013353528 -0.03277684 0.0036418713 0.009711657 -0.02913497 0.015781442 -0.038846627 -0.010925613

sequential_6/time_distributed_20/conv2d_13/Conv2D i1 [128, 2, 2, 128]
000000 f6 e8 27 12 22 db 05 20 d3 02 08 f3 df 10 16 ea
       -10 -24 39 18 34 -37 5 32 -45 2 8 -13 -33 16 22 -22
000010 06 fe 0c e5 28 fe 0c 09 ee 2a 02 df 05 04 e2 1f
       6 -2 12 -27 40 -2 12 9 -18 42 2 -33 5 4 -30 31
000020 17 e8 e0 f2 0f ee ff 06 cb e9 1b cf e4 1e 0e fc
       23 -24 -32 -14 15 -18 -1 6 -53 -23 27 -49 -28 30 14 -4
000030 ff f5 e9 f4 24 02 03 d0 c9 06 07 17 0a e1 19 1d
       -1 -11 -23 -12 36 2 3 -48 -55 6 7 23 10 -31 25 29
000040 e5 f7 da e4 f1 dc fa d5 f5 0d f8 c4 f1 f7 0d c5
       -27 -9 -38 -28 -15 -36 -6 -43 -11 13 -8 -60 -15 -9 13 -59
000050 f6 03 c9 21 01 0f e4 fc e6 ff 10 b6 ff d4 f9 e2
       -10 3 -55 33 1 15 -28 -4 -26 -1 16 -74 -1 -44 -7 -30
000060 12 e9 f0 ca 12 fb 1d f0 e9 1a 12 f7 de 09 f3 f8
       18 -23 -16 -54 18 -5 29 -16 -23 26 18 -9 -34 9 -13 -8
000070 db 09 00 de 07 bd 1d f1 e1 fc 12 e0 25 20 e9 f5
       -37 9 0 -34 7 -67 29 -15 -31 -4 18 -32 37 32 -23 -11
000080 fd eb 11 03 ec 81 00 c5 16 19 0e fe dd c2 e6 d8
       -3 -21 17 3 -20 -127 0 -59 22 25 14 -2 -35 -62 -26 -40
000090 eb 14 b9 cd d6 d9 1d b2 f7 cf 00 14 27 dd ee 1b
       -21 20 -71 -51 -42 -39 29 -78 -9 -49 0 20 39 -35 -18 27
0000a0 e8 08 d6 dd 05 31 f9 b2 fd fa f5 35 e5 21 ed 1a
       -24 8 -42 -35 5 49 -7 -78 -3 -6 -11 53 -27 33 -19 26
0000b0 bc 08 15 0f df 04 22 01 25 10 13 04 2d f5 ea f3
       -68 8 21 15 -33 4 34 1 37 16 19 4 45 -11 -22 -13
0000c0 06 f6 35 26 2c de 21 f5 fb df 22 3a 21 c2 25 20
       6 -10 53 38 44 -34 33 -11 -5 -33 34 58 33 -62 37 32
0000d0 91 ad a8 c3 18 f3 1c ef 02 ee 13 04 9e 11 8c c8
       -111 -83 -88 -61 24 -13 28 -17 2 -18 19 4 -98 17 -116 -56
0000e0 fb 0b 00 15 e0 fa f2 f2 fb e2 02 0e fb 05 03 f4
       -5 11 0 21 -32 -6 -14 -14 -5 -30 2 14 -5 5 3 -12
0000f0 ef ec fb 35 14 2a ef 20 f8 25 0c f8 18 cf dd 16
       -17 -20 -5 53 20 42 -17 32 -8 37 12 -8 24 -49 -35 22

sequential_6/time_distributed_19/conv2d_12/Conv2D i1 [128, 2, 2, 1]
000000 7f ca 18 eb 65 46 39 7f 63 cd 7f 11 c9 24 29 7f
       127 -54 24 -21 101 70 57 127 99 -51 127 17 -55 36 41 127
000010 37 81 6d e5 3d fb 81 8f c5 7f 26 51 7f 93 53 9f
       55 -127 109 -27 61 -5 -127 -113 -59 127 38 81 127 -109 83 -97
000020 9c 30 8c 7f 7f e3 63 df 81 10 e8 6c 8e 7f ff b0
       -100 48 -116 127 127 -29 99 -33 -127 16 -24 108 -114 127 -1 -80
000030 7f ba 3b 83 26 c1 7f 90 7f d3 5f 1e 47 38 7f ad
       127 -70 59 -125 38 -63 127 -112 127 -45 95 30 71 56 127 -83
000040 29 7f 39 46 2c 7f e3 47 22 81 4a 02 90 7f d2 8f
       41 127 57 70 44 127 -29 71 34 -127 74 2 -112 127 -46 -113
000050 7e 81 5c 92 7f b3 3a 24 ae 7f 69 27 78 81 f2 f3
       126 -127 92 -110 127 -77 58 36 -82 127 105 39 120 -127 -14 -13
000060 81 d3 d0 ab 7f 8e e9 ef 7f ad 0d e5 7f d9 71 36
       -127 -45 -48 -85 127 -114 -23 -17 127 -83 13 -27 127 -39 113 54
000070 7f 09 a9 6c 68 f9 7f da 4c 81 58 29 fa 55 7f cc
       127 9 -87 108 104 -7 127 -38 76 -127 88 41 -6 85 127 -52
000080 7f cb 0b b9 7f f7 fc f7 81 09 04 8e 15 81 37 ef
       127 -53 11 -71 127 -9 -4 -9 -127 9 4 -114 21 -127 55 -17
000090 03 7f 55 37 c0 4f 81 6c 7f bc 3d aa 13 a6 7f b2
       3 127 85 55 -64 79 -127 108 127 -68 61 -86 19 -90 127 -78
0000a0 81 5e d7 9c f6 6a 81 6d 7f bd 75 19 c0 7f 92 7e
       -127 94 -41 -100 -10 106 -127 109 127 -67 117 25 -64 127 -110 126
0000b0 06 e3 aa 81 2c 7f 0f 59 81 60 55 7b 6c f2 7f 9c
       6 -29 -86 -127 44 127 15 89 -127 96 85 123 108 -14 127 -100
0000c0 30 81 5d c4 8d 7a ca 7f 0b 52 dc 7f 74 81 5c 4d
       48 -127 93 -60 -115 122 -54 127 11 82 -36 127 116 -127 92 77
0000d0 78 d9 2b 81 81 9a fb de 81 4d 2e de c9 08 a0 7f
       120 -39 43 -127 -127 -102 -5 -34 -127 77 46 -34 -55 8 -96 127
0000e0 04 f6 81 52 2d dd 7f f5 d7 54 4a 7f 7f b8 13 e1
       4 -10 -127 82 45 -35 127 -11 -41 84 74 127 127 -72 19 -31
0000f0 a1 7f 38 3e 3e 70 f1 7f e7 7f 49 21 81 4e 59 60
       -95 127 56 62 62 112 -15 127 -25 127 73 33 -127 78 89 96
