evaluation-code/output/models/tflite/CNN_32units_framesize_5_20230623-133522.tflite (tflite, 49016 bytes, 3 tensors)

sequential_4/dense_8/MatMul i1 [10, 3840] scale=0.0015481815 zero_point=0
000000 e9 08 18 e2 e4 0b 1c 01 06 fe d3 ff e9 ef 01 f7
       -0.035608176 0.012385452 0.03715636 -0.046445444 -0.043349084 0.017029997 0.043349084 0.0015481815 0.00928909 -0.003096363 -0.06966817 -0.0015481815 -0.035608176 -0.026319087 0.0015481815 -0.013933633
000010 17 ff fd fe f7 fd 02 fe 10 0d 06 1f fb dc 1a 2b
       0.035608176 -0.0015481815 -0.004644545 -0.003096363 -0.013933633 -0.004644545 0.003096363 -0.003096363 0.024770904 0.02012636 0.00928909 0.047993626 -0.0077409074 -0.055734534 0.04025272 0.0665718
000020 fd fc 16 e5 dc 21 f6 dd 0f ff ee e4 fc ee dd 0c
       -0.004644545 -0.006192726 0.034059994 -0.0418009 -0.055734534 0.05108999 -0.015481815 -0.05418635 0.023222722 -0.0015481815 -0.027867267 -0.043349084 -0.006192726 -0.027867267 -0.05418635 0.01857818
000030 fb 0a 1b ee df fe fd f6 f6 11 1b 13 f0 d6 17 03
       -0.0077409074 0.015481815 0.0418009 -0.027867267 -0.05108999 -0.003096363 -0.004644545 -0.015481815 -0.015481815 0.026319087 0.0418009 0.02941545 -0.024770904 -0.06502362 0.035608176 0.004644545
000040 fc 0a fc c9 dc 23 fc f3 03 0c c1 e6 f2 fa d5 07
       -0.006192726 0.015481815 -0.006192726 -0.08514998 -0.055734534 0.05418635 -0.006192726 -0.02012636 0.004644545 0.01857818 -0.09753544 -0.04025272 -0.021674542 -0.00928909 -0.0665718 0.010837271
000050 19 ff 17 f1 fe ed 11 ef 14 01 02 0f 03 d8 10 1c
       0.038704537 -0.0015481815 0.035608176 -0.023222722 -0.003096363 -0.02941545 0.026319087 -0.026319087 0.03096363 0.0015481815 0.003096363 0.023222722 0.004644545 -0.06192726 0.024770904 0.043349084
000060 d3 fb 19 b8 01 24 fe ec 1d 03 e3 c7 f5 f5 e5 05
       -0.06966817 -0.0077409074 0.038704537 -0.11146907 0.0015481815 0.055734534 -0.003096363 -0.03096363 0.044897266 0.004644545 -0.044897266 -0.088246346 -0.017029997 -0.017029997 -0.0418009 0.0077409074
000070 08 1e 25 f3 dd e5 ff f8 0b 07 08 07 05 cf 10 0b
       0.012385452 0.046445444 0.057282716 -0.02012636 -0.05418635 -0.0418009 -0.0015481815 -0.012385452 0.017029997 0.010837271 0.012385452 0.010837271 0.0077409074 -0.075860895 0.024770904 0.017029997
000080 c6 05 11 d9 e0 0f 14 f0 2a 01 d4 c1 ea df fa 1f
       -0.08979453 0.0077409074 0.026319087 -0.06037908 -0.04954181 0.023222722 0.03096363 -0.024770904 0.06502362 0.0015481815 -0.06811999 -0.09753544 -0.034059994 -0.05108999 -0.00928909 0.047993626
000090 21 09 05 10 fc e5 0e f5 1b 03 24 0b 1c fd 28 f8
       0.05108999 0.013933633 0.0077409074 0.024770904 -0.006192726 -0.0418009 0.021674542 -0.017029997 0.0418009 0.004644545 0.055734534 0.017029997 0.043349084 -0.004644545 0.06192726 -0.012385452
0000a0 d7 18 10 cd f0 04 06 e7 21 ea ef d8 06 e4 f7 21
       -0.063475445 0.03715636 0.024770904 -0.07895726 -0.024770904 0.006192726 0.00928909 -0.038704537 0.05108999 -0.034059994 -0.026319087 -0.06192726 0.00928909 -0.043349084 -0.013933633 0.05108999
0000b0 03 f4 1c f4 e3 fa 1b 01 22 fc 0e 1e f5 e0 26 fe
       0.004644545 -0.01857818 0.043349084 -0.01857818 -0.044897266 -0.00928909 0.0418009 0.0015481815 0.052638173 -0.006192726 0.021674542 0.046445444 -0.017029997 -0.04954181 0.0588309 -0.003096363
0000c0 f0 13 10 db ff 0a 0d 07 07 0f ea b1 ff e2 0d 19
       -0.024770904 0.02941545 0.024770904 -0.057282716 -0.0015481815 0.015481815 0.02012636 0.010837271 0.010837271 0.023222722 -0.034059994 -0.12230634 -0.0015481815 -0.046445444 0.02012636 0.038704537
0000d0 11 02 07 00 12 1a 18 fd 1c 14 18 1e 14 ed 2b 16
       0.026319087 0.003096363 0.010837271 0.0 0.027867267 0.04025272 0.03715636 -0.004644545 0.043349084 0.03096363 0.03715636 0.046445444 0.03096363 -0.02941545 0.0665718 0.034059994
0000e0 e1 11 17 e9 00 02 32 1c 08 f9 e9 ba 14 ee 0a 0a
       -0.047993626 0.026319087 0.035608176 -0.035608176 0.0 0.003096363 0.07740907 0.043349084 0.012385452 -0.010837271 -0.035608176 -0.1083727 0.03096363 -0.027867267 0.015481815 0.015481815
0000f0 06 05 1f fe f2 1b 1b f2 0d 26 0e 2e 1b f4 26 18
       0.00928909 0.0077409074 0.047993626 -0.003096363 -0.021674542 0.0418009 0.0418009 -0.021674542 0.02012636 0.0588309 0.021674542 0.07121635 0.0418009 -0.01857818 0.0588309 0.03715636

sequential_4/time_distributed_14/conv2d_9/Conv2D i1 [32, 2, 2, 32]
000000 22 30 dc 0b d6 3e 7f 16 e4 0d 3f 0b 19 f6 f1 36
       34 48 -36 11 -42 62 127 22 -28 13 63 11 25 -10 -15 54
000010 d9 dd 11 df 28 f7 e5 69 1f f6 d8 62 03 e3 04 f6
       -39 -35 17 -33 40 -9 -27 105 31 -10 -40 98 3 -29 4 -10
000020 22 d5 61 0e e3 06 43 32 eb e4 1a fa 1e 3a 05 52
       34 -43 97 14 -29 6 67 50 -21 -28 26 -6 30 58 5 82
000030 29 fb da 06 47 33 dc da f2 fb f3 fb 1a 2f e9 0b
       41 -5 -38 6 71 51 -36 -38 -14 -5 -13 -5 26 47 -23 11
000040 ed e2 33 e4 e4 2d 7f f0 ba f8 58 f4 cb 15 d4 2b
       -19 -30 51 -28 -28 45 127 -16 -70 -8 88 -12 -53 21 -44 43
000050 e4 25 3c fc e3 39 c2 38 e5 fe ca 51 4c 2b ef 0e
       -28 37 60 -4 -29 57 -62 56 -27 -2 -54 81 76 43 -17 14
000060 1f e2 29 e4 eb 28 3e 39 ed d5 38 2b 34 4b 54 13
       31 -30 41 -28 -21 40 62 57 -19 -43 56 43 52 75 84 19
000070 df f7 de f3 3b d9 0d e5 20 0f e0 fd 06 16 ea 26
       -33 -9 -34 -13 59 -39 13 -27 32 15 -32 -3 6 22 -22 38
000080 d4 e8 90 1a c7 08 0d f3 b8 e6 c4 f9 16 34 19 d2
       -44 -24 -112 26 -57 8 13 -13 -72 -26 -60 -7 22 52 25 -46
000090 40 4e a1 d9 ae 4d c4 19 1a 4b 0d 08 44 9d 61 44
       64 78 -95 -39 -82 77 -60 25 26 75 13 8 68 -99 97 68
0000a0 4b e0 e1 2e e9 c1 ac 9b 20 af c6 c1 93 ba 08 ae
       75 -32 -31 46 -23 -63 -84 -101 32 -81 -58 -63 -109 -70 8 -82
0000b0 50 39 06 09 db f5 32 a3 ad fc 24 a7 a1 10 0e 2d
       80 57 6 9 -37 -11 50 -93 -83 -4 36 -89 -95 16 14 45
0000c0 f8 f7 83 3a 1a d4 b7 cb 2d 03 da 2a d1 ca e0 fb
       -8 -9 -125 58 26 -44 -73 -53 45 3 -38 42 -47 -54 -32 -5
0000d0 f1 04 bf 1b 0d 20 2e e1 e6 5f fa 07 21 e7 45 0c
       -15 4 -65 27 13 32 46 -31 -26 95 -6 7 33 -25 69 12
0000e0 de 48 03 1a b1 f2 ac 03 a7 28 b9 50 bb da 0a b5
       -34 72 3 26 -79 -14 -84 3 -89 40 -71 80 -69 -38 10 -75
0000f0 19 f5 f9 45 00 bf 2e 81 bf 39 42 23 c3 ed 34 27
       25 -11 -7 69 0 -65 46 -127 -65 57 66 35 -61 -19 52 39

sequential_4/time_distributed_13/conv2d_8/Conv2D i1 [32, 2, 2, 1]
000000 83 7f 36 26 dc 40 8a 81 02 af 7f 9f 96 98 e2 81
       -125 127 54 38 -36 64 -118 -127 2 -81 127 -97 -106 -104 -30 -127
000010 a9 16 81 b5 81 66 33 03 8e 6d 81 7c d4 ee 7f b4
       -87 22 -127 -75 -127 102 51 3 -114 109 -127 124 -44 -18 127 -76
000020 3f f9 81 a4 b6 26 89 81 c4 7f bf da e5 81 05 fc
       63 -7 -127 -92 -74 38 -119 -127 -60 127 -65 -38 -27 -127 5 -4
000030 c8 81 4c 1c de 03 7f 82 35 e5 10 81 f1 89 7f d0
       -56 -127 76 28 -34 3 127 -126 53 -27 16 -127 -15 -119 127 -48
000040 7f 03 51 92 c9 7f 1a 1e ef 55 81 9d be 7f 5f 7c
       127 3 81 -110 -55 127 26 30 -17 85 -127 -99 -66 127 95 124
000050 02 81 32 2c 81 3a 51 ed 7f 24 f7 ba b2 a5 a5 7f
       2 -127 50 44 -127 58 81 -19 127 36 -9 -70 -78 -91 -91 127
000060 f1 81 e9 88 5a 7f 9e f5 7f f4 60 36 81 1b fe 37
       -15 -127 -23 -120 90 127 -98 -11 127 -12 96 54 -127 27 -2 55
000070 e6 fe aa 7f 03 8b 7f e4 ce 6f ed 7f 5d ea 7f d3
       -26 -2 -86 127 3 -117 127 -28 -50 111 -19 127 93 -22 127 -45
