evaluation-code/output/models/tflite/CNN_64units_framesize_5_20230623-133748.tflite (tflite, 101640 bytes, 3 tensors)

sequential_5/dense_9/MatMul i1 [10, 7680] scale=0.001140128 zero_point=0
00000000: 040d 0603 2205 0320 00fc 0108 1515 e0fd
00000010: f304 04d4 0e16 040a 0cf2 0104 1311 20e8
00000020: d90f df07 0708 1023 05ed 10ee ff0a f619
00000030: 1021 dd09 e4e9 0600 08dd 1be8 d9fb 07fb
00000040: 24ff fdf8 1b00 0e15 faec 0ff0 0b07 d8fb
00000050: d802 0fcf 0ef4 f20b f1f7 051f f710 0cfe
00000060: e214 eff4 0325 0d01 f5f8 fcfd fa0b dcf6
00000070: f9fd c7fe d5df 081c e1f5 23fc e2fa ebd1
00000080: 1913 0400 0920 07ff 0be0 f6ea 0800 ec14
00000090: e904 0dac 130a f1fc 1e08 f00e 0703 12e5
000000a0: e5fd e5ef 110b 0707 18f5 10fc f103 c91a
000000b0: ff18 ac15 e3f3 1005 f0e4 15e2 ca25 e3e5
000000c0: 0628 1b09 ef08 1519 fee3 06fc 0703 f5f5
000000d0: dcfc 24a0 180a f5e5 fff2 fa0e fadb 06ec
000000e0: 030d ffed 10eb f808 14f8 1e13 07f5 cee9
000000f0: 070a c4f8 d5fc 1e0b cfdc 0cf1 cf14 d8d3
0.004560512 0.014821664 0.0068407683 0.0034203841 0.038764354 0.00570064 0.0034203841 0.036484096
0.0 -0.004560512 0.001140128 0.009121024 0.023942688 0.023942688 -0.036484096 -0.0034203841
-0.014821664 0.004560512 0.004560512 -0.05016563 0.015961792 0.025082815 0.004560512 0.01140128
0.013681537 -0.015961792 0.001140128 0.004560512 0.021662433 0.019382177 0.036484096 -0.027363073
-0.04446499 0.01710192 -0.037624225 0.007980896 0.007980896 0.009121024 0.018242048 0.03990448
0.00570064 -0.021662433 0.018242048 -0.020522304 -0.001140128 0.01140128 -0.01140128 0.0285032
0.018242048 0.037624225 -0.03990448 0.010261152 -0.031923585 -0.026222944 0.0068407683 0.0
0.009121024 -0.03990448 0.030783456 -0.027363073 -0.04446499 -0.00570064 0.007980896 -0.00570064
0.041044608 -0.001140128 -0.0034203841 -0.009121024 0.030783456 0.0 0.015961792 0.023942688
-0.0068407683 -0.02280256 0.01710192 -0.018242048 0.012541408 0.007980896 -0.04560512 -0.00570064
-0.04560512 0.002280256 0.01710192 -0.05586627 0.015961792 -0.013681537 -0.015961792 0.012541408
-0.01710192 -0.010261152 0.00570064 0.035343967 -0.010261152 0.018242048 0.013681537 -0.002280256
-0.03420384 0.02280256 -0.019382177 -0.013681537 0.0034203841 0.042184737 0.014821664 0.001140128
-0.012541408 -0.009121024 -0.004560512 -0.0034203841 -0.0068407683 0.012541408 -0.041044608 -0.01140128
-0.007980896 -0.0034203841 -0.064987294 -0.002280256 -0.049025506 -0.037624225 0.009121024 0.031923585
-0.035343967 -0.012541408 0.03990448 -0.004560512 -0.03420384 -0.0068407683 -0.023942688 -0.053586017
0.0285032 0.021662433 0.004560512 0.0 0.010261152 0.036484096 0.007980896 -0.001140128
0.012541408 -0.036484096 -0.01140128 -0.025082815 0.009121024 0.0 -0.02280256 0.02280256
-0.026222944 0.004560512 0.014821664 -0.095770754 0.021662433 0.01140128 -0.01710192 -0.004560512
0.03420384 0.009121024 -0.018242048 0.015961792 0.007980896 0.0034203841 0.020522304 -0.030783456
-0.030783456 -0.0034203841 -0.030783456 -0.019382177 0.019382177 0.012541408 0.007980896 0.007980896
0.027363073 -0.012541408 0.018242048 -0.004560512 -0.01710192 0.0034203841 -0.06270704 0.029643329
-0.001140128 0.027363073 -0.095770754 0.023942688 -0.033063713 -0.014821664 0.018242048 0.00570064
-0.018242048 -0.031923585 0.023942688 -0.03420384 -0.06156691 0.042184737 -0.033063713 -0.030783456
0.0068407683 0.04560512 0.030783456 0.010261152 -0.019382177 0.009121024 0.023942688 0.0285032
-0.002280256 -0.033063713 0.0068407683 -0.004560512 0.007980896 0.0034203841 -0.012541408 -0.012541408
-0.041044608 -0.004560512 0.041044608 -0.10945229 0.027363073 0.01140128 -0.012541408 -0.030783456
-0.001140128 -0.015961792 -0.0068407683 0.015961792 -0.0068407683 -0.042184737 0.0068407683 -0.02280256
0.0034203841 0.014821664 -0.001140128 -0.021662433 0.018242048 -0.023942688 -0.009121024 0.009121024
0.02280256 -0.009121024 0.03420384 0.021662433 0.007980896 -0.012541408 -0.0570064 -0.026222944
0.007980896 0.01140128 -0.06840768 -0.009121024 -0.049025506 -0.004560512 0.03420384 0.012541408
-0.05586627 -0.041044608 0.013681537 -0.01710192 -0.05586627 0.02280256 -0.04560512 -0.05130576

sequential_5/time_distributed_17/conv2d_11/Conv2D i1 [64, 2, 2, 64]
00000000: 3b04 efe7 aee2 aa00 d137 fee9 fe1b f420
00000010: bd0e e019 320d 37fe 2810 31e5 df28 23d2
00000020: 0db7 a636 09d5 92e1 c7e2 22d9 f90e 28e0
00000030: e122 22fc f7db fded 0a0b 0fe9 c209 19ca
00000040: cf27 d7e4 d2e7 e422 aef4 0e1f f3f8 cf25
00000050: 34d4 23c0 f0eb d6e0 2310 25df ebee 1111
00000060: f303 fce3 30c5 ee2c d7f8 102b 0a37 d8d1
00000070: d5fa cba9 1415 e919 2f22 1110 39fa d0fe
00000080: 0b04 f1ea 98ef 8125 1c26 16b5 2513 1a27
00000090: c4f8 dd15 3426 38fb 16f2 ddeb 2829 2027
000000a0: edb6 a619 d699 a7e4 a4d4 fde1 e201 26d0
000000b0: ee04 17c2 da0c d1fe 2a15 f00a c6f2 0cd7
000000c0: 101c d9b8 8d0c f317 c6f8 df02 ed22 0803
000000d0: 29fc e2a1 db10 f2eb 2037 1316 ea01 0ce3
000000e0: f722 e526 dce9 f3e4 de00 feef 30e7 0221
000000f0: f615 e3a8 eafe 26f5 ea16 10f6 e5df fc2b
59 4 -17 -25 -82 -30 -86 0
-47 55 -2 -23 -2 27 -12 32
-67 14 -32 25 50 13 55 -2
40 16 49 -27 -33 40 35 -46
13 -73 -90 54 9 -43 -110 -31
-57 -30 34 -39 -7 14 40 -32
-31 34 34 -4 -9 -37 -3 -19
10 11 15 -23 -62 9 25 -54
-49 39 -41 -28 -46 -25 -28 34
-82 -12 14 31 -13 -8 -49 37
52 -44 35 -64 -16 -21 -42 -32
35 16 37 -33 -21 -18 17 17
-13 3 -4 -29 48 -59 -18 44
-41 -8 16 43 10 55 -40 -47
-43 -6 -53 -87 20 21 -23 25
47 34 17 16 57 -6 -48 -2
11 4 -15 -22 -104 -17 -127 37
28 38 22 -75 37 19 26 39
-60 -8 -35 21 52 38 56 -5
22 -14 -35 -21 40 41 32 39
-19 -74 -90 25 -42 -103 -89 -28
-92 -44 -3 -31 -30 1 38 -48
-18 4 23 -62 -38 12 -47 -2
42 21 -16 10 -58 -14 12 -41
16 28 -39 -72 -115 12 -13 23
-58 -8 -33 2 -19 34 8 3
41 -4 -30 -95 -37 16 -14 -21
32 55 19 22 -22 1 12 -29
-9 34 -27 38 -36 -23 -13 -28
-34 0 -2 -17 48 -25 2 33
-10 21 -29 -88 -22 -2 38 -11
-22 22 16 -10 -27 -33 -4 43

sequential_5/time_distributed_16/conv2d_10/Conv2D i1 [64, 2, 2, 1]
00000000: 7fa6 1db6 aa7f 137c dd2e 7f21 7b8a 5181
00000010: 18c9 81eb 2b7f 6e6f db81 8e38 487f 27d3
00000020: dcf3 7fa6 7fe6 34c1 b97f 9a4e a57f 9815
00000030: 6f3d ae7f 7f0d 71f5 6e81 7ad2 587f ad49
00000040: b20f af7f 7f0e 6306 7ff5 4547 2481 759a
00000050: 58eb 7fd8 7f5a 0122 46f4 7f82 3cee 3981
00000060: 217f b120 d87f 49e9 7fd7 bb64 7f99 4a40
00000070: 8a81 968c 42b2 7fe3 887f 716e 8116 1292
00000080: 81bc 18c9 8164 0804 cc7f 9ce2 7ff1 73df
00000090: fd1d 177f 81df d33f 9281 3a33 f02a 037f
000000a0: 3370 81b6 9b0e 4b7f 8a7e 067f 4f55 ae7f
000000b0: a932 d37f 5c7f c42c 751f 7f77 8189 b984
000000c0: 7fb9 5fda b47f 1a77 4eed 2b81 ecca 6481
000000d0: 8a45 a97f ac3b a77f 8c38 ba7f d87f a0f5
000000e0: fb7f 1145 0857 d77f 7fbf 75f6 bd0e 81cf
000000f0: be48 817b 7b32 7f8d 81b2 9911 c4fe d97f
127 -90 29 -74 -86 127 19 124
-35 46 127 33 123 -118 81 -127
24 -55 -127 -21 43 127 110 111
-37 -127 -114 56 72 127 39 -45
-36 -13 127 -90 127 -26 52 -63
-71 127 -102 78 -91 127 -104 21
111 61 -82 127 127 13 113 -11
110 -127 122 -46 88 127 -83 73
-78 15 -81 127 127 14 99 6
127 -11 69 71 36 -127 117 -102
88 -21 127 -40 127 90 1 34
70 -12 127 -126 60 -18 57 -127
33 127 -79 32 -40 127 73 -23
127 -41 -69 100 127 -103 74 64
-118 -127 -106 -116 66 -78 127 -29
-120 127 113 110 -127 22 18 -110
-127 -68 24 -55 -127 100 8 4
-52 127 -100 -30 127 -15 115 -33
-3 29 23 127 -127 -33 -45 63
-110 -127 58 51 -16 42 3 127
51 112 -127 -74 -101 14 75 127
-118 126 6 127 79 85 -82 127
-87 50 -45 127 92 127 -60 44
117 31 127 119 -127 -119 -71 -124
127 -71 95 -38 -76 127 26 119
78 -19 43 -127 -20 -54 100 -127
-118 69 -87 127 -84 59 -89 127
-116 56 -70 127 -40 127 -96 -11
-5 127 17 69 8 87 -41 127
127 -65 117 -10 -67 14 -127 -49
-66 72 -127 123 123 50 127 -115
-127 -78 -103 17 -60 -2 -39 127
