evaluation-code/output/models/tflite/ConvLSTM_two_conv_layers_lstm_32units_framesize_5_20230622-142418.tflite (tflite, 143096 bytes, 6 tensors)

sequential_24/dense_24/MatMul i1 [10, 32] scale=0.003987339 zero_point=0
000000 53 f9 30 06 44 4e 17 e1 34 c5 22 14 18 df 03 08
       0.33094913 -0.027911372 0.19139227 0.023924034 0.27113906 0.31101242 0.091708794 -0.1236075 0.20734163 -0.23525299 0.13556953 0.079746775 0.09569614 -0.13158219 0.011962017 0.03189871
000010 be bc 6f f9 24 3d c5 0c 6e f1 64 01 03 00 f6 e6
       -0.26316437 -0.27113906 0.44259462 -0.027911372 0.1435442 0.24322768 -0.23525299 0.04784807 0.43860728 -0.059810083 0.39873388 0.003987339 0.011962017 0.0 -0.039873388 -0.10367081
000020 1e 54 43 fd 9f d6 93 d9 b5 48 cc 8f f4 25 2f cf
       0.11962017 0.33493647 0.2671517 -0.011962017 -0.38677186 -0.16746823 -0.43461993 -0.15550621 -0.29905042 0.2870884 -0.20734163 -0.4505693 -0.04784807 0.14753154 0.18740493 -0.1953796
000030 e6 bf b6 22 ae fb 77 d7 02 c0 fb a1 67 81 b7 8d
       -0.10367081 -0.25917703 -0.29506308 0.13556953 -0.3269618 -0.019936694 0.47449332 -0.1634809 0.007974678 -0.2551897 -0.019936694 -0.3787972 0.4106959 -0.50639206 -0.29107574 -0.45854396
000040 61 f1 5e 2a 3a 6d 3a 19 07 26 3b 07 95 5e 37 b6
       0.38677186 -0.059810083 0.37480986 0.16746823 0.23126565 0.43461993 0.23126565 0.09968347 0.027911372 0.15151888 0.23525299 0.027911372 -0.42664525 0.37480986 0.21930364 -0.29506308
000050 1f 10 fd d0 36 0d 1f 9d e8 38 ff 0c ee 3e ec 96
       0.1236075 0.06379742 -0.011962017 -0.19139227 0.2153163 0.051835407 0.1236075 -0.39474654 -0.09569614 0.22329098 -0.003987339 0.04784807 -0.0717721 0.247215 -0.079746775 -0.4226579
000060 b5 e6 ff 32 f6 d1 02 4a d4 ca b7 e7 cf 2b b7 3b
       -0.29905042 -0.10367081 -0.003987339 0.19936694 -0.039873388 -0.18740493 0.007974678 0.29506308 -0.1754429 -0.2153163 -0.29107574 -0.09968347 -0.1953796 0.17145558 -0.29107574 0.23525299
000070 b4 c8 07 2e 16 05 b8 c7 2b 44 36 45 bb ee da d7
       -0.30303776 -0.22329098 0.027911372 0.18341759 0.08772145 0.019936694 -0.2870884 -0.22727832 0.17145558 0.27113906 0.2153163 0.27512637 -0.27512637 -0.0717721 -0.15151888 -0.1634809
000080 a2 11 54 63 14 b5 e9 38 c9 bb cb 52 ff 24 d4 03
       -0.37480986 0.067784764 0.33493647 0.39474654 0.079746775 -0.29905042 -0.091708794 0.22329098 -0.21930364 -0.27512637 -0.21132895 0.3269618 -0.003987339 0.1435442 -0.1754429 0.011962017
000090 b4 a9 e8 2d b1 26 ea 07 f6 e7 d8 27 2a da a8 4c
       -0.30303776 -0.34689847 -0.09569614 0.17943025 -0.31499976 0.15151888 -0.08772145 0.027911372 -0.039873388 -0.09968347 -0.15949355 0.15550621 0.16746823 -0.15151888 -0.3508858 0.30303776
0000a0 2d 2d 9a fb f8 41 2b 33 1f f6 37 37 27 d0 19 37
       0.17943025 0.17943025 -0.40670857 -0.019936694 -0.03189871 0.25917703 0.17145558 0.20335428 0.1236075 -0.039873388 0.21930364 0.21930364 0.15550621 -0.19139227 0.09968347 0.21930364
0000b0 16 6a 25 d8 d6 bf aa 43 d4 30 e3 0b ef 46 d9 dc
       0.08772145 0.4226579 0.14753154 -0.15949355 -0.16746823 -0.25917703 -0.34291115 0.2671517 -0.1754429 0.19139227 -0.115632825 0.043860726 -0.067784764 0.2791137 -0.15550621 -0.1435442
0000c0 32 1b ff c7 cd e6 1f 8e 0a c9 dc 53 54 3e 9b 20
       0.19936694 0.10765815 -0.003987339 -0.22727832 -0.20335428 -0.10367081 0.1236075 -0.45455664 0.039873388 -0.21930364 -0.1435442 0.33094913 0.33493647 0.247215 -0.40272123 0.12759484
0000d0 40 ac 59 34 34 29 f6 1b d3 0f 20 b4 ba 41 6c 2d
       0.2551897 -0.33493647 0.35487315 0.20734163 0.20734163 0.1634809 -0.039873388 0.10765815 -0.17943025 0.059810083 0.12759484 -0.30303776 -0.2791137 0.25917703 0.4306326 0.17943025
0000e0 df e3 ec d0 c1 e6 90 15 c3 67 b3 57 b8 f8 24 e9
       -0.13158219 -0.115632825 -0.079746775 -0.19139227 -0.25120234 -0.10367081 -0.44658196 0.08373412 -0.24322768 0.4106959 -0.3070251 0.34689847 -0.2870884 -0.03189871 0.1435442 -0.091708794
0000f0 f6 cd c2 41 b4 1c 42 ab c6 f2 a5 f3 43 34 db a7
       -0.039873388 -0.20335428 -0.247215 0.25917703 -0.30303776 0.11164549 0.26316437 -0.3389238 -0.23126565 -0.055822745 -0.36284783 -0.051835407 0.2671517 0.20734163 -0.14753154 -0.35487315

sequential_24/time_distributed_71/conv2d_38/Conv2D i1 [128, 2, 2, 128]
000000 e6 11 ba ca ad 32 5d 21 d0 3b f9 63 44 11 ca 40
       -26 17 -70 -54 -83 50 93 33 -48 59 -7 99 68 17 -54 64
000010 e5 fe e7 06 a4 d2 3b 56 c3 e3 c9 05 bc ef a8 4b
       -27 -2 -25 6 -92 -46 59 86 -61 -29 -55 5 -68 -17 -88 75
000020 b9 f4 4d 3b a4 13 e8 02 18 1d f8 f5 f3 ff f7 67
       -71 -12 77 59 -92 19 -24 2 24 29 -8 -11 -13 -1 -9 103
000030 c8 c6 d8 2b 0d 01 ba e4 e4 16 19 14 11 c5 f7 1f
       -56 -58 -40 43 13 1 -70 -28 -28 22 25 20 17 -59 -9 31
000040 de 36 05 21 31 13 be dd d6 d3 02 f9 d1 dd 27 f6
       -34 54 5 33 49 19 -66 -35 -42 -45 2 -7 -47 -35 39 -10
000050 08 1c d0 45 59 10 cf 28 d1 18 d4 39 4b 29 e1 1d
       8 28 -48 69 89 16 -49 40 -47 24 -44 57 75 41 -31 29
000060 0d 2f fd d4 5b bf d9 d8 fa ff c9 9b 0d b1 1f db
       13 47 -3 -44 91 -65 -39 -40 -6 -1 -55 -101 13 -79 31 -37
000070 c7 6a f7 d4 e5 f4 40 34 ea de 4b 23 47 ec c7 d4
       -57 106 -9 -44 -27 -12 64 52 -22 -34 75 35 71 -20 -57 -44
000080 42 fe f8 1f f1 ed d3 c6 d9 fb 3b 50 c0 1e bc de
       66 -2 -8 31 -15 -19 -45 -58 -39 -5 59 80 -64 30 -68 -34
000090 e9 31 f0 08 30 20 d5 34 1b d5 df f8 fb 28 cb 51
       -23 49 -16 8 48 32 -43 52 27 -43 -33 -8 -5 40 -53 81
0000a0 eb 3a 01 53 0f 15 e8 16 5c 4d d4 09 bf c4 1f 53
       -21 58 1 83 15 21 -24 22 92 77 -44 9 -65 -60 31 83
0000b0 c8 b7 0a f1 3a 32 d4 0e e8 25 f6 31 4b ca 21 d4
       -56 -73 10 -15 58 50 -44 14 -24 37 -10 49 75 -54 33 -44
0000c0 0f f6 2b b8 5c c1 02 df ea c2 c3 e0 20 1c 1c 3d
       15 -10 43 -72 92 -63 2 -33 -22 -62 -61 -32 32 28 28 61
0000d0 e0 fe d1 0c 2d 29 26 42 0d df 24 00 4a f8 e1 1b
       -32 -2 -47 12 45 41 38 66 13 -33 36 0 74 -8 -31 27
0000e0 e0 12 09 f1 f7 e1 c8 13 07 c0 c2 1a 0c 03 3d 3c
       -32 18 9 -15 -9 -31 -56 19 7 -64 -62 26 12 3 61 60
0000f0 19 d7 24 d7 34 44 4c c3 3c 20 23 26 47 be 30 e2
       25 -41 36 -41 52 68 76 -61 60 32 35 38 71 -66 48 -30

sequential_24/time_distributed_70/conv2d_37/Conv2D i1 [128, 2, 2, 1]
000000 f5 81 cc 39 29 0f 2b 81 11 7f 0b 3e 7f f3 fa d3
       -11 -127 -52 57 41 15 43 -127 17 127 11 62 127 -13 -6 -45
000010 7f 9f 05 b9 44 81 16 f5 81 3b de 0a f2 7f 6a 39
       127 -97 5 -71 68 -127 22 -11 -127 59 -34 10 -14 127 106 57
000020 5f a4 57 81 a4 2c a3 7f e0 12 7f 39 96 7f 2a b9
       95 -92 87 -127 -92 44 -93 127 -32 18 127 57 -106 127 42 -71
000030 81 c7 cc 99 7f c2 60 85 81 9d ec fd 9c 41 9c 7f
       -127 -57 -52 -103 127 -62 96 -123 -127 -99 -20 -3 -100 65 -100 127
000040 06 7f 0f dd d3 fd 23 7f e0 7f 9a 03 82 db ab 7f
       6 127 15 -35 -45 -3 35 127 -32 127 -102 3 -126 -37 -85 127
000050 7f 04 db fd 10 4c ee 7f 4d d2 bc 7f fc 42 81 02
       127 4 -37 -3 16 76 -18 127 77 -46 -68 127 -4 66 -127 2
000060 60 20 7f 9e 2c 4d 55 81 98 81 ce 91 8f 81 c3 46
       96 32 127 -98 44 77 85 -127 -104 -127 -50 -111 -113 -127 -61 70
000070 81 fa 05 9c 1b 46 e6 7f 7f 19 4e 39 81 77 6b d6
       -127 -6 5 -100 27 70 -26 127 127 25 78 57 -127 119 107 -42
000080 7f 95 81 65 7f c5 e7 48 57 f3 81 50 9c 7f 9c 01
       127 -107 -127 101 127 -59 -25 72 87 -13 -127 80 -100 127 -100 1
000090 72 81 0d ef 7f 68 7a fc bf 4c 61 81 96 81 1b 8f
       114 -127 13 -17 127 104 122 -4 -65 76 97 -127 -106 -127 27 -113
0000a0 e3 bb d9 7f a1 81 78 bc 0f 15 7f a4 b0 64 81 d0
       -29 -69 -39 127 -95 -127 120 -68 15 21 127 -92 -80 100 -127 -48
0000b0 f2 9d c8 81 36 4a 81 72 0a 46 0d 7f dc 81 ad 70
       -14 -99 -56 -127 54 74 -127 114 10 70 13 127 -36 -127 -83 112
0000c0 f3 7f fd 86 86 81 88 fc 7f e1 b1 d5 81 3d 05 d5
       -13 127 -3 -122 -122 -127 -120 -4 127 -31 -79 -43 -127 61 5 -43
0000d0 f7 db 81 02 b5 0c 7f a6 78 7f b8 b7 3f 51 81 34
       -9 -37 -127 2 -75 12 127 -90 120 127 -72 -73 63 81 -127 52
0000e0 89 11 7f 49 d5 81 6f 20 92 2e 81 6e 38 68 7f 65
       -119 17 127 73 -43 -127 111 32 -110 46 -127 110 56 104 127 101
0000f0 a1 7f 96 6f 1c 7c 9e 81 1b 7f 0c e6 81 c1 ea 06
       -95 127 -106 111 28 124 -98 -127 27 127 12 -26 -127 -63 -22 6

sequential_24/lstm_19/Read_2/ReadVariableOp1 i1 [128] scale=0.004163036 zero_point=-126
000000 8a 89 80 81 84 8c 8b 81 88 89 8c 8d 8a 83 8d 84
       0.03330429 0.029141253 -0.008326072 -0.004163036 0.008326072 0.04163036 0.037467323 -0.004163036 0.024978217 0.029141253 0.04163036 0.0457934 0.03330429 0.004163036 0.0457934 0.008326072
000010 8a 88 91 81 89 82 88 85 87 85 89 92 87 85 88 88
       0.03330429 0.024978217 0.062445544 -0.004163036 0.029141253 0.0 0.024978217 0.012489108 0.02081518 0.012489108 0.029141253 0.06660858 0.02081518 0.012489108 0.024978217 0.024978217
000020 78 74 78 70 77 77 7b 79 78 75 75 77 7c 73 77 79
       1.0241069 1.0074548 1.0241069 0.9908026 1.0199438 1.0199438 1.036596 1.0282699 1.0241069 1.0116178 1.0116178 1.0199438 1.0407591 1.0032917 1.0199438 1.0282699
000030 75 74 77 71 79 79 76 78 7d 72 7f 77 78 76 77 75
       1.0116178 1.0074548 1.0199438 0.9949656 1.0282699 1.0282699 1.0157808 1.0241069 1.0449221 0.9991287 1.0532482 1.0199438 1.0241069 1.0157808 1.0199438 1.0116178
000040 83 82 84 84 81 80 82 83 81 81 82 80 80 80 83 81
       0.004163036 0.0 0.008326072 0.008326072 -0.004163036 -0.008326072 0.0 0.004163036 -0.004163036 -0.004163036 0.0 -0.008326072 -0.008326072 -0.008326072 0.004163036 -0.004163036
000050 81 81 81 83 83 82 83 84 82 82 82 80 83 81 81 83
       -0.004163036 -0.004163036 -0.004163036 0.004163036 0.004163036 0.0 0.004163036 0.008326072 0.0 0.0 0.0 -0.008326072 0.004163036 -0.004163036 -0.004163036 0.004163036
000060 89 89 87 81 86 8c 8f 8e 8d 89 8c 8b 8d 83 92 87
       0.029141253 0.029141253 0.02081518 -0.004163036 0.016652144 0.04163036 0.054119468 0.049956433 0.0457934 0.029141253 0.04163036 0.037467323 0.0457934 0.004163036 0.06660858 0.02081518
000070 88 8e 95 84 8a 8a 90 8a 8b 88 91 98 91 88 8b 8d
       0.024978217 0.049956433 0.07909769 0.008326072 0.03330429 0.03330429 0.058282506 0.03330429 0.037467323 0.024978217 0.062445544 0.0915868 0.062445544 0.024978217 0.037467323 0.0457934

while/MatMul i1 [128, 384] scale=0.0020347077 zero_point=0
000000 07 1e 39 fe 1b eb fe 2d e5 31 18 f7 17 14 f8 31
       0.014242954 0.061041232 0.11597834 -0.0040694154 0.05493711 -0.04272886 -0.0040694154 0.09156185 -0.05493711 0.099700674 0.048832983 -0.018312369 0.046798278 0.040694155 -0.016277662 0.099700674
000010 e8 fe 3c 0a df 09 3d 1d 2d 11 31 4e 40 2b 21 df
       -0.048832983 -0.0040694154 0.122082464 0.020347077 -0.067145355 0.018312369 0.124117166 0.059006523 0.09156185 0.034590032 0.099700674 0.1587072 0.13022129 0.08749243 0.067145355 -0.067145355
000020 e6 30 39 ea d7 15 49 1c 40 3f 2a 14 cf 3f 3c 45
       -0.0529024 0.097665966 0.11597834 -0.04476357 -0.08342302 0.04272886 0.14853366 0.056971814 0.13022129 0.12818658 0.08545772 0.040694155 -0.099700674 0.12818658 0.122082464 0.14039484
000030 23 00 1e 01 d4 f6 28 e1 e1 16 11 07 f9 ff 42 3f
       0.07121477 0.0 0.061041232 0.0020347077 -0.08952714 -0.020347077 0.08138831 -0.06307594 -0.06307594 0.04476357 0.034590032 0.014242954 -0.014242954 -0.0020347077 0.13429071 0.12818658
000040 fc 3b c8 fd f6 31 17 4f 18 f2 24 09 22 10 15 16
       -0.008138831 0.120047756 -0.11394363 -0.006104123 -0.020347077 0.099700674 0.046798278 0.16074191 0.048832983 -0.028485907 0.073249474 0.018312369 0.069180064 0.032555323 0.04272886 0.04476357
000050 3b 2d fa 07 29 3b db 36 23 26 27 35 08 2f 14 e7
       0.120047756 0.09156185 -0.012208246 0.014242954 0.08342302 0.120047756 -0.07528418 0.10987422 0.07121477 0.07731889 0.0793536 0.10783951 0.016277662 0.095631264 0.040694155 -0.05086769
000060 ce 34 1a 42 21 e6 33 4a 21 f6 3b 25 ee f0 f3 20
       -0.10173538 0.1058048 0.0529024 0.13429071 0.067145355 -0.0529024 0.10377009 0.15056837 0.067145355 -0.020347077 0.120047756 0.07528418 -0.036624737 -0.032555323 -0.0264512 0.065110646
000070 44 02 f3 2f 27 49 15 29 44 eb 0b dd 21 18 fe 0d
       0.13836013 0.0040694154 -0.0264512 0.095631264 0.0793536 0.14853366 0.04272886 0.08342302 0.13836013 -0.04272886 0.022381784 -0.07121477 0.067145355 0.048832983 -0.0040694154 0.0264512
000080 18 cf 11 f1 f0 28 2b d6 34 fc 2a 10 09 46 1a 24
       0.048832983 -0.099700674 0.034590032 -0.030520616 -0.032555323 0.08138831 0.08749243 -0.08545772 0.1058048 -0.008138831 0.08545772 0.032555323 0.018312369 0.14242955 0.0529024 0.073249474
000090 2c 1e 20 21 33 2b fd 1f 47 12 f5 51 18 2c 17 fd
       0.08952714 0.061041232 0.065110646 0.067145355 0.10377009 0.08749243 -0.006104123 0.06307594 0.14446424 0.036624737 -0.022381784 0.16481133 0.048832983 0.08952714 0.046798278 -0.006104123
0000a0 e8 f6 f1 21 29 26 0a e7 2f e8 06 33 28 20 03 23
       -0.048832983 -0.020347077 -0.030520616 0.067145355 0.08342302 0.07731889 0.020347077 -0.05086769 0.095631264 -0.048832983 0.012208246 0.10377009 0.08138831 0.065110646 0.006104123 0.07121477
0000b0 f3 19 11 01 2a f2 f7 43 21 1f 13 1c 2a 29 e7 2b
       -0.0264512 0.05086769 0.034590032 0.0020347077 0.08545772 -0.028485907 -0.018312369 0.13632542 0.067145355 0.06307594 0.038659446 0.056971814 0.08545772 0.08342302 -0.05086769 0.08749243
0000c0 1e 42 c8 26 01 25 08 32 01 f7 e5 ee d2 f5 1a 43
       0.061041232 0.13429071 -0.11394363 0.07731889 0.0020347077 0.07528418 0.016277662 0.10173538 0.0020347077 -0.018312369 -0.05493711 -0.036624737 -0.093596555 -0.022381784 0.0529024 0.13632542
0000d0 00 12 1b f5 47 22 27 22 fb 2c 38 24 39 e0 fc ec
       0.0 0.036624737 0.05493711 -0.022381784 0.14446424 0.069180064 0.0793536 0.069180064 -0.010173539 0.08952714 0.11394363 0.073249474 0.11597834 -0.065110646 -0.008138831 -0.040694155
0000e0 09 1e 39 2a eb ef 23 fc 36 e4 32 ef 10 f9 26 15
       0.018312369 0.061041232 0.11597834 0.08545772 -0.04272886 -0.034590032 0.07121477 -0.008138831 0.10987422 -0.056971814 0.10173538 -0.034590032 0.032555323 -0.014242954 0.07731889 0.04272886
0000f0 0b 0a 2d 10 e3 13 24 f4 3a 14 1d 0f 1a 14 1a f1
       0.022381784 0.020347077 0.09156185 0.032555323 -0.059006523 0.038659446 0.073249474 -0.024416491 0.11801305 0.040694155 0.059006523 0.030520616 0.0529024 0.040694155 0.0529024 -0.030520616

while/MatMul_11 i1 [128, 32] scale=0.0027335794 zero_point=0
000000 f8 fe e4 3b e0 1f 08 38 d7 f7 8c ea f8 2d ec 20
       -0.021868635 -0.0054671587 -0.076540224 0.16128118 -0.08747454 0.08474096 0.021868635 0.15308045 -0.11207675 -0.024602214 -0.31709522 -0.060138747 -0.021868635 0.123011075 -0.054671586 0.08747454
000010 28 fa 07 f8 ea e3 18 f6 d0 e0 19 0a 26 19 cc 01
       0.10934317 -0.016401477 0.019135056 -0.021868635 -0.060138747 -0.079273805 0.06560591 -0.027335793 -0.13121182 -0.08747454 0.06833948 0.027335793 0.10387602 0.06833948 -0.14214613 0.0027335794
000020 14 1a 38 26 d6 15 ea 39 c2 24 d9 4e 04 15 fe d8
       0.054671586 0.07107306 0.15308045 0.10387602 -0.11481033 0.057405166 -0.060138747 0.15581402 -0.16948192 0.098408855 -0.1066096 0.2132192 0.0109343175 0.057405166 -0.0054671587 -0.10934317
000030 0f 01 e2 54 f9 e1 0a de c7 fc e2 f9 1b 41 ea 02
       0.04100369 0.0027335794 -0.08200738 0.22962067 -0.019135056 -0.08474096 0.027335793 -0.0929417 -0.15581402 -0.0109343175 -0.08200738 -0.019135056 0.07380664 0.17768265 -0.060138747 0.0054671587
000040 1c df b5 06 fa bf e3 04 fc fa 1d e7 fe 17 22 2b
       0.076540224 -0.09020812 -0.20501845 0.016401477 -0.016401477 -0.17768265 -0.079273805 0.0109343175 -0.0109343175 -0.016401477 0.079273805 -0.06833948 -0.0054671587 0.06287233 0.0929417 0.11754391
000050 45 25 fb 17 09 df 3d f7 02 e7 ff d8 ff ca 04 fc
       0.18861698 0.101142436 -0.013667896 0.06287233 0.024602214 -0.09020812 0.16674834 -0.024602214 0.0054671587 -0.06833948 -0.0027335794 -0.10934317 -0.0027335794 -0.14761329 0.0109343175 -0.0109343175
000060 03 15 04 ea f5 e1 03 20 fd da df fc ec 0a db ed
       0.008200739 0.057405166 0.0109343175 -0.060138747 -0.030069374 -0.08474096 0.008200739 0.08747454 -0.008200739 -0.10387602 -0.09020812 -0.0109343175 -0.054671586 0.027335793 -0.101142436 -0.05193801
000070 d9 2a e6 cf 0b 00 23 30 d5 de d0 fd f2 38 fc 1a
       -0.1066096 0.11481033 -0.07107306 -0.13394539 0.030069374 0.0 0.095675275 0.13121182 -0.11754391 -0.0929417 -0.13121182 -0.008200739 -0.038270112 0.15308045 -0.0109343175 0.07107306
000080 07 13 ec 20 23 1a bf d1 a8 c8 f8 ec e3 26 3d ee
       0.019135056 0.05193801 -0.054671586 0.08747454 0.095675275 0.07107306 -0.17768265 -0.12847823 -0.24055499 -0.15308045 -0.021868635 -0.054671586 -0.079273805 0.10387602 0.16674834 -0.049204428
000090 f5 09 d4 f0 0d bf 07 15 e1 f0 1f bb 15 0e bc 22
       -0.030069374 0.024602214 -0.120277494 -0.04373727 0.03553653 -0.17768265 0.019135056 0.057405166 -0.08474096 -0.04373727 0.08474096 -0.18861698 0.057405166 0.038270112 -0.1858834 0.0929417
0000a0 ff f6 d0 1f fe f0 f6 ea 06 07 46 fe c1 1f 00 1e
       -0.0027335794 -0.027335793 -0.13121182 0.08474096 -0.0054671587 -0.04373727 -0.027335793 -0.060138747 0.016401477 0.019135056 0.19135055 -0.0054671587 -0.1722155 0.08474096 0.0 0.08200738
0000b0 13 0e fd 12 e0 d8 fe 15 fa df 25 e7 ee f3 26 d0
       0.05193801 0.038270112 -0.008200739 0.049204428 -0.08747454 -0.10934317 -0.0054671587 0.057405166 -0.016401477 -0.09020812 0.101142436 -0.06833948 -0.049204428 -0.03553653 0.10387602 -0.13121182
0000c0 e8 25 d4 1b 11 3e 14 1a d3 04 42 ff 2b 13 2a 06
       -0.06560591 0.101142436 -0.120277494 0.07380664 0.04647085 0.16948192 0.054671586 0.07107306 -0.123011075 0.0109343175 0.18041624 -0.0027335794 0.11754391 0.05193801 0.11481033 0.016401477
0000d0 e7 05 f7 0a 0f fe e0 39 f6 db 06 fc 2d cf 01 2b
       -0.06833948 0.013667896 -0.024602214 0.027335793 0.04100369 -0.0054671587 -0.08747454 0.15581402 -0.027335793 -0.101142436 0.016401477 -0.0109343175 0.123011075 -0.13394539 0.0027335794 0.11754391
0000e0 ea 11 09 12 f4 fb d1 05 dc fb e1 dc 0d c5 15 08
       -0.060138747 0.04647085 0.024602214 0.049204428 -0.032802954 -0.013667896 -0.12847823 0.013667896 -0.098408855 -0.013667896 -0.08474096 -0.098408855 0.03553653 -0.16128118 0.057405166 0.021868635
0000f0 2d dc 0a d6 ec ef fc cc 00 e5 4f 2f 28 fb dd dd
       0.123011075 -0.098408855 0.027335793 -0.11481033 -0.054671586 -0.04647085 -0.0109343175 -0.14214613 0.0 -0.07380664 0.21595277 0.12847823 0.10934317 -0.013667896 -0.095675275 -0.095675275
