evaluation-code/output/models/tflite/ConvLSTM_one_conv_layer_lstm_64units_framesize_5_20230622-141619.tflite (tflite, 298560 bytes, 5 tensors)

sequential_22/dense_22/MatMul i1 [10, 64] scale=0.0034486535 zero_point=0
-0.24830306 -0.1482921 0.19312459 -0.32417342 -0.1344975 0.024140574 0.100010954 0.100010954
0.017243268 0.062075764 -0.26554632 -0.07242172 -0.1482921 0.15863806 0.10690826 0.17588133
-0.07587038 -0.22761112 -0.22761112 0.05862711 0.100010954 -0.21726517 -0.12415153 -0.05862711
-0.017243268 -0.08966499 -0.11035691 -0.26209766 0.30348152 -0.065524414 -0.08276768 -0.055178456
-0.07931903 -0.25520036 -0.32417342 0.103459604 0.11725422 0.19312459 -0.2965842 0.03793519
-0.13104883 -0.2965842 -0.12415153 -0.07587038 0.024140574 -0.11380556 0.22071382 0.26554632
0.19312459 0.05862711 0.17932998 -0.07242172 0.16553536 0.1482921 0.21381652 -0.006897307
0.03793519 -0.16553536 0.006897307 -0.08276768 -0.27244362 -0.006897307 0.10690826 -0.14484344
-0.15174076 0.100010954 0.33107072 -0.25520036 0.051729802 -0.33107072 0.11725422 -0.32417342
-0.31037882 -0.36555728 -0.01034596 0.33796805 0.093113646 0.06897307 0.1482921 -0.20691921
0.19312459 0.33107072 0.044832494 0.12070287 -0.3207248 -0.22761112 0.43797898 -0.034486536
-0.22071382 0.22761112 0.31727612 0.15174076 -0.16553536 0.34486535 0.12760018 -0.21726517
0.37935188 0.12760018 0.10690826 0.19312459 0.08276768 -0.27934092 0.36210862 0.027589228
-0.20002191 0.2827896 -0.1344975 0.07242172 -0.22071382 -0.19312459 -0.34831402 0.23105979
-0.065524414 -0.17932998 0.07587038 -0.16898403 0.062075764 -0.13104883 -0.055178456 -0.30003285
-0.27934092 -0.08621634 0.05862711 0.268995 0.051729802 0.25864902 -0.07931903 0.23450844
0.22071382 -0.22071382 -0.21381652 0.16553536 0.21036786 0.10690826 -0.19657324 0.24830306
-0.22071382 -0.2517517 0.034486536 0.034486536 0.1413948 0.12070287 -0.065524414 0.103459604
0.1413948 -0.100010954 0.07587038 0.20691921 0.08276768 -0.2827896 -0.21726517 -0.16898403
0.08276768 0.05862711 0.3207248 0.17243268 0.055178456 -0.031037882 -0.048281148 -0.013794614
0.08276768 -0.15518941 -0.20347056 0.16553536 0.07242172 0.26209766 -0.26554632 0.22761112
-0.100010954 0.03793519 0.06897307 -0.1344975 -0.16898403 0.15518941 -0.16898403 0.20691921
0.006897307 0.2448544 0.2896869 -0.2448544 -0.01034596 -0.08966499 0.18967594 0.15518941
-0.19657324 0.02069192 -0.23105979 0.17932998 0.26209766 0.19312459 -0.06897307 -0.2758923
0.017243268 -0.055178456 -0.30693015 0.062075764 0.17243268 0.07242172 0.14484344 0.096562296
-0.21726517 -0.13794614 -0.013794614 0.36555728 0.26554632 -0.006897307 -0.02069192 0.1344975
-0.08621634 0.065524414 -0.18277864 -0.21726517 -0.062075764 0.27934092 0.08966499 0.35176265
0.2758923 0.27934092 0.031037882 0.19657324 -0.096562296 -0.19657324 -0.20002191 -0.07242172
-0.093113646 0.20347056 -0.01034596 0.05862711 -0.25520036 0.22416247 -0.08966499 0.17588133
0.38280055 -0.024140574 0.03793519 0.21036786 -0.065524414 -0.10690826 0.034486536 -0.2448544
0.055178456 -0.051729802 -0.13104883 -0.30348152 -0.12760018 0.093113646 0.05862711 -0.0034486535
0.17243268 -0.031037882 -0.017243268 -0.30003285 0.33107072 -0.013794614 0.03793519 0.13104883
00000000: b8d5 38a2 d907 1d1d 0512 b3eb d52e 1f33
00000010: eabe be11 1dc1 dcef fbe6 e0b4 58ed e8f0
00000020: e9b6 a21e 2238 aa0b daaa dcea 07df 404d
00000030: 3811 34eb 302b 3efe 0bd0 02e8 b1fe 1fd6
00000040: d41d 60b6 0fa0 22a2 a696 fd62 1b14 2bc4
00000050: 3860 0d23 a3be 7ff6 c042 5c2c d064 25c1
00000060: 6e25 1f38 18af 6908 c652 d915 c0c8 9b43
00000070: edcc 16cf 12da f0a9 afe7 114e 0f4b e944
00000080: 40c0 c230 3d1f c748 c0b7 0a0a 2923 ed1e
00000090: 29e3 163c 18ae c1cf 1811 5d32 10f7 f2fc
000000a0: 18d3 c530 154c b342 e30b 14d9 cf2d cf3c
000000b0: 0247 54b9 fde6 372d c706 bd34 4c38 ecb0
000000c0: 05f0 a712 3215 2a1c c1d8 fc6a 4dfe fa27
000000d0: e713 cbc1 ee51 1a66 5051 0939 e4c7 c6eb
000000e0: e53b fd11 b641 e633 6ff9 0b3d ede1 0ab9
000000f0: 10f1 daa8 db1b 11ff 32f7 fba9 60fc 0b26

sequential_22/time_distributed_66/conv2d_35/Conv2D i1 [128, 2, 2, 1]
119 67 -127 96 85 -127 35 118
127 63 -93 52 127 -88 82 125
60 63 -127 -120 -127 -13 -22 -17
127 -122 -8 105 55 127 91 21
-127 114 21 49 25 101 -55 127
-11 -18 112 -127 -14 127 118 -10
97 6 68 127 101 -82 127 86
21 127 116 84 -71 1 -127 -43
-127 -110 -29 -37 -122 43 44 127
-24 -98 127 -34 -127 120 113 123
57 -127 87 -26 96 -127 91 -36
127 -120 3 -23 127 37 30 -49
-9 127 -58 -57 127 -42 51 9
-38 97 56 127 -58 -97 127 18
-127 -76 -57 127 60 -127 -34 -7
82 -122 127 113 127 74 -72 73
2 -127 -107 -112 127 -51 -50 104
32 127 -33 97 34 -105 -81 127
-25 61 -106 127 44 -21 34 127
14 -11 -127 1 -91 -127 -78 -66
-127 12 -121 -83 -22 -10 -51 -127
123 127 -114 62 127 -107 -43 -22
-53 127 -42 102 -67 -127 -65 -22
-105 -127 -77 -63 127 109 2 83
-127 82 -119 16 -17 1 127 101
-84 46 127 66 127 99 -78 -40
56 41 -127 -106 55 127 18 84
91 23 127 -113 127 -117 38 -85
-127 15 78 115 -127 -69 122 22
-120 127 109 46 -44 127 -71 -35
-46 -49 127 -85 86 41 -127 94
56 -2 -5 127 -89 14 127 105
00000000: 7743 8160 5581 2376 7f3f a334 7fa8 527d
00000010: 3c3f 8188 81f3 eaef 7f86 f869 377f 5b15
00000020: 8172 1531 1965 c97f f5ee 7081 f27f 76f6
00000030: 6106 447f 65ae 7f56 157f 7454 b901 81d5
00000040: 8192 e3db 862b 2c7f e89e 7fde 8178 717b
00000050: 3981 57e6 6081 5bdc 7f88 03e9 7f25 1ecf
00000060: f77f c6c7 7fd6 3309 da61 387f c69f 7f12
00000070: 81b4 c77f 3c81 def9 5286 7f71 7f4a b849
00000080: 0281 9590 7fcd ce68 207f df61 2297 af7f
00000090: e73d 967f 2ceb 227f 0ef5 8101 a581 b2be
000000a0: 810c 87ad eaf6 cd81 7b7f 8e3e 7f95 d5ea
000000b0: cb7f d666 bd81 bfea 9781 b3c1 7f6d 0253
000000c0: 8152 8910 ef01 7f65 ac2e 7f42 7f63 b2d8
000000d0: 3829 8196 377f 1254 5b17 7f8f 7f8b 26ab
000000e0: 810f 4e73 81bb 7a16 887f 6d2e d47f b9dd
000000f0: d2cf 7fab 5629 815e 38fe fb7f a70e 7f69

sequential_22/lstm_17/Read_2/ReadVariableOp1 i1 [256] scale=0.004093275 zero_point=-126
0.0163731 0.04093275 0.0327462 0.004093275 0.0163731 0.0 0.00818655 0.036839474
0.0 0.0 0.012279825 0.0163731 0.0 0.0163731 0.053212576 0.02455965
0.020466374 0.0327462 0.00818655 0.012279825 0.020466374 0.028652925 0.02455965 0.012279825
0.0163731 0.012279825 0.020466374 0.036839474 0.04093275 0.00818655 0.004093275 0.036839474
0.020466374 -0.004093275 0.02455965 0.004093275 0.028652925 0.0327462 0.012279825 0.004093275
0.020466374 0.012279825 0.028652925 0.020466374 0.0327462 0.02455965 0.020466374 0.0163731
0.00818655 0.012279825 0.020466374 0.0163731 0.0163731 0.036839474 0.0 0.012279825
0.012279825 0.0163731 0.0 0.012279825 0.012279825 0.004093275 0.004093275 0.028652925
1.0192255 1.0028523 1.0192255 0.9987591 1.0028523 1.0233188 0.9946658 1.0110389
1.0069456 1.0355985 1.0028523 1.0069456 1.0028523 1.0110389 1.0110389 1.0151322
1.0069456 1.0151322 1.0151322 1.0233188 1.0028523 1.0069456 1.0110389 1.0028523
1.0028523 1.0151322 1.0151322 1.0069456 1.0192255 1.0110389 1.0110389 1.0151322
1.0151322 1.0151322 1.0151322 1.0028523 1.027412 1.0192255 1.0192255 0.9987591
1.0069456 0.9905725 0.9987591 1.0233188 1.0028523 1.0151322 1.0028523 1.0151322
1.0110389 0.9987591 1.0110389 1.0110389 1.0069456 1.0151322 1.0028523 1.0069456
1.0110389 1.0233188 1.0151322 1.0151322 1.0028523 1.0151322 0.9987591 1.0151322
0.00818655 0.00818655 -0.004093275 0.004093275 0.0 0.0 0.0 0.0
0.0 0.0 0.004093275 0.012279825 -0.004093275 0.004093275 -0.004093275 0.0
0.012279825 0.0 -0.004093275 0.0 -0.00818655 -0.00818655 0.0 0.0
-0.004093275 0.004093275 -0.00818655 0.0 -0.004093275 0.0 -0.004093275 -0.00818655
0.0 0.00818655 0.0 0.004093275 -0.004093275 0.0 0.004093275 0.004093275
-0.004093275 0.0 -0.004093275 -0.004093275 -0.00818655 -0.004093275 0.00818655 -0.004093275
0.004093275 0.004093275 -0.004093275 0.004093275 -0.004093275 -0.00818655 0.004093275 -0.004093275
0.004093275 0.0 -0.004093275 0.004093275 -0.004093275 -0.004093275 0.00818655 0.0
0.020466374 0.02455965 0.06958567 0.0163731 0.020466374 0.028652925 0.0163731 0.028652925
0.0163731 0.020466374 0.0163731 0.028652925 0.020466374 0.02455965 0.02455965 0.020466374
0.02455965 0.020466374 0.0163731 0.0327462 0.028652925 0.02455965 0.045026023 0.00818655
0.020466374 0.020466374 0.020466374 0.036839474 0.0491193 0.028652925 0.0163731 0.0654924
0.036839474 0.0327462 0.0491193 0.028652925 0.0163731 0.04093275 0.036839474 0.02455965
0.02455965 0.020466374 0.036839474 0.020466374 0.028652925 0.02455965 0.02455965 0.0327462
0.00818655 0.0163731 0.0163731 0.02455965 0.020466374 0.04093275 0.028652925 0.0163731
0.028652925 0.020466374 0.0163731 0.0163731 0.02455965 0.028652925 0.02455965 0.0491193
00000000: 868c 8a83 8682 848b 8282 8586 8286 8f88
00000010: 878a 8485 8789 8885 8685 878b 8c84 838b
00000020: 8781 8883 898a 8583 8785 8987 8a88 8786
00000030: 8485 8786 868b 8285 8586 8285 8583 8389
00000040: 7b77 7b76 777c 7579 787f 7778 7779 797a
00000050: 787a 7a7c 7778 7977 777a 7a78 7b79 797a
00000060: 7a7a 7a77 7d7b 7b76 7874 767c 777a 777a
00000070: 7976 7979 787a 7778 797c 7a7a 777a 767a
00000080: 8484 8183 8282 8282 8282 8385 8183 8182
00000090: 8582 8182 8080 8282 8183 8082 8182 8180
000000a0: 8284 8283 8182 8383 8182 8181 8081 8481
000000b0: 8383 8183 8180 8381 8382 8183 8181 8482
000000c0: 8788 9386 8789 8689 8687 8689 8788 8887
000000d0: 8887 868a 8988 8d84 8787 878b 8e89 8692
000000e0: 8b8a 8e89 868c 8b88 8887 8b87 8988 888a
000000f0: 8486 8688 878c 8986 8987 8686 8889 888e

while/MatMul i1 [256, 1024] scale=0.0018353338 zero_point=0
0.06790735 0.027530007 -0.007341335 0.036706675 0.016518004 -0.062401347 -0.042212676 -0.055060014
0.023859339 0.02936534 0.018353337 -0.05322468 -0.03487134 -0.042212676 0.07524868 -0.062401347
0.012847336 -0.027530007 0.06607202 0.022024006 -0.062401347 -0.05322468 0.049554013 -0.0018353338
0.07524868 -0.009176669 -0.051389344 -0.023859339 -0.0036706675 0.03487134 -0.042212676 0.04404801
0.0018353338 0.012847336 -0.03854201 -0.02936534 0.05322468 -0.02018867 0.05322468 0.03854201
0.05873068 -0.06423668 0.016518004 -0.0018353338 0.07708402 0.03854201 -0.018353337 0.05322468
-0.023859339 0.055060014 -0.03487134 0.012847336 0.012847336 0.007341335 0.0036706675 -0.05322468
0.012847336 0.051389344 0.0 0.011012003 0.060566016 0.049554013 0.02018867 0.07341335
-0.036706675 -0.03303601 -0.03487134 0.06790735 0.056895345 0.023859339 -0.045883343 0.06607202
-0.02018867 -0.011012003 -0.031200673 -0.02936534 -0.03854201 -0.047718678 -0.02018867 0.05322468
-0.027530007 0.018353337 0.0036706675 -0.02936534 0.018353337 0.02018867 -0.023859339 0.06607202
0.0018353338 0.036706675 -0.009176669 0.0036706675 0.023859339 0.06974268 0.10461403 0.0018353338
0.0 -0.05873068 -0.02018867 0.051389344 -0.02936534 0.060566016 0.022024006 0.060566016
0.045883343 -0.009176669 0.0036706675 -0.04404801 -0.047718678 -0.05873068 0.0055060014 -0.03303601
0.009176669 0.06423668 0.07524868 0.06790735 -0.007341335 -0.03303601 0.05322468 0.06974268
0.042212676 -0.009176669 -0.056895345 -0.01468267 0.0055060014 0.012847336 0.016518004 0.051389344
-0.055060014 0.045883343 0.02936534 0.0018353338 0.0 -0.03487134 0.07524868 0.0018353338
0.031200673 0.02018867 -0.0018353338 -0.05873068 -0.011012003 0.018353337 0.011012003 -0.036706675
0.02018867 0.03854201 0.011012003 -0.05322468 0.02936534 -0.022024006 0.0018353338 -0.03487134
0.0036706675 -0.016518004 0.02018867 0.06974268 0.047718678 0.03854201 -0.047718678 -0.012847336
0.055060014 -0.016518004 0.036706675 0.056895345 -0.060566016 0.027530007 0.060566016 0.031200673
-0.047718678 -0.047718678 0.0 0.012847336 0.060566016 -0.023859339 0.0 -0.055060014
0.027530007 0.07157802 0.051389344 -0.012847336 0.060566016 -0.031200673 -0.051389344 0.06974268
-0.056895345 -0.0018353338 0.04404801 -0.0055060014 0.051389344 0.047718678 -0.009176669 0.055060014
0.007341335 0.0018353338 0.03487134 0.051389344 0.016518004 -0.016518004 -0.04037734 0.01468267
0.06607202 0.055060014 -0.042212676 -0.05873068 0.055060014 0.02018867 -0.042212676 0.0036706675
-0.027530007 -0.045883343 -0.049554013 -0.062401347 0.08442535 0.045883343 0.047718678 0.049554013
0.05322468 0.0055060014 0.03487134 -0.011012003 0.042212676 -0.03854201 0.10277869 -0.023859339
0.023859339 0.06607202 0.016518004 -0.055060014 -0.012847336 0.0 -0.011012003 -0.03487134
0.12296736 -0.04404801 -0.0018353338 0.062401347 0.03303601 -0.0055060014 -0.018353337 -0.06974268
-0.016518004 -0.06790735 0.07157802 0.045883343 0.02936534 -0.05873068 -0.062401347 -0.009176669
0.051389344 0.055060014 0.055060014 0.011012003 0.007341335 0.007341335 0.04037734 -0.03303601
00000000: 250f fc14 09de e9e2 0d10 0ae3 ede9 29de
00000010: 07f1 240c dee3 1bff 29fb e4f3 fe13 e918
00000020: 0107 ebf0 1df5 1d15 20dd 09ff 2a15 f61d
00000030: f31e ed07 0704 02e3 071c 0006 211b 0b28
00000040: ecee ed25 1f0d e724 f5fa eff0 ebe6 f51d
00000050: f10a 02f0 0a0b f324 0114 fb02 0d26 3901
00000060: 00e0 f51c f021 0c21 19fb 02e8 e6e0 03ee
00000070: 0523 2925 fcee 1d26 17fb e1f8 0307 091c
00000080: e219 1001 00ed 2901 110b ffe0 fa0a 06ec
00000090: 0b15 06e3 10f4 01ed 02f7 0b26 1a15 e6f9
000000a0: 1ef7 141f df0f 2111 e6e6 0007 21f3 00e2
000000b0: 0f27 1cf9 21ef e426 e1ff 18fd 1c1a fb1e
000000c0: 0401 131c 09f7 ea08 241e e9e0 1e0b e902
000000d0: f1e7 e5de 2e19 1a1b 1d03 13fa 17eb 38f3
000000e0: 0d24 09e2 f900 faed 43e8 ff22 12fd f6da
000000f0: f7db 2719 10e0 defb 1c1e 1e06 0404 16ee

while/MatMul_11 i1 [256, 64] scale=0.0022680361 zero_point=0
-0.04762876 0.079381265 -0.036288578 0.015876252 -0.07030912 -0.06350501 0.020412326 -0.09072144
-0.0816493 0.05216483 -0.02268036 0.013608217 0.024948398 0.0816493 -0.027216434 0.14288628
0.074845195 0.0068041086 0.21546343 -0.06350501 -0.0045360723 0.11566984 -0.08618537 0.034020543
-0.05216483 0.0022680361 -0.056700904 0.024948398 0.015876252 0.02268036 0.02268036 0.04762876
0.04082465 0.01134018 -0.04536072 -0.068041086 0.1065977 -0.09525752 0.1632986 0.09979359
-0.09525752 0.036288578 -0.04762876 -0.013608217 -0.05896894 -0.074845195 -0.031752504 -0.031752504
0.14515431 -0.083917335 0.068041086 0.043092687 0.031752504 0.027216434 -0.05896894 -0.020412326
-0.1632986 0.020412326 0.020412326 0.14515431 0.04536072 -0.013608217 -0.02268036 0.05896894
0.027216434 -0.034020543 -0.0068041086 0.19051504 0.038556613 0.034020543 -0.1315461 0.05216483
0.0090721445 0.04762876 0.027216434 0.17010272 -0.12247395 -0.0045360723 -0.04082465 0.0816493
0.0090721445 0.027216434 -0.02948447 -0.07030912 -0.09072144 -0.0022680361 0.06350501 -0.049896795
0.074845195 -0.10886574 -0.074845195 0.18144289 0.049896795 -0.09298948 0.09298948 -0.031752504
-0.08618537 0.083917335 0.12247395 -0.0068041086 0.015876252 -0.12474199 0.07030912 0.027216434
-0.1383502 0.06577305 -0.038556613 -0.049896795 0.056700904 -0.04762876 -0.12927806 -0.08845341
0.07030912 -0.0045360723 -0.02948447 -0.061236974 -0.11340181 0.027216434 0.04762876 -0.12474199
0.077113226 -0.02268036 0.11793788 -0.0816493 -0.068041086 -0.11566984 -0.049896795 0.12927806
0.12474199 -0.05443287 0.018144289 0.034020543 0.04762876 0.0045360723 -0.074845195 0.02268036
0.07030912 -0.04536072 0.12701002 -0.061236974 0.015876252 0.04762876 -0.043092687 -0.0090721445
-0.038556613 -0.12474199 0.0 -0.043092687 0.0045360723 -0.079381265 -0.024948398 -0.027216434
-0.06350501 0.02268036 0.061236974 0.013608217 -0.027216434 0.024948398 -0.05896894 -0.034020543
-0.015876252 0.04082465 -0.034020543 0.036288578 0.020412326 -0.02268036 0.1065977 -0.0022680361
0.04536072 -0.01134018 0.027216434 -0.07030912 0.031752504 -0.10432966 -0.11340181 -0.024948398
0.020412326 0.10886574 0.0068041086 0.020412326 0.020412326 0.036288578 -0.10206163 -0.0045360723
0.11113377 -0.013608217 0.018144289 0.027216434 0.034020543 0.0816493 0.01134018 -0.08618537
0.09298948 0.074845195 0.015876252 -0.02948447 -0.10206163 0.02948447 0.09752555 -0.072577156
0.02268036 0.020412326 -0.16556664 0.10206163 -0.038556613 -0.056700904 0.0 0.10206163
-0.14742234 -0.14742234 -0.12927806 -0.05443287 0.04762876 -0.02948447 0.02268036 0.0
0.1065977 -0.034020543 -0.04762876 -0.11566984 -0.01134018 0.0045360723 -0.015876252 -0.027216434
0.10886574 -0.031752504 -0.024948398 0.09072144 0.11340181 0.013608217 -0.04082465 -0.02268036
-0.043092687 0.0068041086 0.11340181 0.0022680361 0.09979359 -0.14742234 0.038556613 -0.015876252
0.034020543 0.04082465 0.034020543 -0.077113226 -0.034020543 0.02268036 0.049896795 -0.0090721445
-0.0090721445 -0.036288578 0.0 -0.04536072 -0.07030912 -0.1065977 -0.08845341 0.031752504
00000000: eb23 f007 e1e4 09d8 dc17 f606 0b24 f43f
00000010: 2103 5fe4 fe33 da0f e901 e70b 070a 0a15
00000020: 1205 ece2 2fd6 482c d610 ebfa e6df f2f2
00000030: 40db 1e13 0e0c e6f7 b809 0940 14fa f61a
00000040: 0cf1 fd54 110f c617 0415 0c4b cafe ee24
00000050: 040c f3e1 d8ff 1cea 21d0 df50 16d7 29f2
00000060: da25 36fd 07c9 1f0c c31d efea 19eb c7d9
00000070: 1ffe f3e5 ce0c 15c9 22f6 34dc e2cd ea39
00000080: 37e8 080f 1502 df0a 1fec 38e5 0715 edfc
00000090: efc9 00ed 02dd f5f4 e40a 1b06 f40b e6f1
000000a0: f912 f110 09f6 2fff 14fb 0ce1 0ed2 cef5
000000b0: 0930 0309 0910 d3fe 31fa 080c 0f24 05da
000000c0: 2921 07f3 d30d 2be0 0a09 b72d efe7 002d
000000d0: bfbf c7e8 15f3 0a00 2ff1 ebcd fb02 f9f4
000000e0: 30f2 f528 3206 eef6 ed03 3201 2cbf 11f9
000000f0: 0f12 0fde f10a 16fc fcf0 00ec e1d1 d90e
