evaluation-code/output/models/tflite/ConvLSTM_max_pooling__128units_framesize_5_20230624-155011.tflite (tflite, 218168 bytes, 5 tensors)

sequential_11/dense_11/MatMul i1 [10, 128] scale=0.002468604 zero_point=0
0.16292785 0.1950197 -0.004937208 -0.23945458 0.15552205 0.012343019 -0.024686038 0.14811623
0.078995325 0.249329 0.09627555 -0.014811624 -0.15058483 0.12343019 -0.12096159 0.027154643
0.17773949 0.09627555 -0.17280227 0.009874416 0.024686038 -0.04443487 0.23945458 0.2517976
0.014811624 0.1925511 -0.10861857 0.086401135 -0.20983133 0.08886974 -0.106149964 0.064183705
0.13824181 0.10368136 0.106149964 0.18514529 0.014811624 -0.086401135 0.18761389 -0.081463926
0.012343019 0.046903472 0.15799065 0.23451737 -0.04443487 0.08886974 -0.11602438 -0.076526724
0.076526724 0.059246495 -0.15799065 -0.014811624 -0.076526724 -0.18020809 0.20242552 0.20736273
0.014811624 0.12836741 0.15058483 0.12096159 -0.054309286 0.093806945 0.10861857 0.15552205
0.16292785 0.071589515 0.1258988 -0.16045925 0.27154642 0.14317903 0.14071043 0.004937208
0.10861857 -0.017280227 -0.093806945 0.23204876 -0.12096159 0.0 0.25673482 -0.16539647
-0.20983133 -0.049372077 -0.076526724 -0.093806945 0.18267669 0.061715096 -0.17280227 -0.049372077
0.037029058 0.029623248 -0.05677789 0.106149964 0.12343019 0.14811623 0.034560453 -0.05184068
0.13083601 0.18020809 -0.16045925 -0.064183705 0.1900825 -0.04443487 0.037029058 0.19748831
-0.17527087 0.106149964 0.22464295 0.046903472 0.098744154 0.004937208 -0.029623248 -0.1925511
-0.019748831 0.14564763 0.20983133 -0.091338344 0.11602438 0.21476854 0.0 -0.12836741
0.004937208 0.049372077 -0.002468604 -0.106149964 -0.14564763 -0.15305345 -0.22711156 0.1925511
-0.22958016 -0.091338344 0.14317903 0.15552205 0.18020809 0.24686038 -0.24192318 0.21476854
0.15058483 0.15058483 0.13824181 -0.26167202 0.1900825 0.041966267 0.066652305 0.074058115
-0.14071043 0.28635806 -0.093806945 0.066652305 0.31351268 0.28388944 -0.046903472 -0.13083601
-0.04443487 -0.26660922 -0.21229993 -0.15058483 0.10861857 0.004937208 0.16045925 0.2592034
0.22464295 -0.19995691 -0.13083601 0.002468604 0.14564763 0.11355578 0.21229993 0.10861857
0.25673482 0.05184068 0.16292785 0.17773949 0.22711156 -0.18514529 -0.11108717 0.21970575
0.071589515 -0.13330461 0.1950197 -0.024686038 -0.23451737 -0.06912091 0.12836741 -0.13330461
0.12096159 0.078995325 -0.29623246 0.078995325 0.16786507 -0.20983133 0.20242552 -0.12836741
0.086401135 0.083932534 0.007405812 -0.11108717 0.004937208 0.15552205 -0.19995691 0.18020809
0.13577321 -0.21229993 -0.14811623 -0.17773949 0.098744154 0.21476854 -0.11602438 0.1925511
0.11355578 -0.029623248 0.18020809 0.11355578 0.007405812 0.093806945 0.22958016 0.21476854
0.20242552 -0.21229993 -0.083932534 -0.22464295 -0.10861857 0.1900825 0.12096159 0.15799065
-0.19748831 -0.098744154 0.15305345 0.23698598 -0.039497662 -0.054309286 0.20242552 0.22217435
-0.17773949 -0.046903472 0.1900825 0.22464295 0.19995691 0.086401135 -0.06912091 0.28388944
-0.08886974 -0.046903472 -0.10368136 0.17033367 0.071589515 -0.024686038 -0.21476854 0.071589515
-0.15305345 -0.19995691 0.21229993 -0.27648363 0.059246495 0.1950197 0.16539647 0.16045925
00000000: 424f fe9f 3f05 f63c 2065 27fa c332 cf0b
00000010: 4827 ba04 0aee 6166 064e d423 ab24 d51a
00000020: 382a 2b4b 06dd 4cdf 0513 405f ee24 d1e1
00000030: 1f18 c0fa e1b7 5254 0634 3d31 ea26 2c3f
00000040: 421d 33bf 6e3a 3902 2cf9 da5e cf00 68bd
00000050: abec e1da 4a19 baec 0f0c e92b 323c 0eeb
00000060: 3549 bfe6 4dee 0f50 b92b 5b13 2802 f4b2
00000070: f83b 55db 2f57 00cc 0214 ffd5 c5c2 a44e
00000080: a3db 3a3f 4964 9e57 3d3d 3896 4d11 1b1e
00000090: c774 da1b 7f73 edcb ee94 aac3 2c02 4169
000000a0: 5baf cb01 3b2e 562c 6815 4248 5cb5 d359
000000b0: 1dca 4ff6 a1e4 34ca 3120 8820 44ab 52cc
000000c0: 2322 03d3 023f af49 37aa c4b8 2857 d14e
000000d0: 2ef4 492e 0326 5d57 52aa dea5 d44d 3140
000000e0: b0d8 3e60 f0ea 525a b8ed 4d5b 5123 e473
000000f0: dced d645 1df6 a91d c2af 5690 184f 4341

sequential_11/time_distributed_16/conv2d_2/Conv2D i1 [128, 2, 2, 1]
-127 -119 -48 17 -27 103 120 127
-103 127 58 122 -112 127 -118 33
-61 9 62 -127 82 -127 -41 11
48 127 -94 19 -124 127 -38 -17
73 -2 -21 127 -4 44 -79 127
-27 -120 61 -127 -25 78 127 72
127 -119 116 75 -127 114 -81 41
-114 127 107 14 45 -127 17 61
24 27 127 117 18 127 -51 -25
127 87 43 -41 -127 71 -49 68
127 -6 -85 -99 -127 -22 14 -123
93 15 -23 127 -122 127 76 108
9 101 -127 -2 -127 6 -58 -3
127 -48 -63 -57 109 -33 -95 127
127 37 -5 -9 -103 45 -14 -127
-18 2 -103 127 -11 127 -19 7
-69 127 79 -66 -91 127 107 90
24 37 127 109 64 60 127 -78
98 -127 5 47 98 -49 34 127
127 12 -40 -96 10 -36 121 127
-58 88 77 127 112 14 70 127
127 51 -6 -32 98 127 42 82
3 58 -127 45 98 -127 91 -96
21 127 8 35 85 127 53 48
-127 -104 51 52 -127 -14 14 26
1 43 74 -127 44 -127 1 -84
0 -65 127 -65 127 53 62 21
127 -94 56 -105 -127 95 -105 72
42 -70 -110 -127 90 -127 54 28
38 -43 -127 110 84 63 1 127
21 -39 -22 127 -127 -20 -2 -68
-127 1 3 103 -43 -127 100 -102
00000000: 8189 d011 e567 787f 997f 3a7a 907f 8a21
00000010: c309 3e81 5281 d70b 307f a213 847f daef
00000020: 49fe eb7f fc2c b17f e588 3d81 e74e 7f48
00000030: 7f89 744b 8172 af29 8e7f 6b0e 2d81 113d
00000040: 181b 7f75 127f cde7 7f57 2bd7 8147 cf44
00000050: 7ffa ab9d 81ea 0e85 5d0f e97f 867f 4c6c
00000060: 0965 81fe 8106 c6fd 7fd0 c1c7 6ddf a17f
00000070: 7f25 fbf7 992d f281 ee02 997f f57f ed07
00000080: bb7f 4fbe a57f 6b5a 1825 7f6d 403c 7fb2
00000090: 6281 052f 62cf 227f 7f0c d8a0 0adc 797f
000000a0: c658 4d7f 700e 467f 7f33 fae0 627f 2a52
000000b0: 033a 812d 6281 5ba0 157f 0823 557f 3530
000000c0: 8198 3334 81f2 0e1a 012b 4a81 2c81 01ac
000000d0: 00bf 7fbf 7f35 3e15 7fa2 3897 815f 9748
000000e0: 2aba 9281 5a81 361c 26d5 816e 543f 017f
000000f0: 15d9 ea7f 81ec febc 8101 0367 d581 649a

sequential_11/lstm_5/Read_2/ReadVariableOp1 i1 [512] scale=0.0041704606 zero_point=-122
0.012511382 0.025022764 0.025022764 0.012511382 0.020852303 0.012511382 0.020852303 0.012511382
0.029193224 0.016681843 0.033363685 0.025022764 0.025022764 0.012511382 0.008340921 0.020852303
0.05838645 0.05421599 0.05421599 0.0041704606 0.025022764 0.008340921 0.045875065 0.05421599
0.008340921 0.0041704606 -0.008340921 0.008340921 0.029193224 0.008340921 0.029193224 0.020852303
0.025022764 0.012511382 0.020852303 0.029193224 0.016681843 0.012511382 0.020852303 0.0
0.020852303 0.025022764 0.016681843 -0.0041704606 0.012511382 0.025022764 0.020852303 0.020852303
0.012511382 0.037534148 0.029193224 0.008340921 0.016681843 0.037534148 0.016681843 0.016681843
0.012511382 0.025022764 0.041704606 0.008340921 0.012511382 0.020852303 -0.0041704606 0.0
0.029193224 0.0 0.012511382 0.008340921 0.033363685 0.050045528 0.029193224 0.0041704606
0.037534148 0.05421599 0.020852303 0.020852303 0.020852303 0.0041704606 0.012511382 0.037534148
0.016681843 0.0041704606 0.025022764 0.012511382 0.020852303 0.025022764 0.016681843 0.025022764
0.020852303 0.0 0.037534148 0.025022764 0.029193224 0.020852303 0.012511382 0.033363685
0.033363685 0.020852303 0.033363685 0.033363685 0.020852303 0.025022764 0.037534148 0.037534148
0.0041704606 0.012511382 0.016681843 0.012511382 0.025022764 0.0 0.025022764 0.016681843
0.0 0.033363685 0.012511382 0.016681843 0.012511382 0.050045528 0.016681843 0.029193224
0.0 0.033363685 0.016681843 0.029193224 0.0041704606 0.033363685 0.020852303 0.008340921
1.0134219 1.005081 1.0009105 1.0134219 1.005081 1.0217628 1.0092515 1.005081
1.0217628 1.0175924 0.9925696 1.0134219 1.0134219 1.0009105 1.0092515 0.9967401
1.0217628 1.0342742 1.0134219 1.005081 1.005081 1.0009105 1.0175924 1.0217628
1.005081 1.0134219 1.0009105 1.005081 1.0134219 1.0092515 1.0134219 1.0134219
1.0175924 1.0009105 1.0134219 1.005081 1.0217628 1.005081 1.0092515 1.0009105
1.005081 1.0175924 1.0217628 1.005081 1.0009105 1.0175924 1.0175924 1.0134219
1.0092515 1.0342742 1.0175924 1.0134219 1.0092515 1.0134219 1.0009105 1.0134219
1.0092515 1.0134219 1.0175924 1.0217628 1.0009105 1.0175924 1.0009105 1.0009105
1.0217628 1.005081 1.0092515 1.005081 1.0175924 1.0134219 1.0217628 1.005081
1.0259333 1.0342742 1.0384446 1.005081 1.005081 1.005081 1.0134219 1.0301038
1.0134219 0.9967401 1.0092515 1.0134219 1.0259333 1.005081 1.0092515 1.0175924
1.0175924 1.005081 1.0134219 1.0217628 1.0175924 1.0092515 1.0217628 1.0301038
1.0175924 1.0134219 1.0134219 1.0092515 1.0175924 1.0175924 1.0217628 1.0134219
1.005081 1.005081 1.0092515 1.0134219 1.0009105 1.005081 1.0092515 1.0217628
1.0009105 1.0134219 1.0009105 1.0217628 1.0175924 1.0259333 1.0009105 1.0217628
1.0134219 1.0092515 1.0134219 1.0175924 1.0009105 1.0175924 1.005081 1.0092515
00000000: 898c 8c89 8b89 8b89 8d8a 8e8c 8c89 888b
00000010: 9493 9387 8c88 9193 8887 8488 8d88 8d8b
00000020: 8c89 8b8d 8a89 8b86 8b8c 8a85 898c 8b8b
00000030: 898f 8d88 8a8f 8a8a 898c 9088 898b 8586
00000040: 8d86 8988 8e92 8d87 8f93 8b8b 8b87 898f
00000050: 8a87 8c89 8b8c 8a8c 8b86 8f8c 8d8b 898e
00000060: 8e8b 8e8e 8b8c 8f8f 8789 8a89 8c86 8c8a
00000070: 868e 898a 8992 8a8d 868e 8a8d 878e 8b88
00000080: 7977 7679 777b 7877 7b7a 7479 7976 7875
00000090: 7b7e 7977 7776 7a7b 7779 7677 7978 7979
000000a0: 7a76 7977 7b77 7876 777a 7b77 767a 7a79
000000b0: 787e 7a79 7879 7679 7879 7a7b 767a 7676
000000c0: 7b77 7877 7a79 7b77 7c7e 7f77 7777 797d
000000d0: 7975 7879 7c77 787a 7a77 797b 7a78 7b7d
000000e0: 7a79 7978 7a7a 7b79 7777 7879 7677 787b
000000f0: 7679 767b 7a7c 767b 7978 797a 767a 7778

while/MatMul i1 [512, 256] scale=0.0021342984 zero_point=0
0.05335746 0.014940089 0.021342985 0.08110334 -0.102446325 0.09817773 0.02774588 0.0
0.10671492 0.115252115 0.05335746 -0.010671493 0.019208686 0.044820268 0.032014478 -0.064028956
-0.06616325 0.1365951 -0.05335746 0.076834746 0.057626057 0.004268597 -0.04055167 -0.032014478
0.09817773 -0.046954565 0.087506235 0.046954565 0.029880177 -0.12805791 -0.02774588 -0.010671493
0.11952071 -0.0064028953 0.08537194 -0.036283072 0.032014478 -0.034148775 0.05549176 0.09817773
0.072566144 -0.0064028953 0.104580626 -0.032014478 -0.034148775 0.010671493 0.0 0.07896904
-0.029880177 -0.021342985 0.074700445 0.04055167 -0.08110334 0.057626057 0.010671493 -0.014940089
-0.046954565 0.04055167 0.117386416 0.017074388 0.029880177 -0.008537194 0.034148775 0.05335746
-0.05335746 0.038417373 0.057626057 -0.0021342984 0.064028956 -0.008537194 0.089640535 0.08537194
-0.034148775 -0.044820268 0.023477282 0.0 -0.036283072 0.08110334 0.115252115 0.102446325
0.010671493 -0.17714678 -0.014940089 0.091774836 0.10884922 -0.06829755 0.044820268 0.010671493
-0.07896904 0.06616325 -0.046954565 0.038417373 0.100312024 0.10671492 -0.057626057 -0.076834746
-0.046954565 0.021342985 0.010671493 -0.04268597 -0.0064028953 0.038417373 0.07043185 -0.04055167
0.038417373 0.019208686 0.115252115 0.0021342984 0.091774836 0.10884922 0.05549176 0.0064028953
0.091774836 0.046954565 -0.0021342984 -0.008537194 0.089640535 -0.025611581 -0.057626057 0.087506235
-0.044820268 -0.05549176 0.113117814 0.017074388 0.04055167 0.017074388 -0.017074388 0.06829755
0.023477282 -0.036283072 -0.029880177 -0.0064028953 0.032014478 0.0021342984 0.11952071 0.11098352
0.02774588 -0.008537194 -0.029880177 0.023477282 0.049088866 0.017074388 -0.023477282 0.044820268
-0.010671493 0.115252115 -0.036283072 0.05549176 0.04055167 -0.008537194 -0.04268597 0.100312024
-0.004268597 0.034148775 -0.02774588 -0.05335746 -0.046954565 -0.14513229 -0.032014478 0.051223163
-0.05335746 0.089640535 0.029880177 0.0064028953 -0.017074388 0.025611581 0.059760354 0.061894655
-0.017074388 -0.06829755 0.044820268 0.08537194 0.059760354 0.061894655 0.07896904 0.023477282
-0.04268597 0.104580626 0.074700445 0.023477282 0.04268597 -0.008537194 -0.08323764 0.12378931
0.004268597 0.076834746 0.064028956 0.07896904 0.04055167 -0.0064028953 0.032014478 0.012805791
0.019208686 0.07043185 0.008537194 0.019208686 0.06616325 0.019208686 0.061894655 -0.0064028953
-0.049088866 0.023477282 0.044820268 -0.032014478 0.02774588 0.09390913 0.091774836 0.008537194
0.04055167 -0.05335746 -0.064028956 0.089640535 0.09817773 -0.087506235 0.08323764 -0.059760354
-0.05335746 0.023477282 -0.004268597 -0.04268597 -0.051223163 -0.008537194 0.06829755 -0.074700445
-0.06616325 0.113117814 -0.059760354 0.057626057 -0.008537194 -0.051223163 -0.010671493 0.034148775
0.010671493 -0.057626057 0.09604343 -0.014940089 0.08323764 -0.019208686 0.061894655 0.059760354
-0.029880177 0.115252115 -0.05549176 0.023477282 0.091774836 -0.09390913 0.09604343 -0.05335746
0.102446325 0.051223163 0.07043185 -0.017074388 0.059760354 -0.008537194 -0.05335746 0.05549176
00000000: 1907 0a26 d02e 0d00 3236 19fb 0915 0fe2
00000010: e140 e724 1b02 edf1 2eea 2916 0ec4 f3fb
00000020: 38fd 28ef 0ff0 1a2e 22fd 31f1 f005 0025
00000030: f2f6 2313 da1b 05f9 ea13 3708 0efc 1019
00000040: e712 1bff 1efc 2a28 f0eb 0b00 ef26 3630
00000050: 05ad f92b 33e0 1505 db1f ea12 2f32 e5dc
00000060: ea0a 05ec fd12 21ed 1209 3601 2b33 1a03
00000070: 2b16 fffc 2af4 e529 ebe6 3508 1308 f820
00000080: 0bef f2fd 0f01 3834 0dfc f20b 1708 f515
00000090: fb36 ef1a 13fc ec2f fe10 f3e7 eabc f118
000000a0: e72a 0e03 f80c 1c1d f8e0 1528 1c1d 250b
000000b0: ec31 230b 14fc d93a 0224 1e25 13fd 0f06
000000c0: 0921 0409 1f09 1dfd e90b 15f1 0d2c 2b04
000000d0: 13e7 e22a 2ed7 27e4 e70b feec e8fc 20dd
000000e0: e135 e41b fce8 fb10 05e5 2df9 27f7 1d1c
000000f0: f236 e60b 2bd4 2de7 3018 21f8 1cfc e71a

while/MatMul_11 i1 [512, 128] scale=0.0020753567 zero_point=0
-0.05603463 -0.03113035 0.047733203 -0.014527497 0.064336054 0.04358249 -0.010376783 0.085089624
-0.10584319 -0.033205707 0.0041507133 -0.0622607 0.058109988 0.016602853 0.020753566 0.0
0.008301427 -0.022828924 -0.051883917 -0.008301427 0.01245214 -0.116219975 0.008301427 0.0041507133
0.022828924 0.03735642 -0.085089624 0.0020753567 -0.05603463 0.06641141 0.070562124 -0.04358249
-0.0041507133 -0.05603463 -0.029054994 -0.076788194 0.0 0.02490428 0.039431777 0.0020753567
-0.039431777 -0.01867821 0.14319961 0.010376783 0.07886355 0.039431777 -0.08716498 -0.0041507133
-0.010376783 -0.051883917 -0.041507132 -0.014527497 -0.18263139 -0.07471284 -0.008301427 -0.029054994
-0.058109988 0.11829533 0.03113035 -0.008301427 -0.041507132 -0.06641141 0.0041507133 -0.04358249
0.035281062 -0.02490428 -0.008301427 0.01245214 -0.033205707 0.076788194 -0.02490428 -0.107918546
0.085089624 -0.0020753567 -0.091315694 -0.05603463 -0.03113035 0.045657847 -0.014527497 0.047733203
-0.008301427 0.029054994 0.058109988 -0.041507132 -0.020753566 0.06848677 -0.07263748 0.039431777
0.041507132 0.033205707 -0.06641141 -0.10584319 0.033205707 0.070562124 -0.089240335 -0.05603463
-0.064336054 -0.060185343 -0.051883917 -0.02490428 -0.014527497 -0.0622607 -0.045657847 0.033205707
-0.01245214 -0.0041507133 0.035281062 0.083014265 0.035281062 -0.01867821 0.035281062 -0.029054994
-0.103767835 -0.014527497 -0.101692475 -0.13489819 -0.033205707 0.083014265 -0.047733203 -0.07263748
-0.06641141 -0.0020753567 0.091315694 0.02490428 -0.047733203 -0.07263748 0.114144616 -0.047733203
0.070562124 -0.01245214 -0.053959273 0.083014265 0.051883917 -0.0020753567 -0.04980856 -0.097541764
-0.0622607 0.05603463 0.01245214 -0.016602853 0.06641141 -0.0020753567 0.039431777 0.1577271
-0.02490428 -0.0041507133 -0.020753566 0.014527497 -0.064336054 -0.035281062 -0.04980856 -0.06848677
-0.016602853 0.101692475 0.02490428 0.045657847 -0.0020753567 0.0020753567 0.05603463 0.101692475
-0.014527497 -0.047733203 -0.070562124 0.045657847 0.010376783 -0.0622607 0.0041507133 0.041507132
-0.05603463 -0.070562124 -0.05603463 -0.035281062 -0.020753566 -0.00622607 0.026979636 -0.07886355
0.0 0.029054994 0.00622607 0.06641141 -0.06848677 -0.0020753567 0.022828924 0.02490428
-0.010376783 0.041507132 0.00622607 0.016602853 0.0020753567 -0.01867821 0.026979636 -0.022828924
0.0041507133 -0.014527497 -0.085089624 0.041507132 0.033205707 0.1245214 0.05603463 -0.01245214
0.06641141 0.051883917 -0.022828924 0.09961712 -0.020753566 0.029054994 -0.03735642 -0.064336054
-0.060185343 -0.053959273 0.039431777 -0.041507132 -0.03735642 0.008301427 0.033205707 0.01867821
0.014527497 0.0020753567 0.026979636 -0.039431777 0.01867821 -0.022828924 0.0 -0.026979636
-0.047733203 0.008301427 -0.060185343 -0.02490428 0.083014265 -0.014527497 -0.02490428 -0.04358249
0.085089624 0.03113035 -0.058109988 0.07471284 -0.053959273 0.03113035 0.0 -0.04980856
-0.13074747 -0.064336054 -0.101692475 -0.0041507133 -0.053959273 0.0 0.00622607 -0.0622607
-0.010376783 0.0622607 0.041507132 0.01245214 -0.053959273 0.0041507133 0.08716498 -0.05603463
00000000: e5f1 17f9 1f15 fb29 cdf0 02e2 1c08 0a00
00000010: 04f5 e7fc 06c8 0402 0b12 d701 e520 22eb
00000020: fee5 f2db 000c 1301 edf7 4505 2613 d6fe
00000030: fbe7 ecf9 a8dc fcf2 e439 0ffc ece0 02eb
00000040: 11f4 fc06 f025 f4cc 29ff d4e5 f116 f917
00000050: fc0e 1cec f621 dd13 1410 e0cd 1022 d5e5
00000060: e1e3 e7f4 f9e2 ea10 fafe 1128 11f7 11f2
00000070: cef9 cfbf f028 e9dd e0ff 2c0c e9dd 37e9
00000080: 22fa e628 19ff e8d1 e21b 06f8 20ff 134c
00000090: f4fe f607 e1ef e8df f831 0c16 ff01 1b31
000000a0: f9e9 de16 05e2 0214 e5de e5ef f6fd 0dda
000000b0: 000e 0320 dfff 0b0c fb14 0308 01f7 0df5
000000c0: 02f9 d714 103c 1bfa 2019 f530 f60e eee1
000000d0: e3e6 13ec ee04 1009 0701 0ded 09f5 00f3
000000e0: e904 e3f4 28f9 f4eb 290f e424 e60f 00e8
000000f0: c1e1 cffe e600 03e2 fb1e 1406 e602 2ae5
