evaluation-code/output/models/tflite/ConvLSTM_two_conv_layers_lstm_128units_framesize_5_20230622-143202.tflite (tflite, 353336 bytes, 6 tensors)

sequential_26/dense_26/MatMul i1 [10, 128] scale=0.0022994748 zero_point=0
0	0x25	0.085080564
1	0xaf	-0.18625745
2	0x93	-0.25064275
3	0xa6	-0.20695274
4	0x9c	-0.22994748
5	0x05	0.011497374
6	0xba	-0.16096324
7	0xec	-0.045989495
8	0xd7	-0.09427847
9	0xdf	-0.075882666
10	0xf3	-0.029893173
11	0x01	0.0022994748
12	0x35	0.121872164
13	0x29	0.09427847
14	0x06	0.013796849
15	0xc9	-0.12647112
16	0x44	0.15636429
17	0x3f	0.14486691
18	0xe9	-0.05288792
19	0x38	0.12877059
20	0xc2	-0.14256744
21	0x0b	0.025294222
22	0x3c	0.13796848
23	0x59	0.20465326
24	0xfe	-0.0045989496
25	0xdf	-0.075882666
26	0x25	0.085080564
27	0xb2	-0.17935903
28	0xfd	-0.0068984246
29	0x25	0.085080564
30	0x34	0.11957269
31	0xee	-0.041390546
32	0x45	0.15866376
33	0xd1	-0.10807531
34	0xa8	-0.20235378
35	0xe5	-0.06208582
36	0xf5	-0.025294222
37	0x28	0.09197899
38	0x1e	0.06898424
39	0x48	0.16556218
40	0x0e	0.032192647
41	0x66	0.23454642
42	0xa3	-0.21385115
43	0x28	0.09197899
44	0x9c	-0.22994748
45	0x43	0.1540648
46	0xec	-0.045989495
47	0x47	0.16326271
48	0xbd	-0.1540648
49	0xff	-0.0022994748
50	0x31	0.112674266
51	0xc3	-0.14026797
52	0x33	0.11727321
53	0x2a	0.09657794
54	0x07	0.016096324
55	0x4e	0.17935903
56	0xe1	-0.07128372
57	0xcd	-0.11727321
58	0x7d	0.28743434
59	0x51	0.18625745
60	0xc7	-0.13107006
61	0x02	0.0045989496
62	0xb2	-0.17935903
63	0x09	0.020695273
64	0x61	0.22304906
65	0xdb	-0.085080564
66	0x29	0.09427847
67	0xe0	-0.07358319
68	0xd2	-0.10577584
69	0xb4	-0.17476009
70	0xeb	-0.04828897
71	0x0b	0.025294222
72	0xfd	-0.0068984246
73	0xfe	-0.0045989496
74	0x28	0.09197899
75	0xff	-0.0022994748
76	0x52	0.18855694
77	0xef	-0.039091073
78	0xfc	-0.009197899
79	0x23	0.08048162
80	0xcd	-0.11727321
81	0x10	0.036791597
82	0x05	0.011497374
83	0xbe	-0.15176533
84	0xf6	-0.022994747
85	0xfc	-0.009197899
86	0x30	0.11037479
87	0x96	-0.24374433
88	0xbf	-0.14946586
89	0xeb	-0.04828897
90	0x28	0.09197899
91	0xa5	-0.20925221
92	0xbf	-0.14946586
93	0x54	0.19315588
94	0xbb	-0.15866376
95	0xa3	-0.21385115
96	0x18	0.055187397
97	0xff	-0.0022994748
98	0x13	0.043690022
99	0x5b	0.20925221
100	0xc3	-0.14026797
101	0x38	0.12877059
102	0x19	0.05748687
103	0x50	0.18395798
104	0x39	0.13107006
105	0xce	-0.11497374
106	0x4b	0.17246062
107	0x05	0.011497374
108	0x5a	0.20695274
109	0xea	-0.050588444
110	0xd6	-0.09657794
111	0x14	0.045989495
112	0x15	0.04828897
113	0x1c	0.064385295
114	0xa8	-0.20235378
115	0x0f	0.03449212
116	0xd0	-0.11037479
117	0x2e	0.10577584
118	0x22	0.078182146
119	0x5a	0.20695274
120	0xe9	-0.05288792
121	0xc6	-0.13336954
122	0x2e	0.10577584
123	0xfc	-0.009197899
124	0xb5	-0.17246062
125	0x3d	0.14026797
126	0xd0	-0.11037479
127	0x77	0.2736375
128	0xd2	-0.10577584
129	0x60	0.22074959
130	0x5c	0.21155168
131	0x24	0.08278109
132	0xab	-0.19545536
133	0x94	-0.24834327
134	0x2d	0.10347637
135	0x62	0.22534853
136	0xec	-0.045989495
137	0x57	0.2000543
138	0xcf	-0.112674266
139	0x2e	0.10577584
140	0x5f	0.2184501
141	0xfe	-0.0045989496
142	0xfd	-0.0068984246
143	0x93	-0.25064275
144	0xc7	-0.13107006
145	0xb5	-0.17246062
146	0xe4	-0.064385295
147	0x25	0.085080564
148	0x0b	0.025294222
149	0xc0	-0.14716639
150	0x28	0.09197899
151	0xe0	-0.07358319
152	0xb7	-0.16786166
153	0x2a	0.09657794
154	0xe7	-0.05748687
155	0x85	-0.2828354
156	0xd4	-0.10117689
157	0x36	0.12417164
158	0x28	0.09197899
159	0x22	0.078182146
160	0xf7	-0.020695273
161	0xd4	-0.10117689
162	0x30	0.11037479
163	0x6b	0.2460438
164	0xed	-0.043690022
165	0xf3	-0.029893173
166	0xb3	-0.17705956
167	0x1e	0.06898424
168	0x1a	0.059786346
169	0xc3	-0.14026797
170	0x1e	0.06898424
171	0xd1	-0.10807531
172	0x4d	0.17705956
173	0x5c	0.21155168
174	0xa4	-0.21155168
175	0x26	0.087380044
176	0x98	-0.23914538
177	0xc7	-0.13107006
178	0x17	0.05288792
179	0x67	0.2368459
180	0xcb	-0.121872164
181	0x07	0.016096324
182	0xab	-0.19545536
183	0xe1	-0.07128372
184	0x05	0.011497374
185	0xea	-0.050588444
186	0x08	0.018395798
187	0xb0	-0.18395798
188	0xf4	-0.027593698
189	0x6b	0.2460438
190	0xc5	-0.13566901
191	0x98	-0.23914538
192	0x5d	0.21385115
193	0x5d	0.21385115
194	0x0a	0.022994747
195	0x08	0.018395798
196	0xd5	-0.098877415
197	0x52	0.18855694
198	0x52	0.18855694
199	0x65	0.23224695
200	0x19	0.05748687
201	0x18	0.055187397
202	0xd5	-0.098877415
203	0xdc	-0.08278109
204	0xca	-0.12417164
205	0xaf	-0.18625745
206	0xeb	-0.04828897
207	0xb3	-0.17705956
208	0xdc	-0.08278109
209	0x60	0.22074959
210	0x16	0.050588444
211	0xc3	-0.14026797
212	0x15	0.04828897
213	0x3c	0.13796848
214	0x04	0.009197899
215	0xb5	-0.17246062
216	0x3d	0.14026797
217	0x2b	0.098877415
218	0x7c	0.28513488
219	0xc3	-0.14026797
220	0x10	0.036791597
221	0x28	0.09197899
222	0xc0	-0.14716639
223	0x08	0.018395798
224	0x66	0.23454642
225	0xe2	-0.06898424
226	0x7d	0.28743434
227	0x21	0.075882666
228	0x13	0.043690022
229	0x67	0.2368459
230	0xd6	-0.09657794
231	0xd8	-0.09197899
232	0x03	0.0068984246
233	0xd2	-0.10577584
234	0x5d	0.21385115
235	0x4b	0.17246062
236	0x3d	0.14026797
237	0x08	0.018395798
238	0x12	0.041390546
239	0x43	0.1540648
240	0xa4	-0.21155168
241	0xa2	-0.21615063
242	0x2c	0.10117689
243	0x2d	0.10347637
244	0x35	0.121872164
245	0x07	0.016096324
246	0xbc	-0.15636429
247	0xa0	-0.22074959
248	0x7f	0.29203328
249	0xe9	-0.05288792
250	0x2e	0.10577584
251	0x4c	0.17476009
252	0x51	0.18625745
253	0xb5	-0.17246062
254	0xca	-0.12417164
255	0x3b	0.13566901

sequential_26/time_distributed_77/conv2d_42/Conv2D i1 [128, 2, 2, 128]
0	0xfc	-4
1	0x40	64
2	0x40	64
3	0x23	35
4	0x9e	-98
5	0x4e	78
6	0xd2	-46
7	0xbf	-65
8	0x0c	12
9	0xbd	-67
10	0x43	67
11	0xa6	-90
12	0xd6	-42
13	0x03	3
14	0x05	5
15	0xe9	-23
16	0x2e	46
17	0xfa	-6
18	0xb7	-73
19	0xce	-50
20	0xca	-54
21	0x31	49
22	0x3b	59
23	0xbd	-67
24	0x56	86
25	0x40	64
26	0x91	-111
27	0xb0	-80
28	0xeb	-21
29	0xf9	-7
30	0xd3	-45
31	0xf0	-16
32	0x2a	42
33	0xe9	-23
34	0xe5	-27
35	0xd7	-41
36	0x26	38
37	0xb0	-80
38	0xfc	-4
39	0x59	89
40	0x2c	44
41	0x22	34
42	0xd2	-46
43	0x15	21
44	0xf6	-10
45	0x48	72
46	0x2a	42
47	0xcf	-49
48	0x29	41
49	0x99	-103
50	0x4f	79
51	0x52	82
52	0x4b	75
53	0xf5	-11
54	0x63	99
55	0xb4	-76
56	0xc1	-63
57	0x5b	91
58	0x5a	90
59	0x32	50
60	0x52	82
61	0xc6	-58
62	0x30	48
63	0xf4	-12
64	0x5c	92
65	0x30	48
66	0xd5	-43
67	0xbb	-69
68	0xdc	-36
69	0x0e	14
70	0xbf	-65
71	0xe4	-28
72	0x2d	45
73	0xef	-17
74	0xd8	-40
75	0x10	16
76	0x00	0
77	0x30	48
78	0x2d	45
79	0xb8	-72
80	0x2c	44
81	0xb0	-80
82	0x23	35
83	0xe2	-30
84	0x24	36
85	0xd1	-47
86	0xcf	-49
87	0x71	113
88	0xe6	-26
89	0xfb	-5
90	0xdd	-35
91	0x78	120
92	0x3d	61
93	0x2e	46
94	0xd8	-40
95	0x31	49
96	0xcb	-53
97	0xdd	-35
98	0x19	25
99	0x90	-112
100	0xf5	-11
101	0x2e	46
102	0x36	54
103	0x13	19
104	0x55	85
105	0x1c	28
106	0xda	-38
107	0x02	2
108	0x24	36
109	0xc2	-62
110	0x37	55
111	0x5f	95
112	0x78	120
113	0x59	89
114	0xfa	-6
115	0xfd	-3
116	0xc8	-56
117	0x88	-120
118	0xd9	-39
119	0xf0	-16
120	0x37	55
121	0xd4	-44
122	0xd7	-41
123	0xb3	-77
124	0xe7	-25
125	0x10	16
126	0x5d	93
127	0xd8	-40
128	0xa7	-89
129	0x0d	13
130	0x32	50
131	0x4e	78
132	0x7e	126
133	0xbc	-68
134	0x1d	29
135	0xb7	-73
136	0xd4	-44
137	0xae	-82
138	0x3e	62
139	0x28	40
140	0x60	96
141	0x0d	13
142	0xbd	-67
143	0x37	55
144	0x2c	44
145	0x16	22
146	0xe1	-31
147	0xb3	-77
148	0xe6	-26
149	0x48	72
150	0x24	36
151	0xd7	-41
152	0x09	9
153	0xe6	-26
154	0x1c	28
155	0x17	23
156	0x30	48
157	0xf2	-14
158	0x21	33
159	0x09	9
160	0x4e	78
161	0xd3	-45
162	0x25	37
163	0x4c	76
164	0x3a	58
165	0x56	86
166	0xd4	-44
167	0xe2	-30
168	0x11	17
169	0x41	65
170	0xcd	-51
171	0xa6	-90
172	0xd0	-48
173	0x1a	26
174	0x1f	31
175	0xac	-84
176	0xd3	-45
177	0x5f	95
178	0xd7	-41
179	0x3e	62
180	0x1e	30
181	0x07	7
182	0x54	84
183	0xa1	-95
184	0x09	9
185	0x3d	61
186	0xc9	-55
187	0x1c	28
188	0x1d	29
189	0x0d	13
190	0x4a	74
191	0xad	-83
192	0x05	5
193	0xf0	-16
194	0x56	86
195	0xd6	-42
196	0x48	72
197	0x2a	42
198	0x03	3
199	0x1c	28
200	0xa7	-89
201	0xfc	-4
202	0x28	40
203	0x0d	13
204	0xf5	-11
205	0x2d	45
206	0xd1	-47
207	0xd3	-45
208	0x07	7
209	0x09	9
210	0xbc	-68
211	0xae	-82
212	0x2c	44
213	0x53	83
214	0x35	53
215	0xc1	-63
216	0x3f	63
217	0x65	101
218	0x0c	12
219	0x5e	94
220	0xb2	-78
221	0x13	19
222	0x22	34
223	0xf8	-8
224	0x0d	13
225	0x45	69
226	0xbc	-68
227	0x3b	59
228	0xdf	-33
229	0xef	-17
230	0xdf	-33
231	0x45	69
232	0x3a	58
233	0x34	52
234	0x35	53
235	0xcf	-49
236	0xe2	-30
237	0x3e	62
238	0x15	21
239	0x22	34
240	0x44	68
241	0xd4	-44
242	0x55	85
243	0x18	24
244	0x22	34
245	0x50	80
246	0xcb	-53
247	0xc7	-57
248	0x08	8
249	0x19	25
250	0x23	35
251	0xfc	-4
252	0x13	19
253	0xb1	-79
254	0x09	9
255	0x2e	46

sequential_26/time_distributed_76/conv2d_41/Conv2D i1 [128, 2, 2, 1]
0	0x39	57
1	0xe6	-26
2	0x25	37
3	0x7f	127
4	0x72	114
5	0x46	70
6	0x7f	127
7	0xec	-20
8	0x11	17
9	0x9a	-102
10	0x64	100
11	0x7f	127
12	0x81	-127
13	0x6a	106
14	0x60	96
15	0xc0	-64
16	0xd3	-45
17	0x64	100
18	0x81	-127
19	0x24	36
20	0xe7	-25
21	0x91	-111
22	0x1c	28
23	0x81	-127
24	0x02	2
25	0x7f	127
26	0xa0	-96
27	0x36	54
28	0x7f	127
29	0x6c	108
30	0xa3	-93
31	0xb2	-78
32	0x2a	42
33	0xa1	-95
34	0x7f	127
35	0xa4	-92
36	0x20	32
37	0x81	-127
38	0x5c	92
39	0x2b	43
40	0x81	-127
41	0xc6	-58
42	0x69	105
43	0x1f	31
44	0xb4	-76
45	0x7f	127
46	0x38	56
47	0xd5	-43
48	0x24	36
49	0x9d	-99
50	0x7f	127
51	0xa8	-88
52	0xb7	-73
53	0x7f	127
54	0xef	-17
55	0xa8	-88
56	0xaf	-81
57	0x07	7
58	0x02	2
59	0x81	-127
60	0xd9	-39
61	0x05	5
62	0x8d	-115
63	0x7f	127
64	0xf5	-11
65	0xd7	-41
66	0x90	-112
67	0x7f	127
68	0xaa	-86
69	0x7f	127
70	0x44	68
71	0x61	97
72	0x27	39
73	0x7f	127
74	0x41	65
75	0x73	115
76	0x7f	127
77	0x91	-111
78	0x32	50
79	0x1d	29
80	0x3d	61
81	0x4b	75
82	0xc8	-56
83	0x81	-127
84	0x7f	127
85	0xdc	-36
86	0xc8	-56
87	0x1c	28
88	0x8c	-116
89	0x81	-127
90	0xa9	-87
91	0x82	-126
92	0x81	-127
93	0x4a	74
94	0x4c	76
95	0xe2	-30
96	0x7f	127
97	0xc4	-60
98	0x36	54
99	0x79	121
100	0x7f	127
101	0xf2	-14
102	0xdc	-36
103	0x8f	-113
104	0x81	-127
105	0x4c	76
106	0xe7	-25
107	0x2c	44
108	0x14	20
109	0x52	82
110	0x7f	127
111	0x58	88
112	0x81	-127
113	0x2d	45
114	0x52	82
115	0x7b	123
116	0xa9	-87
117	0xed	-19
118	0x8c	-116
119	0x7f	127
120	0x75	117
121	0x93	-109
122	0x94	-108
123	0x7f	127
124	0x81	-127
125	0x4e	78
126	0xfb	-5
127	0x11	17
128	0x81	-127
129	0x33	51
130	0xcc	-52
131	0xa7	-89
132	0x26	38
133	0x05	5
134	0x1c	28
135	0x7f	127
136	0xa1	-95
137	0xaf	-81
138	0x1e	30
139	0x81	-127
140	0x45	69
141	0xf5	-11
142	0xf4	-12
143	0x7f	127
144	0x7f	127
145	0xb4	-76
146	0xb7	-73
147	0xff	-1
148	0x45	69
149	0x9e	-98
150	0x81	-127
151	0x4f	79
152	0x90	-112
153	0x41	65
154	0x7f	127
155	0x6d	109
156	0x3c	60
157	0x40	64
158	0x7f	127
159	0xdd	-35
160	0x81	-127
161	0x6e	110
162	0x64	100
163	0xe5	-27
164	0x43	67
165	0x7f	127
166	0x6a	106
167	0x35	53
168	0x06	6
169	0x81	-127
170	0x4e	78
171	0x39	57
172	0x55	85
173	0x34	52
174	0x45	69
175	0x81	-127
176	0x7f	127
177	0x45	69
178	0x24	36
179	0x93	-109
180	0x55	85
181	0x81	-127
182	0xd4	-44
183	0x3e	62
184	0xea	-22
185	0xf4	-12
186	0x7f	127
187	0xe4	-28
188	0x0a	10
189	0x18	24
190	0x41	65
191	0x7f	127
192	0x0c	12
193	0x7f	127
194	0x7f	127
195	0x8d	-115
196	0x8d	-115
197	0x81	-127
198	0x51	81
199	0x5f	95
200	0xc8	-56
201	0xd1	-47
202	0x7a	122
203	0x81	-127
204	0xd4	-44
205	0x17	23
206	0x81	-127
207	0xdf	-33
208	0x7f	127
209	0xc8	-56
210	0xb6	-74
211	0xdc	-36
212	0x6b	107
213	0x81	-127
214	0x7a	122
215	0x81	-127
216	0x4b	75
217	0x81	-127
218	0xe8	-24
219	0x31	49
220	0x8e	-114
221	0x55	85
222	0x7f	127
223	0xc6	-58
224	0xdb	-37
225	0x29	41
226	0xce	-50
227	0x7f	127
228	0xfa	-6
229	0xf5	-11
230	0x7f	127
231	0x53	83
232	0x71	113
233	0x81	-127
234	0x33	51
235	0xd0	-48
236	0x64	100
237	0x98	-104
238	0x04	4
239	0x7f	127
240	0xc0	-64
241	0x81	-127
242	0x40	64
243	0x75	117
244	0x01	1
245	0x81	-127
246	0x43	67
247	0x19	25
248	0x66	102
249	0x81	-127
250	0x72	114
251	0x44	68
252	0x6c	108
253	0x57	87
254	0x20	32
255	0x7f	127

sequential_26/lstm_21/Read_2/ReadVariableOp1 i1 [512] scale=0.004079619 zero_point=-125
0	0x88	0.020398095
1	0x8c	0.03671657
2	0x85	0.008159238
3	0x86	0.012238856
4	0x8a	0.028557332
5	0x8d	0.04079619
6	0x89	0.024477713
7	0x85	0.008159238
8	0x88	0.020398095
9	0x87	0.016318476
10	0x8c	0.03671657
11	0x86	0.012238856
12	0x86	0.012238856
13	0x87	0.016318476
14	0x8f	0.048955426
15	0x87	0.016318476
16	0x86	0.012238856
17	0x86	0.012238856
18	0x87	0.016318476
19	0x88	0.020398095
20	0x8b	0.03263695
21	0x87	0.016318476
22	0x8c	0.03671657
23	0x88	0.020398095
24	0x8a	0.028557332
25	0x86	0.012238856
26	0x8a	0.028557332
27	0x87	0.016318476
28	0x89	0.024477713
29	0x86	0.012238856
30	0x8a	0.028557332
31	0x8c	0.03671657
32	0x8e	0.044875808
33	0x86	0.012238856
34	0x88	0.020398095
35	0x8a	0.028557332
36	0x89	0.024477713
37	0x83	0.0
38	0x87	0.016318476
39	0x83	0.0
40	0x87	0.016318476
41	0x8c	0.03671657
42	0x8d	0.04079619
43	0x87	0.016318476
44	0x8a	0.028557332
45	0x8b	0.03263695
46	0x88	0.020398095
47	0x85	0.008159238
48	0x87	0.016318476
49	0x8a	0.028557332
50	0x8b	0.03263695
51	0x84	0.004079619
52	0x88	0.020398095
53	0x87	0.016318476
54	0x89	0.024477713
55	0x88	0.020398095
56	0x83	0.0
57	0x8a	0.028557332
58	0x86	0.012238856
59	0x8b	0.03263695
60	0x89	0.024477713
61	0x88	0.020398095
62	0x89	0.024477713
63	0x82	-0.004079619
64	0x88	0.020398095
65	0x88	0.020398095
66	0x86	0.012238856
67	0x85	0.008159238
68	0x86	0.012238856
69	0x8b	0.03263695
70	0x84	0.004079619
71	0x85	0.008159238
72	0x88	0.020398095
73	0x8a	0.028557332
74	0x89	0.024477713
75	0x8a	0.028557332
76	0x86	0.012238856
77	0x8c	0.03671657
78	0x86	0.012238856
79	0x87	0.016318476
80	0x8d	0.04079619
81	0x83	0.0
82	0x85	0.008159238
83	0x8f	0.048955426
84	0x8b	0.03263695
85	0x89	0.024477713
86	0x84	0.004079619
87	0x87	0.016318476
88	0x8a	0.028557332
89	0x89	0.024477713
90	0x83	0.0
91	0x89	0.024477713
92	0x87	0.016318476
93	0x84	0.004079619
94	0x85	0.008159238
95	0x8b	0.03263695
96	0x86	0.012238856
97	0x8c	0.03671657
98	0x88	0.020398095
99	0x88	0.020398095
100	0x87	0.016318476
101	0x8b	0.03263695
102	0x8a	0.028557332
103	0x88	0.020398095
104	0x89	0.024477713
105	0x87	0.016318476
106	0x8a	0.028557332
107	0x89	0.024477713
108	0x84	0.004079619
109	0x89	0.024477713
110	0x88	0.020398095
111	0x86	0.012238856
112	0x8d	0.04079619
113	0x88	0.020398095
114	0x89	0.024477713
115	0x87	0.016318476
116	0x87	0.016318476
117	0x84	0.004079619
118	0x8c	0.03671657
119	0x87	0.016318476
120	0x89	0.024477713
121	0x89	0.024477713
122	0x8a	0.028557332
123	0x87	0.016318476
124	0x85	0.008159238
125	0x85	0.008159238
126	0x87	0.016318476
127	0x83	0.0
128	0x7a	1.0076659
129	0x7a	1.0076659
130	0x7d	1.0199047
131	0x7c	1.0158252
132	0x7e	1.0239843
133	0x7b	1.0117455
134	0x7c	1.0158252
135	0x7a	1.0076659
136	0x7a	1.0076659
137	0x7c	1.0158252
138	0x7c	1.0158252
139	0x7b	1.0117455
140	0x7a	1.0076659
141	0x79	1.0035863
142	0x7c	1.0158252
143	0x78	0.99950665
144	0x7c	1.0158252
145	0x7c	1.0158252
146	0x7c	1.0158252
147	0x79	1.0035863
148	0x7c	1.0158252
149	0x79	1.0035863
150	0x7d	1.0199047
151	0x7c	1.0158252
152	0x7c	1.0158252
153	0x7f	1.028064
154	0x7a	1.0076659
155	0x7c	1.0158252
156	0x7c	1.0158252
157	0x7b	1.0117455
158	0x7d	1.0199047
159	0x7c	1.0158252
160	0x7e	1.0239843
161	0x7a	1.0076659
162	0x7c	1.0158252
163	0x7c	1.0158252
164	0x7c	1.0158252
165	0x79	1.0035863
166	0x7b	1.0117455
167	0x79	1.0035863
168	0x78	0.99950665
169	0x7a	1.0076659
170	0x7c	1.0158252
171	0x79	1.0035863
172	0x7c	1.0158252
173	0x7c	1.0158252
174	0x7b	1.0117455
175	0x7b	1.0117455
176	0x7a	1.0076659
177	0x78	0.99950665
178	0x7b	1.0117455
179	0x79	1.0035863
180	0x7e	1.0239843
181	0x7a	1.0076659
182	0x7c	1.0158252
183	0x79	1.0035863
184	0x78	0.99950665
185	0x7d	1.0199047
186	0x7d	1.0199047
187	0x79	1.0035863
188	0x79	1.0035863
189	0x79	1.0035863
190	0x7c	1.0158252
191	0x77	0.995427
192	0x78	0.99950665
193	0x7d	1.0199047
194	0x7b	1.0117455
195	0x7a	1.0076659
196	0x7a	1.0076659
197	0x7b	1.0117455
198	0x7b	1.0117455
199	0x79	1.0035863
200	0x7b	1.0117455
201	0x7e	1.0239843
202	0x7c	1.0158252
203	0x7c	1.0158252
204	0x7a	1.0076659
205	0x7e	1.0239843
206	0x7b	1.0117455
207	0x7b	1.0117455
208	0x78	0.99950665
209	0x7a	1.0076659
210	0x79	1.0035863
211	0x7d	1.0199047
212	0x7f	1.028064
213	0x7a	1.0076659
214	0x7a	1.0076659
215	0x77	0.995427
216	0x7c	1.0158252
217	0x7b	1.0117455
218	0x78	0.99950665
219	0x7b	1.0117455
220	0x7a	1.0076659
221	0x79	1.0035863
222	0x7d	1.0199047
223	0x7b	1.0117455
224	0x7b	1.0117455
225	0x7c	1.0158252
226	0x7b	1.0117455
227	0x7b	1.0117455
228	0x7c	1.0158252
229	0x7b	1.0117455
230	0x7b	1.0117455
231	0x7b	1.0117455
232	0x79	1.0035863
233	0x7a	1.0076659
234	0x7d	1.0199047
235	0x7a	1.0076659
236	0x79	1.0035863
237	0x7a	1.0076659
238	0x7c	1.0158252
239	0x7a	1.0076659
240	0x7c	1.0158252
241	0x7b	1.0117455
242	0x7b	1.0117455
243	0x7a	1.0076659
244	0x7b	1.0117455
245	0x7b	1.0117455
246	0x79	1.0035863
247	0x7a	1.0076659
248	0x7a	1.0076659
249	0x7d	1.0199047
250	0x79	1.0035863
251	0x79	1.0035863
252	0x7f	1.028064
253	0x7d	1.0199047
254	0x7b	1.0117455
255	0x78	0.99950665

while/MatMul i1 [512, 384] scale=0.0017261999 zero_point=0
0	0x26	0.0655956
1	0xf5	-0.0189882
2	0xfa	-0.010357199
3	0x30	0.082857594
4	0xe5	-0.046607397
5	0x07	0.012083399
6	0xed	-0.0327978
7	0x0e	0.024166798
8	0xea	-0.0379764
9	0x13	0.0327978
10	0xeb	-0.036250196
11	0x25	0.063869394
12	0xfe	-0.0034523997
13	0x1b	0.046607397
14	0x14	0.034523997
15	0xe2	-0.051785998
16	0xf7	-0.015535799
17	0x27	0.06732179
18	0xff	-0.0017261999
19	0xf7	-0.015535799
20	0xf5	-0.0189882
21	0xe7	-0.043154996
22	0x1e	0.051785998
23	0x37	0.09494099
24	0x0d	0.022440597
25	0x17	0.039702598
26	0x1a	0.044881195
27	0xf7	-0.015535799
28	0x1b	0.046607397
29	0x24	0.062143195
30	0xe2	-0.051785998
31	0x20	0.055238396
32	0x12	0.031071598
33	0x08	0.013809599
34	0xe4	-0.048333596
35	0x2c	0.0759528
36	0x39	0.098393396
37	0xf6	-0.017261999
38	0x48	0.12428639
39	0x3b	0.10184579
40	0x17	0.039702598
41	0xe7	-0.043154996
42	0xef	-0.029345397
43	0x2d	0.07767899
44	0x29	0.0707742
45	0x39	0.098393396
46	0xcb	-0.09148859
47	0xf9	-0.012083399
48	0xe4	-0.048333596
49	0xe4	-0.048333596
50	0x03	0.0051785996
51	0x1e	0.051785998
52	0x1e	0.051785998
53	0x23	0.060416996
54	0x27	0.06732179
55	0x11	0.029345397
56	0x03	0.0051785996
57	0xe9	-0.039702598
58	0x14	0.034523997
59	0x3a	0.10011959
60	0xef	-0.029345397
61	0xf0	-0.027619198
62	0x00	0.0
63	0x2a	0.07250039
64	0x1f	0.053512197
65	0x32	0.08630999
66	0xe7	-0.043154996
67	0x3a	0.10011959
68	0x00	0.0
69	0xf9	-0.012083399
70	0xf3	-0.022440597
71	0xe8	-0.041428797
72	0x39	0.098393396
73	0xe7	-0.043154996
74	0x28	0.069047995
75	0xf9	-0.012083399
76	0x1a	0.044881195
77	0x3e	0.107024394
78	0x30	0.082857594
79	0xdd	-0.060416996
80	0x10	0.027619198
81	0x0d	0.022440597
82	0x02	0.0034523997
83	0x0b	0.0189882
84	0x2b	0.074226595
85	0x31	0.0845838
86	0x32	0.08630999
87	0xf7	-0.015535799
88	0x2b	0.074226595
89	0xfd	-0.0051785996
90	0x1c	0.048333596
91	0x05	0.008630999
92	0x19	0.043154996
93	0xde	-0.058690794
94	0x08	0.013809599
95	0xe7	-0.043154996
96	0x0c	0.020714398
97	0xf5	-0.0189882
98	0x2d	0.07767899
99	0x10	0.027619198
100	0x0b	0.0189882
101	0x2e	0.079405196
102	0x0b	0.0189882
103	0x0a	0.017261999
104	0x02	0.0034523997
105	0x35	0.09148859
106	0x1f	0.053512197
107	0x21	0.056964595
108	0x16	0.0379764
109	0xf8	-0.013809599
110	0xdb	-0.063869394
111	0x1a	0.044881195
112	0x2e	0.079405196
113	0x2c	0.0759528
114	0x3d	0.10529819
115	0x24	0.062143195
116	0x04	0.0069047995
117	0x0b	0.0189882
118	0x03	0.0051785996
119	0x1b	0.046607397
120	0xe4	-0.048333596
121	0x1e	0.051785998
122	0xe6	-0.044881195
123	0xf0	-0.027619198
124	0x25	0.063869394
125	0x3c	0.103571996
126	0x0b	0.0189882
127	0xe4	-0.048333596
128	0x33	0.088036194
129	0xf0	-0.027619198
130	0x0b	0.0189882
131	0x3b	0.10184579
132	0x0e	0.024166798
133	0x1d	0.050059795
134	0x17	0.039702598
135	0x3f	0.10875059
136	0x3e	0.107024394
137	0x0d	0.022440597
138	0x16	0.0379764
139	0x2e	0.079405196
140	0xea	-0.0379764
141	0x39	0.098393396
142	0x29	0.0707742
143	0x08	0.013809599
144	0x2b	0.074226595
145	0x23	0.060416996
146	0xe7	-0.043154996
147	0x11	0.029345397
148	0x1d	0.050059795
149	0x3c	0.103571996
150	0xf7	-0.015535799
151	0xe6	-0.044881195
152	0x14	0.034523997
153	0xfb	-0.008630999
154	0x14	0.034523997
155	0xe3	-0.050059795
156	0x16	0.0379764
157	0xe5	-0.046607397
158	0x04	0.0069047995
159	0x08	0.013809599
160	0x34	0.08976239
161	0x3d	0.10529819
162	0xe1	-0.053512197
163	0x18	0.041428797
164	0xe5	-0.046607397
165	0xeb	-0.036250196
166	0x17	0.039702598
167	0xe5	-0.046607397
168	0xbd	-0.11565539
169	0x2b	0.074226595
170	0xea	-0.0379764
171	0x35	0.09148859
172	0x0e	0.024166798
173	0x34	0.08976239
174	0xd0	-0.082857594
175	0x0d	0.022440597
176	0x1c	0.048333596
177	0xf8	-0.013809599
178	0xf1	-0.025892999
179	0xe2	-0.051785998
180	0xe5	-0.046607397
181	0x39	0.098393396
182	0xf2	-0.024166798
183	0x23	0.060416996
184	0xf6	-0.017261999
185	0x40	0.11047679
186	0x1b	0.046607397
187	0x22	0.058690794
188	0x15	0.036250196
189	0x2f	0.08113139
190	0x04	0.0069047995
191	0x22	0.058690794
192	0xe6	-0.044881195
193	0x2a	0.07250039
194	0x0e	0.024166798
195	0x25	0.063869394
196	0x03	0.0051785996
197	0x3d	0.10529819
198	0xfe	-0.0034523997
199	0xeb	-0.036250196
200	0x38	0.09666719
201	0x36	0.093214795
202	0x13	0.0327978
203	0x09	0.015535799
204	0x1d	0.050059795
205	0x28	0.069047995
206	0xe2	-0.051785998
207	0xe6	-0.044881195
208	0x2d	0.07767899
209	0x22	0.058690794
210	0xe1	-0.053512197
211	0x10	0.027619198
212	0xef	-0.029345397
213	0x2f	0.08113139
214	0xed	-0.0327978
215	0x29	0.0707742
216	0x12	0.031071598
217	0x19	0.043154996
218	0x16	0.0379764
219	0xe8	-0.041428797
220	0x3e	0.107024394
221	0xcd	-0.088036194
222	0x16	0.0379764
223	0xf4	-0.020714398
224	0xf8	-0.013809599
225	0x32	0.08630999
226	0xf3	-0.022440597
227	0x17	0.039702598
228	0x0a	0.017261999
229	0x19	0.043154996
230	0xe8	-0.041428797
231	0xfa	-0.010357199
232	0x22	0.058690794
233	0x31	0.0845838
234	0x36	0.093214795
235	0x0d	0.022440597
236	0x26	0.0655956
237	0x13	0.0327978
238	0xd0	-0.082857594
239	0x49	0.1260126
240	0xf2	-0.024166798
241	0x32	0.08630999
242	0x39	0.098393396
243	0xf0	-0.027619198
244	0x03	0.0051785996
245	0xee	-0.031071598
246	0xdf	-0.056964595
247	0x2d	0.07767899
248	0xe9	-0.039702598
249	0x2e	0.079405196
250	0x2b	0.074226595
251	0xde	-0.058690794
252	0x36	0.093214795
253	0xf5	-0.0189882
254	0x02	0.0034523997
255	0xf4	-0.020714398

while/MatMul_11 i1 [512, 128] scale=0.0017069705 zero_point=0
0	0x17	0.03926032
1	0x13	0.03243244
2	0x0e	0.023897586
3	0xdd	-0.059743967
4	0x09	0.015362735
5	0xeb	-0.035846382
6	0x18	0.040967293
7	0x0a	0.017069705
8	0xde	-0.058036998
9	0xcd	-0.0870555
10	0xc5	-0.100711256
11	0x29	0.06998579
12	0xfa	-0.010241823
13	0x0a	0.017069705
14	0x28	0.06827882
15	0xe6	-0.044381235
16	0x30	0.081934586
17	0xdf	-0.056330025
18	0x1b	0.046088204
19	0x30	0.081934586
20	0xfc	-0.006827882
21	0xec	-0.03413941
22	0xfe	-0.003413941
23	0x30	0.081934586
24	0x04	0.006827882
25	0xda	-0.06486488
26	0xe3	-0.049502145
27	0xfe	-0.003413941
28	0x05	0.008534852
29	0x13	0.03243244
30	0x10	0.027311528
31	0xf9	-0.011948793
32	0x00	0.0
33	0x07	0.011948793
34	0xd9	-0.06657185
35	0x0a	0.017069705
36	0xdd	-0.059743967
37	0x16	0.03755335
38	0x01	0.0017069705
39	0x08	0.013655764
40	0xc6	-0.09900429
41	0xed	-0.03243244
42	0xd5	-0.07339973
43	0x23	0.059743967
44	0x0b	0.018776676
45	0x17	0.03926032
46	0xf2	-0.023897586
47	0x0b	0.018776676
48	0xdb	-0.06315791
49	0xf9	-0.011948793
50	0x24	0.06145094
51	0xe7	-0.042674262
52	0xad	-0.14167856
53	0x1f	0.052916087
54	0x05	0.008534852
55	0xd4	-0.0751067
56	0xf5	-0.018776676
57	0xf1	-0.025604557
58	0xe1	-0.052916087
59	0xe5	-0.046088204
60	0x18	0.040967293
61	0xdb	-0.06315791
62	0x25	0.06315791
63	0xfe	-0.003413941
64	0x23	0.059743967
65	0xe9	-0.03926032
66	0xd8	-0.06827882
67	0xf3	-0.022190617
68	0xc7	-0.09729732
69	0xd8	-0.06827882
70	0xda	-0.06486488
71	0x19	0.042674262
72	0x12	0.03072547
73	0xde	-0.058036998
74	0xed	-0.03243244
75	0xf2	-0.023897586
76	0x04	0.006827882
77	0xf7	-0.015362735
78	0xfb	-0.008534852
79	0x1a	0.044381235
80	0x24	0.06145094
81	0xf5	-0.018776676
82	0x18	0.040967293
83	0xf5	-0.018776676
84	0x0b	0.018776676
85	0x29	0.06998579
86	0x0f	0.025604557
87	0x0d	0.022190617
88	0xdc	-0.06145094
89	0x17	0.03926032
90	0xf5	-0.018776676
91	0x26	0.06486488
92	0x1f	0.052916087
93	0x10	0.027311528
94	0xd1	-0.08022761
95	0x12	0.03072547
96	0x29	0.06998579
97	0x24	0.06145094
98	0x0d	0.022190617
99	0x10	0.027311528
100	0x2d	0.076813675
101	0x19	0.042674262
102	0xeb	-0.035846382
103	0x0a	0.017069705
104	0xff	-0.0017069705
105	0xf4	-0.020483647
106	0xe6	-0.044381235
107	0xd4	-0.0751067
108	0x0f	0.025604557
109	0xca	-0.09217641
110	0x4b	0.12802279
111	0x31	0.08364155
112	0xd0	-0.081934586
113	0xf1	-0.025604557
114	0xf8	-0.013655764
115	0x30	0.081934586
116	0xf1	-0.025604557
117	0x17	0.03926032
118	0xf6	-0.017069705
119	0x04	0.006827882
120	0x04	0.006827882
121	0xf3	-0.022190617
122	0x16	0.03755335
123	0x2d	0.076813675
124	0x08	0.013655764
125	0x1d	0.049502145
126	0xf5	-0.018776676
127	0x01	0.0017069705
128	0xe3	-0.049502145
129	0x13	0.03243244
130	0x04	0.006827882
131	0xfa	-0.010241823
132	0x0b	0.018776676
133	0xf8	-0.013655764
134	0xd9	-0.06657185
135	0x0a	0.017069705
136	0x30	0.081934586
137	0xdc	-0.06145094
138	0x34	0.08876247
139	0x3a	0.09900429
140	0x0a	0.017069705
141	0xf6	-0.017069705
142	0x12	0.03072547
143	0xfe	-0.003413941
144	0x13	0.03243244
145	0x13	0.03243244
146	0xd8	-0.06827882
147	0xed	-0.03243244
148	0x17	0.03926032
149	0xfc	-0.006827882
150	0x14	0.03413941
151	0xfa	-0.010241823
152	0xf7	-0.015362735
153	0xf2	-0.023897586
154	0xf8	-0.013655764
155	0x00	0.0
156	0xf7	-0.015362735
157	0xe9	-0.03926032
158	0xdd	-0.059743967
159	0x31	0.08364155
160	0x09	0.015362735
161	0x20	0.054623056
162	0xd3	-0.076813675
163	0x34	0.08876247
164	0x24	0.06145094
165	0x03	0.0051209116
166	0xc0	-0.10924611
167	0x0f	0.025604557
168	0x28	0.06827882
169	0xe9	-0.03926032
170	0x0f	0.025604557
171	0xe6	-0.044381235
172	0x14	0.03413941
173	0xdd	-0.059743967
174	0xfa	-0.010241823
175	0x2e	0.07852064
176	0xf7	-0.015362735
177	0x0c	0.020483647
178	0xed	-0.03243244
179	0x3a	0.09900429
180	0x0c	0.020483647
181	0x1c	0.047795173
182	0xca	-0.09217641
183	0xf8	-0.013655764
184	0x23	0.059743967
185	0xfd	-0.0051209116
186	0xc3	-0.1041252
187	0xff	-0.0017069705
188	0x02	0.003413941
189	0x03	0.0051209116
190	0x2c	0.0751067
191	0xef	-0.029018499
192	0xd8	-0.06827882
193	0xec	-0.03413941
194	0xd4	-0.0751067
195	0xfe	-0.003413941
196	0xf1	-0.025604557
197	0xee	-0.03072547
198	0x1c	0.047795173
199	0x10	0.027311528
200	0xfb	-0.008534852
201	0x17	0.03926032
202	0x0b	0.018776676
203	0xe6	-0.044381235
204	0x05	0.008534852
205	0xf2	-0.023897586
206	0xe1	-0.052916087
207	0x19	0.042674262
208	0xf3	-0.022190617
209	0x11	0.029018499
210	0x09	0.015362735
211	0xec	-0.03413941
212	0xe4	-0.047795173
213	0xf0	-0.027311528
214	0x27	0.06657185
215	0x08	0.013655764
216	0xda	-0.06486488
217	0x12	0.03072547
218	0xef	-0.029018499
219	0x25	0.06315791
220	0xe8	-0.040967293
221	0x10	0.027311528
222	0xf0	-0.027311528
223	0x04	0.006827882
224	0x26	0.06486488
225	0x0c	0.020483647
226	0x0b	0.018776676
227	0xe6	-0.044381235
228	0xdc	-0.06145094
229	0xf6	-0.017069705
230	0xff	-0.0017069705
231	0xf9	-0.011948793
232	0xf4	-0.020483647
233	0xca	-0.09217641
234	0x09	0.015362735
235	0x28	0.06827882
236	0xff	-0.0017069705
237	0x23	0.059743967
238	0x31	0.08364155
239	0x33	0.0870555
240	0x10	0.027311528
241	0x11	0.029018499
242	0xc6	-0.09900429
243	0xd0	-0.081934586
244	0xeb	-0.035846382
245	0x26	0.06486488
246	0x04	0.006827882
247	0x12	0.03072547
248	0xda	-0.06486488
249	0x16	0.03755335
250	0x26	0.06486488
251	0x16	0.03755335
252	0xd2	-0.07852064
253	0x4b	0.12802279
254	0xed	-0.03243244
255	0x22	0.058036998
