evaluation-code/output/models/tflite/ConvLSTM_two_conv_layers_horizontal_kernel_lstm_32units_framesize_5_20230622-111007.tflite (tflite, 159352 bytes, 6 tensors)

sequential_15/dense_15/MatMul i1 [10, 32] scale=0.0038384397 zero_point=0
000000 f7 9b 27 54 e9 16 12 c6 b6 fa af 06 dc 08 95 58
       -0.034545958 -0.3876824 0.14969915 0.32242894 -0.08828411 0.08444567 0.069091916 -0.2226295 -0.28404453 -0.023030639 -0.31091362 0.023030639 -0.13818383 0.030707518 -0.41071305 0.33778268
000010 cd 47 21 2b b4 04 44 ae 3c b9 cd 68 06 e4 30 34
       -0.19576043 0.2725292 0.12666851 0.1650529 -0.2917214 0.015353759 0.2610139 -0.31475204 0.23030639 -0.2725292 -0.19576043 0.39919773 0.023030639 -0.10747631 0.18424511 0.19959886
000020 94 e6 5f a6 d3 b6 65 1f 4f 12 6b fc 06 7f a2 91
       -0.4145515 -0.09979943 0.36465177 -0.34545958 -0.17272979 -0.28404453 0.3876824 0.11899163 0.30323672 0.069091916 0.41071305 -0.015353759 0.023030639 0.48748183 -0.36081332 -0.42606682
000030 dc 92 9b 05 e7 bf 21 45 8d 4b 96 98 b3 ad d0 31
       -0.13818383 -0.42222837 -0.3876824 0.019192198 -0.09596099 -0.24949858 0.12666851 0.26485234 -0.44142056 0.28788298 -0.4068746 -0.39919773 -0.29555985 -0.3185905 -0.18424511 0.18808354
000040 77 1b d4 bb 23 d9 e8 af ea 03 d1 1a 54 2d 19 ca
       0.45677432 0.103637874 -0.16889134 -0.26485234 0.13434538 -0.14969915 -0.092122555 -0.31091362 -0.08444567 0.011515319 -0.18040666 0.09979943 0.32242894 0.17272979 0.09596099 -0.20727575
000050 07 25 c3 d3 04 df 23 50 49 3c 1d b6 fd e8 f3 cc
       0.026869077 0.14202227 -0.23414482 -0.17272979 0.015353759 -0.12666851 0.13434538 0.30707517 0.28020608 0.23030639 0.11131475 -0.28404453 -0.011515319 -0.092122555 -0.049899716 -0.19959886
000060 43 4a 10 25 38 bf ba f0 08 f8 28 32 52 36 39 d0
       0.25717545 0.28404453 0.061415035 0.14202227 0.21495262 -0.24949858 -0.26869076 -0.061415035 0.030707518 -0.030707518 0.15353759 0.19192198 0.31475204 0.20727575 0.21879107 -0.18424511
000070 6a 48 e9 bb d6 3a 4d c3 43 df 3a 2c 3f 03 35 ed
       0.4068746 0.27636766 -0.08828411 -0.26485234 -0.16121447 0.2226295 0.29555985 -0.23414482 0.25717545 -0.12666851 0.2226295 0.16889134 0.2418217 0.011515319 0.2034373 -0.07293035
000080 20 48 c9 5b 29 d0 02 44 84 a2 eb c5 33 f9 b2 b3
       0.12283007 0.27636766 -0.21111418 0.349298 0.15737602 -0.18424511 0.0076768794 0.2610139 -0.4759665 -0.36081332 -0.080607235 -0.22646794 0.19576043 -0.026869077 -0.2993983 -0.29555985
000090 44 3b 1b f3 0b f0 ec ba 2c c7 4c 31 90 58 ee 30
       0.2610139 0.22646794 0.103637874 -0.049899716 0.042222835 -0.061415035 -0.07676879 -0.26869076 0.16889134 -0.21879107 0.2917214 0.18808354 -0.42990524 0.33778268 -0.069091916 0.18424511
0000a0 e2 58 f2 44 c5 53 4f cb b8 ee 24 02 de 2e 42 ea
       -0.11515319 0.33778268 -0.053738154 0.2610139 -0.22646794 0.3185905 0.30323672 -0.2034373 -0.27636766 -0.069091916 0.13818383 0.0076768794 -0.13050695 0.17656823 0.25333703 -0.08444567
0000b0 5f 3e 13 55 64 55 f0 a6 21 12 02 3a 57 ec 2d f3
       0.36465177 0.23798326 0.07293035 0.32626736 0.38384396 0.32626736 -0.061415035 -0.34545958 0.12666851 0.069091916 0.0076768794 0.2226295 0.33394426 -0.07676879 0.17272979 -0.049899716
0000c0 06 9b 1c 3b c8 53 b2 01 bc e0 ae b9 df cf d9 17
       0.023030639 -0.3876824 0.10747631 0.22646794 -0.21495262 0.3185905 -0.2993983 0.0038384397 -0.2610139 -0.12283007 -0.31475204 -0.2725292 -0.12666851 -0.18808354 -0.14969915 0.08828411
0000d0 a6 15 28 68 e1 15 a1 af af 53 e6 11 d9 17 53 26
       -0.34545958 0.080607235 0.15353759 0.39919773 -0.11899163 0.080607235 -0.36465177 -0.31091362 -0.31091362 0.3185905 -0.09979943 0.065253474 -0.14969915 0.08828411 0.3185905 0.1458607
0000e0 62 1b a6 f7 61 ed f4 ed 4f be 78 26 2d 78 03 d4
       0.3761671 0.103637874 -0.34545958 -0.034545958 0.37232864 -0.07293035 -0.046061277 -0.07293035 0.30323672 -0.25333703 0.46061277 0.1458607 0.17272979 0.46061277 0.011515319 -0.16889134
0000f0 2e b8 ab e9 d8 ee d9 01 23 16 ed d8 09 d3 95 4c
       0.17656823 -0.27636766 -0.32626736 -0.08828411 -0.15353759 -0.069091916 -0.14969915 0.0038384397 0.13434538 0.08444567 -0.07293035 -0.15353759 0.034545958 -0.17272979 -0.41071305 0.2917214

sequential_15/time_distributed_44/conv2d_23/Conv2D i1 [128, 2, 2, 128]
000000 3e 62 aa 35 5b 9c e8 9c 1d 5f 1b 7a 3a 2d 7f fd
       62 98 -86 53 91 -100 -24 -100 29 95 27 122 58 45 127 -3
000010 65 0a 22 e0 5e f4 51 06 73 2c c5 a3 1d 8f 95 4b
       101 10 34 -32 94 -12 81 6 115 44 -59 -93 29 -113 -107 75
000020 c9 18 13 60 25 4b 97 10 18 66 c2 23 f5 65 d3 07
       -55 24 19 96 37 75 -105 16 24 102 -62 35 -11 101 -45 7
000030 4b 6f b7 10 b5 4c 05 1a fa e2 e3 04 0b a1 23 e4
       75 111 -73 16 -75 76 5 26 -6 -30 -29 4 11 -95 35 -28
000040 09 43 e4 ae 40 02 8e a9 68 f2 24 6d 17 19 50 c6
       9 67 -28 -82 64 2 -114 -87 104 -14 36 109 23 25 80 -58
000050 5a 9e 1f d7 b7 26 9e 36 0d fd 63 92 30 48 1f ad
       90 -98 31 -41 -73 38 -98 54 13 -3 99 -110 48 72 31 -83
000060 0d fe 1f 0e a6 ea 49 ad b0 60 eb a2 1f 76 33 d0
       13 -2 31 14 -90 -22 73 -83 -80 96 -21 -94 31 118 51 -48
000070 da 5c a4 32 35 a7 f9 ac bf a3 05 67 f3 54 51 c9
       -38 92 -92 50 53 -89 -7 -84 -65 -93 5 103 -13 84 81 -55
000080 25 ab 70 f9 6d e7 6e 20 e2 9e f6 59 cd 27 5a c2
       37 -85 112 -7 109 -25 110 32 -30 -98 -10 89 -51 39 90 -62
000090 48 1a 19 3b f6 41 db b8 75 fb 67 29 74 65 f5 69
       72 26 25 59 -10 65 -37 -72 117 -5 103 41 116 101 -11 105
0000a0 c0 67 35 e3 13 9d 3c 0c 98 a4 d1 1c 40 6c 8e cf
       -64 103 53 -29 19 -99 60 12 -104 -92 -47 28 64 108 -114 -49
0000b0 4b 37 d8 cc 91 22 ac 20 d2 30 c0 50 e7 35 57 78
       75 55 -40 -52 -111 34 -84 32 -46 48 -64 80 -25 53 87 120
0000c0 af 93 f8 0e 9c e2 ad 62 c5 1c e1 00 b4 6c 9f a6
       -81 -109 -8 14 -100 -30 -83 98 -59 28 -31 0 -76 108 -97 -90
0000d0 ba b9 af 57 7d e3 4e c8 29 1d 51 22 0f b5 b6 df
       -70 -71 -81 87 125 -29 78 -56 41 29 81 34 15 -75 -74 -33
0000e0 cf 4e 86 65 f1 08 7b 9a 69 58 17 4b d2 96 74 28
       -49 78 -122 101 -15 8 123 -102 105 88 23 75 -46 -106 116 40
0000f0 ee b4 f4 ef 68 fc c3 a5 0e 8f 5a ba 89 a1 a6 bf
       -18 -76 -12 -17 104 -4 -61 -91 14 -113 90 -70 -119 -95 -90 -65

sequential_15/time_distributed_43/conv2d_22/Conv2D i1 [128, 3, 1, 1]
000000 7f 26 9b c2 81 af bd 81 45 d5 e5 7f 7f 3c 49 7f
       127 38 -101 -62 -127 -81 -67 -127 69 -43 -27 127 127 60 73 127
000010 9b 93 7f 27 b8 02 81 88 bd 92 81 4c 7f 98 81 a1
       -101 -109 127 39 -72 2 -127 -120 -67 -110 -127 76 127 -104 -127 -95
000020 d8 3e 7f 02 7f 99 30 7f 60 a8 a1 7f 66 7f 72 7b
       -40 62 127 2 127 -103 48 127 96 -88 -95 127 102 127 114 123
000030 81 23 eb 49 7f 9b 76 8a 7f 2e e3 81 0d 7f d4 62
       -127 35 -21 73 127 -101 118 -118 127 46 -29 -127 13 127 -44 98
000040 2a 7f e8 5e 81 9f ae 7f 7f 70 38 8b 43 81 81 26
       42 127 -24 94 -127 -97 -82 127 127 112 56 -117 67 -127 -127 38
000050 31 7f 6a 7c 9a bd 7f 8b 7f ed 7f 3d c4 a7 7f 71
       49 127 106 124 -102 -67 127 -117 127 -19 127 61 -60 -89 127 113
000060 28 7f 04 03 31 7f 5f 81 5e 81 94 cc 81 4c 8c 9d
       40 127 4 3 49 127 95 -127 94 -127 -108 -52 -127 76 -116 -99
000070 81 f5 03 7f d3 3a f8 81 a9 81 ae 82 be 81 68 7f
       -127 -11 3 127 -45 58 -8 -127 -87 -127 -82 -126 -66 -127 104 127
000080 59 62 03 7f 77 7f b3 7f 44 39 91 b6 7f 71 7f 77
       89 98 3 127 119 127 -77 127 68 57 -111 -74 127 113 127 119
000090 fb 7f be 7f 4c 5e 7f 61 00 81 5a 79 7f 89 aa e0
       -5 127 -66 127 76 94 127 97 0 -127 90 121 127 -119 -86 -32
0000a0 7f e0 7f 83 ad 33 fb 7f cd ba 81 d6 7f ec 7f c5
       127 -32 127 -125 -83 51 -5 127 -51 -70 -127 -42 127 -20 127 -59
0000b0 3b 7f dd 66 92 7f a3 4a 81 7d c5 81 a6 7f f3 55
       59 127 -35 102 -110 127 -93 74 -127 125 -59 -127 -90 127 -13 85
0000c0 c0 81 85 fa 81 26 7f dc 58 45 e6 7f 5a 53 7f b5
       -64 -127 -123 -6 -127 38 127 -36 88 69 -26 127 90 83 127 -75
0000d0 7f 49 81 e4 72 a4 81 aa 7f 1a 56 20 7f 53 62 ae
       127 73 -127 -28 114 -92 -127 -86 127 26 86 32 127 83 98 -82
0000e0 7f 08 81 bf 81 a0 69 81 e9 4e 81 e7 ba 81 5a d3
       127 8 -127 -65 -127 -96 105 -127 -23 78 -127 -25 -70 -127 90 -45
0000f0 c4 76 7f 4d 7f 7c 3a 27 7f 47 7f 72 d6 57 7f b9
       -60 118 127 77 127 124 58 39 127 71 127 114 -42 87 127 -71

sequential_15/lstm_10/Read_2/ReadVariableOp1 i1 [128] scale=0.0040504723 zero_point=-126
000000 88 83 86 89 83 89 8b 88 87 85 85 87 88 8d 83 86
       0.024302833 0.0040504723 0.01620189 0.028353306 0.0040504723 0.028353306 0.03645425 0.024302833 0.020252362 0.012151416 0.012151416 0.020252362 0.024302833 0.044555195 0.0040504723 0.01620189
000010 88 85 88 84 89 85 82 83 88 84 82 88 87 84 88 8a
       0.024302833 0.012151416 0.024302833 0.008100945 0.028353306 0.012151416 0.0 0.0040504723 0.024302833 0.008100945 0.0 0.024302833 0.020252362 0.008100945 0.024302833 0.03240378
000020 7f 7b 7a 7a 7b 7e 7c 7c 7a 7e 7b 79 7d 7e 7b 7c
       1.0247695 1.0085676 1.0045171 1.0045171 1.0085676 1.020719 1.0126181 1.0126181 1.0045171 1.020719 1.0085676 1.0004667 1.0166686 1.020719 1.0085676 1.0126181
000030 7c 7d 7f 7c 7c 7d 7c 78 7d 78 7b 7b 7e 7c 7b 7b
       1.0126181 1.0166686 1.0247695 1.0126181 1.0126181 1.0166686 1.0126181 0.9964162 1.0166686 0.9964162 1.0085676 1.0085676 1.020719 1.0126181 1.0085676 1.0085676
000040 82 83 83 81 83 82 83 83 84 83 82 82 83 83 83 82
       0.0 0.0040504723 0.0040504723 -0.0040504723 0.0040504723 0.0 0.0040504723 0.0040504723 0.008100945 0.0040504723 0.0 0.0 0.0040504723 0.0040504723 0.0040504723 0.0
000050 82 82 82 82 82 82 82 84 82 82 82 80 81 82 81 83
       0.0 0.0 0.0 0.0 0.0 0.0 0.0 0.008100945 0.0 0.0 0.0 -0.008100945 -0.0040504723 0.0 -0.0040504723 0.0040504723
000060 8f 89 88 8d 86 8e 8b 86 8b 8a 88 87 8c 90 8a 88
       0.05265614 0.028353306 0.024302833 0.044555195 0.01620189 0.048605666 0.03645425 0.01620189 0.03645425 0.03240378 0.024302833 0.020252362 0.040504724 0.05670661 0.03240378 0.024302833
000070 89 8e 8e 89 86 8a 84 86 87 86 8b 86 8a 87 8c 89
       0.028353306 0.048605666 0.048605666 0.028353306 0.01620189 0.03240378 0.008100945 0.01620189 0.020252362 0.01620189 0.03645425 0.01620189 0.03240378 0.020252362 0.040504724 0.028353306

while/MatMul i1 [128, 512] scale=0.001683649 zero_point=0
000000 3b df 32 f7 ed dd e5 f6 10 08 26 37 fc 1f 01 2b
       0.09933529 -0.055560417 0.08418245 -0.015152841 -0.031989332 -0.058927715 -0.045458525 -0.01683649 0.026938384 0.013469192 0.063978665 0.092600696 -0.006734596 0.05219312 0.001683649 0.07239691
000010 1d 3f ee 1a cc ef 43 f8 df 31 02 0a 30 d5 0c de
       0.048825823 0.106069885 -0.030305682 0.043774873 -0.087549746 -0.028622033 0.11280449 -0.013469192 -0.055560417 0.082498804 0.003367298 0.01683649 0.08081515 -0.07239691 0.020203788 -0.057244066
000020 0d e0 29 06 2b e6 3d e5 ff e0 d2 ec f6 34 2e 05
       0.021887437 -0.05387677 0.06902961 0.010101894 0.07239691 -0.043774873 0.10270259 -0.045458525 -0.001683649 -0.05387677 -0.077447854 -0.03367298 -0.01683649 0.087549746 0.077447854 0.008418245
000030 d4 2f f0 31 fb ea ee eb 2c 0d e0 38 0f 3c 1d f8
       -0.07408056 0.07913151 -0.026938384 0.082498804 -0.008418245 -0.03704028 -0.030305682 -0.03535663 0.07408056 0.021887437 -0.05387677 0.09428435 0.025254736 0.10101894 0.048825823 -0.013469192
000040 2d 29 02 f9 f6 fb 2d 42 1f ed ec f0 e2 25 d3 1a
       0.07576421 0.06902961 0.003367298 -0.0117855435 -0.01683649 -0.008418245 0.07576421 0.111120835 0.05219312 -0.031989332 -0.03367298 -0.026938384 -0.05050947 0.062295012 -0.07576421 0.043774873
000050 1e 07 e9 e7 37 00 35 d6 09 d8 2c ce 01 dc f9 09
       0.05050947 0.0117855435 -0.038723927 -0.042091224 0.092600696 0.0 0.0892334 -0.07071326 0.015152841 -0.06734596 0.07408056 -0.08418245 0.001683649 -0.060611364 -0.0117855435 0.015152841
000060 47 e5 31 16 0e 40 2d f9 3b 28 db e6 d5 3d 0d f8
       0.11953908 -0.045458525 0.082498804 0.03704028 0.023571087 0.10775354 0.07576421 -0.0117855435 0.09933529 0.06734596 -0.062295012 -0.043774873 -0.07239691 0.10270259 0.021887437 -0.013469192
000070 24 ca de 3a eb fa 0e fb 41 0b ee 16 e2 d5 05 fb
       0.060611364 -0.09091705 -0.057244066 0.097651646 -0.03535663 -0.010101894 0.023571087 -0.008418245 0.10943719 0.01852014 -0.030305682 0.03704028 -0.05050947 -0.07239691 0.008418245 -0.008418245
000080 06 3a d8 f6 f1 d6 3e 0c 28 37 08 15 25 46 2b ed
       0.010101894 0.097651646 -0.06734596 -0.01683649 -0.025254736 -0.07071326 0.10438624 0.020203788 0.06734596 0.092600696 0.013469192 0.03535663 0.062295012 0.11785543 0.07239691 -0.031989332
000090 10 22 42 d2 fc f1 2e 37 f2 0d 12 47 09 16 24 1b
       0.026938384 0.057244066 0.111120835 -0.077447854 -0.006734596 -0.025254736 0.077447854 0.092600696 -0.023571087 0.021887437 0.030305682 0.11953908 0.015152841 0.03704028 0.060611364 0.045458525
0000a0 44 16 35 e2 09 de f6 24 02 df 1b ff f1 ed 19 24
       0.11448813 0.03704028 0.0892334 -0.05050947 0.015152841 -0.057244066 -0.01683649 0.060611364 0.003367298 -0.055560417 0.045458525 -0.001683649 -0.025254736 -0.031989332 0.042091224 0.060611364
0000b0 f5 3a f1 fa 0b e3 0f 40 ea fb ef 00 f2 28 4a e5
       -0.01852014 0.097651646 -0.025254736 -0.010101894 0.01852014 -0.048825823 0.025254736 0.10775354 -0.03704028 -0.008418245 -0.028622033 0.0 -0.023571087 0.06734596 0.124590024 -0.045458525
0000c0 f2 05 1f 3c cf 17 fe 14 29 10 25 0f cb 21 e9 22
       -0.023571087 0.008418245 0.05219312 0.10101894 -0.082498804 0.038723927 -0.003367298 0.03367298 0.06902961 0.026938384 0.062295012 0.025254736 -0.0892334 0.055560417 -0.038723927 0.057244066
0000d0 13 e1 ee e9 41 10 2e e7 47 1e 13 29 de 20 fb dc
       0.031989332 -0.05219312 -0.030305682 -0.038723927 0.10943719 0.026938384 0.077447854 -0.042091224 0.11953908 0.05050947 0.031989332 0.06902961 -0.057244066 0.05387677 -0.008418245 -0.060611364
0000e0 d6 e6 18 43 0a fd 42 2e 1d 15 0a 31 3d cf 0c 15
       -0.07071326 -0.043774873 0.040407576 0.11280449 0.01683649 -0.005050947 0.111120835 0.077447854 0.048825823 0.03535663 0.01683649 0.082498804 0.10270259 -0.082498804 0.020203788 0.03535663
0000f0 2a 1b 02 ec 11 e0 de 47 32 2c d1 32 eb 03 fe dd
       0.07071326 0.045458525 0.003367298 -0.03367298 0.028622033 -0.05387677 -0.057244066 0.11953908 0.08418245 0.07408056 -0.07913151 0.08418245 -0.03535663 0.005050947 -0.003367298 -0.058927715

while/MatMul_11 i1 [128, 32] scale=0.00261309 zero_point=0
000000 0f ee c4 ed b3 1f a9 3c 44 1b 05 2d 26 db d3 01
       0.03919635 -0.04703562 -0.1567854 -0.04964871 -0.20120794 0.08100579 -0.22733882 0.1567854 0.17769012 0.07055343 0.01306545 0.11758905 0.09929742 -0.09668433 -0.11758905 0.00261309
000010 3d d8 06 1b 00 d7 37 18 d2 1d f0 98 b7 1a e3 19
       0.1593985 -0.1045236 0.01567854 0.07055343 0.0 -0.10713669 0.14371994 0.06271416 -0.12020214 0.07577961 -0.04180944 -0.27176136 -0.19075558 0.06794034 -0.07577961 0.06532725
000020 29 cc ad 0f 19 47 2e db 1f 3c 17 26 c4 d2 2c 1a
       0.10713669 -0.13588068 -0.21688646 0.03919635 0.06532725 0.18552938 0.12020214 -0.09668433 0.08100579 0.1567854 0.06010107 0.09929742 -0.1567854 -0.12020214 0.11497596 0.06794034
000030 1f 19 2b 04 d2 e2 db cd 45 d4 ef 18 e4 04 13 15
       0.08100579 0.06532725 0.11236287 0.01045236 -0.12020214 -0.0783927 -0.09668433 -0.13326758 0.18030322 -0.11497596 -0.04442253 0.06271416 -0.07316652 0.01045236 0.04964871 0.05487489
000040 f6 11 f9 a2 04 2f f7 09 62 ee 0a cf 12 2d f7 03
       -0.0261309 0.04442253 -0.01829163 -0.24563046 0.01045236 0.12281523 -0.02351781 0.02351781 0.25608283 -0.04703562 0.0261309 -0.12804142 0.04703562 0.11758905 -0.02351781 0.00783927
000050 20 bf e6 e5 dd df 23 fc 06 e0 f3 1a ca 4f cf fe
       0.08361888 -0.16985086 -0.06794034 -0.07055343 -0.09145815 -0.08623197 0.09145815 -0.01045236 0.01567854 -0.08361888 -0.03397017 0.06794034 -0.14110686 0.2064341 -0.12804142 -0.00522618
000060 c9 fb 15 07 07 c6 29 46 2a e9 15 fb 16 26 fc d1
       -0.14371994 -0.01306545 0.05487489 0.01829163 0.01829163 -0.15155922 0.10713669 0.1829163 0.10974978 -0.06010107 0.05487489 -0.01306545 0.05748798 0.09929742 -0.01045236 -0.12281523
000070 ff ee d6 dd 0a ec 2d 31 cf c8 f4 e9 dc 29 b1 eb
       -0.00261309 -0.04703562 -0.10974978 -0.09145815 0.0261309 -0.0522618 0.11758905 0.12804142 -0.12804142 -0.14633304 -0.03135708 -0.06010107 -0.09407124 0.10713669 -0.2064341 -0.05487489
000080 18 19 1b e4 23 cd 24 f7 e2 fa 01 b2 15 e6 13 ee
       0.06271416 0.06532725 0.07055343 -0.07316652 0.09145815 -0.13326758 0.09407124 -0.02351781 -0.0783927 -0.01567854 0.00261309 -0.20382102 0.05487489 -0.06794034 0.04964871 -0.04703562
000090 20 ed da 15 3b 2b 0f ee fc 01 1f c0 d4 2f 12 ef
       0.08361888 -0.04964871 -0.09929742 0.05487489 0.1541723 0.11236287 0.03919635 -0.04703562 -0.01045236 0.00261309 0.08100579 -0.16723776 -0.11497596 0.12281523 0.04703562 -0.04442253
0000a0 23 19 07 f2 13 c5 13 02 2f f9 3e e8 3e 1e ff cc
       0.09145815 0.06532725 0.01829163 -0.03658326 0.04964871 -0.1541723 0.04964871 0.00522618 0.12281523 -0.01829163 0.16201158 -0.06271416 0.16201158 0.0783927 -0.00261309 -0.13588068
0000b0 db e9 0b ff 1b 08 ff 38 d5 bd 09 16 0e 0f f9 29
       -0.09668433 -0.06010107 0.02874399 -0.00261309 0.07055343 0.02090472 -0.00261309 0.14633304 -0.11236287 -0.17507702 0.02351781 0.05748798 0.03658326 0.03919635 -0.01829163 0.10713669
0000c0 db 08 f2 08 e5 ef 19 d8 11 f6 eb f5 0e 2a e6 35
       -0.09668433 0.02090472 -0.03658326 0.02090472 -0.07055343 -0.04442253 0.06532725 -0.1045236 0.04442253 -0.0261309 -0.05487489 -0.02874399 0.03658326 0.10974978 -0.06794034 0.13849378
0000d0 e4 d4 e2 1d d9 0a 4b ea 20 32 c0 05 24 e1 02 ea
       -0.07316652 -0.11497596 -0.0783927 0.07577961 -0.10191051 0.0261309 0.19598174 -0.05748798 0.08361888 0.1306545 -0.16723776 0.01306545 0.09407124 -0.08100579 0.00522618 -0.05748798
0000e0 22 23 fc fb fe df ee 12 2a f8 01 fa 1c 06 0d 11
       0.08884506 0.09145815 -0.01045236 -0.01306545 -0.00522618 -0.08623197 -0.04703562 0.04703562 0.10974978 -0.02090472 0.00261309 -0.01567854 0.07316652 0.01567854 0.03397017 0.04442253
0000f0 28 3b 4d 2b d5 b9 09 25 07 1c ed 02 ff 1a 0d 1f
       0.1045236 0.1541723 0.20120794 0.11236287 -0.11236287 -0.18552938 0.02351781 0.09668433 0.01829163 0.07316652 -0.04964871 0.00522618 -0.00261309 0.06794034 0.03397017 0.08100579
