evaluation-code/output/models/tflite/ConvLSTM_max_pooling_32units_framesize_5_20230624-161431.tflite (tflite, 418744 bytes, 6 tensors)

sequential_17/dense_17/MatMul i1 [10, 128] scale=0.0024109837 zero_point=0
-0.09643935 0.08197345 0.01928787 -0.10126132 -0.048219673 -0.110905245 -0.14707 0.13742606
0.06509656 -0.028931804 -0.22181049 -0.0024109837 -0.10849427 0.009643935 -0.12537116 -0.14707
-0.1326041 0.14707 0.014465902 -0.024109837 0.1615359 0.0892064 -0.13742606 0.22422148
0.21939951 -0.07474049 -0.17359082 -0.048219673 0.06509656 -0.22663246 0.10608328 -0.1784128
0.09885033 -0.057863608 -0.13742606 -0.03375377 -0.028931804 -0.12537116 -0.15189198 0.15912493
0.21216656 -0.15430295 0.15189198 -0.115727216 0.03375377 0.12778214 -0.1928787 -0.08679541
-0.08438443 -0.23868738 0.10126132 -0.12778214 -0.09643935 -0.08197345 -0.16876885 -0.12054919
0.21216656 0.09402836 0.1639469 -0.20011164 0.1639469 0.045808688 0.19528967 -0.28931803
-0.14707 -0.02652082 -0.20252264 0.040986724 0.2796741 0.040986724 0.1760018 0.17117985
0.18564574 -0.1760018 0.18323475 -0.20975558 0.057863608 0.05304164 -0.05063066 0.22663246
0.048219673 -0.1615359 0.17117985 0.110905245 0.06509656 -0.16635787 -0.055452622 0.048219673
-0.16876885 -0.15912493 -0.15189198 -0.14465901 0.06509656 -0.03134279 0.05304164 -0.16635787
-0.06991853 0.1181382 -0.110905245 0.17359082 0.016876886 0.19528967 0.08679541 -0.01928787
0.21457754 -0.02652082 -0.08438443 0.048219673 0.012054918 -0.009643935 0.15189198 -0.03857574
-0.10608328 -0.13019311 -0.007232951 0.12537116 -0.18323475 -0.1760018 0.021698853 0.1615359
-0.2676192 -0.10849427 0.09643935 -0.21457754 0.14465901 -0.060274594 0.13742606 -0.1326041
0.03857574 0.15430295 0.13742606 0.17117985 0.09885033 -0.060274594 0.07474049 -0.20734459
0.06991853 0.028931804 0.1928787 -0.1326041 0.103672296 0.12054919 0.060274594 0.036164753
-0.12537116 0.16635787 -0.20734459 -0.08197345 -0.1615359 0.091617376 0.18082377 0.07715148
-0.18805672 0.05063066 0.009643935 0.24350935 0.110905245 -0.24350935 0.22663246 0.16635787
-0.1760018 -0.14465901 -0.036164753 -0.21939951 0.17359082 -0.057863608 -0.12054919 -0.1928787
-0.18082377 -0.1639469 -0.1181382 0.07715148 -0.13501509 -0.14707 -0.06509656 -0.13501509
0.13742606 -0.23386541 0.18564574 0.18082377 0.2676192 0.20734459 0.1639469 -0.14224803
-0.23868738 -0.07956246 0.20252264 0.0892064 0.08679541 0.18323475 0.21216656 0.024109837
0.23868738 -0.045808688 -0.24833132 0.17359082 0.12778214 -0.103672296 0.103672296 -0.057863608
0.13742606 0.007232951 0.115727216 0.16876885 -0.19770066 -0.08679541 -0.17359082 -0.12778214
-0.12778214 -0.028931804 -0.13983706 0.07956246 -0.15671393 -0.10608328 0.036164753 0.07956246
-0.18805672 0.06509656 -0.08438443 0.16635787 -0.055452622 -0.18805672 0.055452622 -0.15189198
0.014465902 0.1760018 -0.05063066 0.22422148 0.009643935 0.20734459 0.20011164 -0.06268558
-0.091617376 -0.10608328 0.0024109837 -0.22904345 -0.10608328 -0.18805672 -0.110905245 -0.13742606
0.20734459 0.21457754 -0.103672296 0.15671393 -0.1784128 -0.09402836 -0.22663246 0.115727216
-0.23868738 -0.19046772 -0.15430295 0.06750754 0.0024109837 -0.03375377 0.021698853 -0.1784128
00000000: d822 08d6 ecd2 c339 1bf4 a4ff d304 ccc3
00000010: c93d 06f6 4325 c75d 5be1 b8ec 1ba2 2cb6
00000020: 29e8 c7f2 f4cc c142 58c0 3fd0 0e35 b0dc
00000030: dd9d 2acb d8de bace 5827 44ad 4413 5188
00000040: c3f5 ac11 7411 4947 4db7 4ca9 1816 eb5e
00000050: 14bd 472e 1bbb e914 babe c1c4 1bf3 16bb
00000060: e331 d248 0751 24f8 59f5 dd14 05fc 3ff0
00000070: d4ca fd34 b4b7 0943 91d3 28a7 3ce7 39c9
00000080: 1040 3947 29e7 1faa 1d0c 50c9 2b32 190f
00000090: cc45 aade bd26 4b20 b215 0465 2e9b 5e45
000000a0: b7c4 f1a5 48e8 ceb0 b5bc cf20 c8c3 e5c8
000000b0: 399f 4d4b 6f56 44c5 9ddf 5425 244c 580a
000000c0: 63ed 9948 35d5 2be8 3903 3046 aedc b8cb
000000d0: cbf4 c621 bfd4 0f21 b21b dd45 e9b2 17c1
000000e0: 0649 eb5d 0456 53e6 dad4 01a1 d4b2 d2c7
000000f0: 5659 d541 b6d9 a230 9db1 c01c 01f2 09b6

sequential_17/time_distributed_50/conv2d_27/Conv2D i1 [128, 2, 2, 128]
49 -32 104 16 34 -82 18 19
62 -12 -40 21 -42 -60 22 27
40 3 -27 50 -9 -58 46 55
52 3 34 37 -30 57 3 54
-47 28 48 -61 65 -12 -7 -55
67 -37 -15 65 18 13 -49 -7
55 13 -66 47 -59 -10 -67 48
30 79 10 2 37 6 21 51
53 87 -60 -36 -22 10 -37 -16
64 -5 12 -15 -4 -12 20 -17
-28 44 -76 6 -4 78 -19 -23
44 45 11 -34 -55 -14 34 -36
17 63 -24 -20 -11 -14 1 46
-21 -70 67 8 40 -44 -5 45
14 -18 33 -8 31 40 33 26
14 14 16 71 -56 -66 14 39
-49 45 36 52 19 25 -46 99
-3 -44 69 54 -50 -16 -30 -27
98 40 93 -55 8 60 16 85
71 112 15 -5 -68 57 33 10
52 -70 -28 -36 -39 -51 54 22
47 75 60 55 -20 -28 -43 17
-38 -52 50 21 36 -64 65 43
-46 -15 -5 -60 26 -60 33 43
23 -3 -38 5 -6 -19 -35 -23
22 23 23 -68 41 43 35 45
79 -47 -48 -52 -37 12 0 59
-8 62 69 1 34 -32 42 66
-28 57 -36 -41 -68 62 49 12
35 81 31 60 -55 -22 105 9
88 -34 61 0 53 -50 0 57
-14 -6 -37 31 29 -11 -55 13
00000000: 31e0 6810 22ae 1213 3ef4 d815 d6c4 161b
00000010: 2803 e532 f7c6 2e37 3403 2225 e239 0336
00000020: d11c 30c3 41f4 f9c9 43db f141 120d cff9
00000030: 370d be2f c5f6 bd30 1e4f 0a02 2506 1533
00000040: 3557 c4dc ea0a dbf0 40fb 0cf1 fcf4 14ef
00000050: e42c b406 fc4e ede9 2c2d 0bde c9f2 22dc
00000060: 113f e8ec f5f2 012e ebba 4308 28d4 fb2d
00000070: 0eee 21f8 1f28 211a 0e0e 1047 c8be 0e27
00000080: cf2d 2434 1319 d263 fdd4 4536 cef0 e2e5
00000090: 6228 5dc9 083c 1055 4770 0ffb bc39 210a
000000a0: 34ba e4dc d9cd 3616 2f4b 3c37 ece4 d511
000000b0: dacc 3215 24c0 412b d2f1 fbc4 1ac4 212b
000000c0: 17fd da05 faed dde9 1617 17bc 292b 232d
000000d0: 4fd1 d0cc db0c 003b f83e 4501 22e0 2a42
000000e0: e439 dcd7 bc3e 310c 2351 1f3c c9ea 6909
000000f0: 58de 3d00 35ce 0039 f2fa db1f 1df5 c90d

sequential_17/time_distributed_49/conv2d_26/Conv2D i1 [128, 3, 1, 1]
-127 -78 -42 -127 81 -7 127 -46
-106 127 0 42 -14 -127 -8 -127
1 51 68 127 113 54 -7 -127
127 -91 -68 127 -79 58 127 -46
-116 127 24 94 -57 -72 -127 -127
-4 -60 56 8 -127 -127 -121 20
67 37 -127 -74 -11 -127 87 17
-127 62 127 -85 -57 127 51 -92
59 127 80 127 -14 45 38 -127
127 -93 -82 57 26 -127 -115 -22
-127 65 89 -127 -127 -124 -95 -125
-127 -94 -95 -65 127 -114 -29 -127
-127 -31 86 3 107 127 52 127
56 57 -127 -27 91 46 127 127
114 -28 127 -97 89 127 56 38
61 127 -16 99 49 -127 -17 -24
-127 127 79 33 -65 113 127 -27
-29 -127 -90 -127 12 127 -44 -111
99 -127 28 31 -97 127 -127 -56
42 15 -127 34 -8 30 -127 127
6 -66 -79 -33 -127 -121 127 -100
-127 -101 -25 64 127 -69 65 -8
-127 3 124 127 -80 -63 127 -89
68 127 -127 74 -47 95 -26 -127
-13 -127 -97 -98 -37 127 -127 94
-105 127 53 12 68 11 -127 127
-106 -64 35 127 80 127 7 26
123 127 124 37 127 -38 127 -30
108 127 -47 4 2 -98 -127 27
127 87 -81 -127 -53 -38 -115 127
-127 32 56 127 -76 125 -75 -127
105 -127 82 -93 127 111 73 -6
00000000: 81b2 d681 51f9 7fd2 967f 002a f281 f881
00000010: 0133 447f 7136 f981 7fa5 bc7f b13a 7fd2
00000020: 8c7f 185e c7b8 8181 fcc4 3808 8181 8714
00000030: 4325 81b6 f581 5711 813e 7fab c77f 33a4
00000040: 3b7f 507f f22d 2681 7fa3 ae39 1a81 8dea
00000050: 8141 5981 8184 a183 81a2 a1bf 7f8e e381
00000060: 81e1 5603 6b7f 347f 3839 81e5 5b2e 7f7f
00000070: 72e4 7f9f 597f 3826 3d7f f063 3181 efe8
00000080: 817f 4f21 bf71 7fe5 e381 a681 0c7f d491
00000090: 6381 1c1f 9f7f 81c8 2a0f 8122 f81e 817f
000000a0: 06be b1df 8187 7f9c 819b e740 7fbb 41f8
000000b0: 8103 7c7f b0c1 7fa7 447f 814a d15f e681
000000c0: f381 9f9e db7f 815e 977f 350c 440b 817f
000000d0: 96c0 237f 507f 071a 7b7f 7c25 7fda 7fe2
000000e0: 6c7f d104 029e 811b 7f57 af81 cbda 8d7f
000000f0: 8120 387f b47d b581 6981 52a3 7f6f 49fa

sequential_17/lstm_12/Read_2/ReadVariableOp1 i1 [512] scale=0.004053809 zero_point=-125
0.028376665 0.0 0.032430474 0.032430474 0.012161428 0.032430474 0.008107618 0.028376665
0.004053809 0.008107618 0.016215237 0.0 0.004053809 0.024322856 0.036484282 0.028376665
0.020269046 -0.004053809 0.020269046 0.016215237 0.004053809 0.008107618 0.012161428 0.016215237
0.032430474 0.0 0.028376665 0.012161428 0.008107618 0.020269046 0.016215237 0.032430474
0.004053809 0.016215237 0.004053809 0.012161428 0.020269046 0.0 0.020269046 0.028376665
0.05269952 -0.012161428 0.020269046 0.008107618 0.004053809 0.012161428 0.012161428 0.024322856
0.012161428 0.020269046 0.012161428 0.028376665 0.020269046 0.016215237 0.004053809 0.024322856
0.008107618 0.004053809 0.020269046 0.008107618 0.004053809 0.016215237 0.028376665 0.012161428
0.032430474 0.028376665 0.024322856 0.016215237 0.008107618 0.012161428 0.024322856 0.012161428
0.020269046 0.012161428 0.020269046 0.028376665 0.028376665 0.020269046 0.028376665 0.008107618
0.024322856 0.020269046 0.012161428 0.020269046 0.0 0.020269046 0.028376665 0.012161428
0.012161428 0.004053809 0.016215237 0.04053809 0.016215237 0.0 0.016215237 0.012161428
0.024322856 0.016215237 0.012161428 0.004053809 0.004053809 0.028376665 0.008107618 0.0
0.020269046 0.016215237 0.008107618 0.024322856 -0.004053809 0.008107618 0.008107618 0.008107618
0.020269046 0.004053809 0.012161428 0.012161428 0.024322856 0.004053809 0.008107618 0.016215237
0.008107618 0.032430474 0.0 0.008107618 0.020269046 0.020269046 0.016215237 0.024322856
1.0093985 1.0012909 1.0053446 1.0134523 1.0093985 1.0093985 1.0012909 1.0093985
1.0012909 1.0175061 1.0093985 1.0053446 0.99318326 1.0093985 1.0093985 1.0053446
1.0053446 1.0134523 1.0093985 1.0093985 1.0053446 1.0053446 1.0012909 1.0053446
1.0134523 1.0053446 1.0093985 1.0012909 1.0093985 1.0093985 1.0012909 1.0134523
1.0093985 1.0053446 1.0093985 1.0093985 1.0175061 0.99318326 1.0012909 1.0012909
1.02156 0.99318326 1.0175061 1.0093985 1.0053446 1.0093985 0.9972371 1.0012909
1.0093985 1.0053446 1.0012909 1.02156 1.0134523 1.0093985 1.0053446 1.0134523
1.0134523 1.0053446 1.0093985 1.0093985 1.0093985 1.0093985 1.0053446 1.0053446
1.0093985 1.0093985 1.0093985 1.0093985 1.0093985 1.0134523 0.9972371 1.0053446
1.0012909 1.0093985 1.0134523 1.0134523 1.0053446 1.0175061 1.0134523 1.0012909
1.0093985 1.0093985 1.0093985 1.0175061 0.9972371 1.0093985 1.0134523 1.0053446
1.0093985 0.9972371 1.0093985 1.0175061 1.0093985 1.0053446 1.0175061 1.0134523
1.0093985 1.0134523 1.0093985 1.0012909 1.0093985 1.0093985 1.0012909 1.0093985
1.0093985 1.0053446 1.0093985 1.0093985 1.0012909 1.0053446 0.9972371 1.0012909
1.0053446 1.0053446 1.0093985 1.0012909 1.0093985 1.0053446 1.0012909 1.0053446
1.0053446 1.0175061 1.0134523 1.0012909 1.0134523 1.0134523 1.0134523 1.0012909
00000000: 8a83 8b8b 868b 858a 8485 8783 8489 8c8a
00000010: 8882 8887 8485 8687 8b83 8a86 8588 878b
00000020: 8487 8486 8883 888a 9080 8885 8486 8689
00000030: 8688 868a 8887 8489 8584 8885 8487 8a86
00000040: 8b8a 8987 8586 8986 8886 888a 8a88 8a85
00000050: 8988 8688 8388 8a86 8684 878d 8783 8786
00000060: 8987 8684 848a 8583 8887 8589 8285 8585
00000070: 8884 8686 8984 8587 858b 8385 8888 8789
00000080: 7c7a 7b7d 7c7c 7a7c 7a7e 7c7b 787c 7c7b
00000090: 7b7d 7c7c 7b7b 7a7b 7d7b 7c7a 7c7c 7a7d
000000a0: 7c7b 7c7c 7e78 7a7a 7f78 7e7c 7b7c 797a
000000b0: 7c7b 7a7f 7d7c 7b7d 7d7b 7c7c 7c7c 7b7b
000000c0: 7c7c 7c7c 7c7d 797b 7a7c 7d7d 7b7e 7d7a
000000d0: 7c7c 7c7e 797c 7d7b 7c79 7c7e 7c7b 7e7d
000000e0: 7c7d 7c7a 7c7c 7a7c 7c7b 7c7c 7a7b 797a
000000f0: 7b7b 7c7a 7c7b 7a7b 7b7e 7d7a 7d7d 7d7a

while/MatMul i1 [512, 512] scale=0.0016554451 zero_point=0
-0.0513188 0.052974243 0.0513188 -0.03807524 -0.008277225 -0.024831677 0.031453457 0.019865341
0.014899006 0.034764346 0.059596024 -0.03641979 0.06125147 -0.02317623 -0.009932671 0.039730683
0.04635246 0.029798012 0.06952869 0.07283958 -0.071184136 -0.041386127 -0.044697016 0.011588115
0.07615048 -0.041386127 0.07283958 0.019865341 -0.009932671 0.0844277 0.07780592 -0.03807524
0.054629687 0.04800791 0.034764346 -0.019865341 -0.049663354 0.0016554451 0.052974243 0.071184136
0.0513188 -0.013243561 -0.079461366 0.031453457 -0.06952869 0.008277225 -0.05628513 0.0662178
0.039730683 0.0016554451 0.059596024 -0.013243561 -0.024831677 -0.06456236 0.0016554451 0.059596024
-0.011588115 0.08111681 -0.059596024 0.008277225 0.08111681 0.028142566 0.0 -0.052974243
-0.01655445 0.018209895 -0.049663354 -0.034764346 0.10760393 0.08773859 0.07283958 0.01655445
0.09767126 0.014899006 -0.039730683 -0.026487121 -0.041386127 -0.041386127 -0.008277225 0.018209895
-0.07615048 -0.043041572 -0.034764346 0.029798012 -0.031453457 0.09104948 0.041386127 -0.057940576
0.057940576 -0.049663354 0.04800791 0.06125147 0.041386127 -0.014899006 0.09601582 0.049663354
0.0033108902 -0.0331089 -0.028142566 0.024831677 -0.06125147 0.024831677 0.02317623 -0.028142566
0.008277225 -0.06125147 -0.02317623 0.07283958 -0.011588115 0.008277225 0.0016554451 0.059596024
-0.0033108902 -0.04635246 0.06787325 0.018209895 0.029798012 0.10429304 0.059596024 0.0066217803
0.06290691 -0.049663354 -0.049663354 0.03641979 -0.029798012 0.054629687 0.082772255 0.0662178
0.041386127 0.0513188 0.117536604 -0.019865341 0.1026376 0.039730683 -0.024831677 0.034764346
0.04635246 0.1357465 -0.03641979 -0.06125147 -0.011588115 0.011588115 0.06125147 -0.031453457
0.0033108902 -0.11588115 0.0066217803 -0.07780592 0.1357465 0.014899006 -0.039730683 -0.0033108902
0.031453457 0.026487121 -0.0033108902 -0.014899006 0.13905738 -0.031453457 0.05628513 0.008277225
0.11422571 0.04635246 0.031453457 -0.043041572 0.06456236 0.079461366 0.08939403 0.039730683
-0.12912472 0.049663354 0.029798012 0.082772255 -0.041386127 0.0033108902 0.117536604 0.13905738
-0.019865341 0.09767126 -0.029798012 -0.019865341 -0.03807524 0.0016554451 -0.008277225 0.13409105
-0.026487121 0.0844277 -0.049663354 -0.031453457 0.011588115 0.044697016 0.028142566 0.018209895
0.117536604 -0.021520786 0.06290691 -0.018209895 0.11588115 0.06787325 0.0049663354 0.079461366
0.1357465 0.01655445 -0.041386127 0.01655445 0.04635246 0.105948485 0.04635246 0.11919205
0.0662178 0.019865341 0.031453457 0.07780592 -0.031453457 0.13905738 0.013243561 0.008277225
-0.04635246 0.02317623 0.09932671 0.0662178 0.04800791 0.09104948 0.0066217803 0.06456236
-0.018209895 -0.008277225 0.014899006 -0.0513188 0.08111681 -0.0049663354 0.029798012 -0.1539564
-0.013243561 0.0033108902 0.052974243 -0.09270492 0.059596024 0.07780592 -0.029798012 -0.019865341
0.052974243 0.044697016 0.08939403 0.024831677 0.07449503 -0.031453457 0.10760393 -0.024831677
0.09104948 0.024831677 -0.0033108902 -0.06290691 0.09436037 -0.031453457 0.014899006 0.049663354
00000000: e120 1fe9 fbf1 130c 0915 24ea 25f2 fa18
00000010: 1c12 2a2c d5e7 e507 2ee7 2c0c fa33 2fe9
00000020: 211d 15f4 e201 202b 1ff8 d013 d605 de28
00000030: 1801 24f8 f1d9 0124 f931 dc05 3111 00e0
00000040: f60b e2eb 4135 2c0a 3b09 e8f0 e7e7 fb0b
00000050: d2e6 eb12 ed37 19dd 23e2 1d25 19f7 3a1e
00000060: 02ec ef0f db0f 0eef 05db f22c f905 0124
00000070: fee4 290b 123f 2404 26e2 e216 ee21 3228
00000080: 191f 47f4 3e18 f115 1c52 eadb f907 25ed
00000090: 02ba 04d1 5209 e8fe 1310 fef7 54ed 2205
000000a0: 451c 13e6 2730 3618 b21e 1232 e702 4754
000000b0: f43b eef4 e901 fb51 f033 e2ed 071b 110b
000000c0: 47f3 26f5 4629 0330 520a e70a 1c40 1c48
000000d0: 280c 132f ed54 0805 e40e 3c28 1d37 0427
000000e0: f5fb 09e1 31fd 12a3 f802 20c8 242f eef4
000000f0: 201b 360f 2ded 41f1 370f feda 39ed 091e

while/MatMul_11 i1 [512, 128] scale=0.0017433595 zero_point=0
0.03486719 0.022663673 -0.052300785 0.040097266 -0.040097266 -0.081937894 -0.003486719 0.019176954
-0.050557427 -0.012203516 0.0017433595 -0.092398055 0.010460157 -0.006973438 -0.03312383 0.0017433595
-0.06101758 -0.083681256 -0.048814066 0.041840628 -0.040097266 0.003486719 -0.06101758 0.024407033
-0.015690235 -0.040097266 -0.10460157 -0.029637111 -0.0732211 0.0052300785 -0.0052300785 0.052300785
0.008716797 -0.08891133 -0.041840628 0.07670782 -0.017433595 0.0 -0.008716797 0.040097266
0.027893752 0.0017433595 0.08019453 0.020920314 -0.006973438 0.006973438 -0.003486719 -0.09065469
-0.04358399 -0.03661055 -0.040097266 -0.03312383 0.006973438 -0.03486719 0.013946876 0.008716797
0.022663673 0.020920314 0.003486719 0.008716797 -0.08716798 -0.013946876 -0.057530865 0.013946876
0.12377852 0.054044142 0.020920314 0.008716797 0.03312383 -0.03486719 0.03661055 0.0052300785
-0.0052300785 0.006973438 0.012203516 -0.054044142 -0.03661055 -0.081937894 0.022663673 -0.04358399
0.012203516 -0.11506173 -0.0052300785 0.052300785 -0.052300785 -0.008716797 -0.008716797 -0.019176954
-0.003486719 0.040097266 0.03486719 0.0052300785 0.08716798 -0.019176954 -0.059274223 0.052300785
0.012203516 0.003486719 -0.092398055 -0.048814066 -0.048814066 -0.06973438 -0.083681256 0.0052300785
0.08891133 -0.08019453 0.024407033 -0.008716797 0.09414141 -0.045327347 -0.024407033 -0.027893752
-0.04358399 -0.07845118 0.040097266 -0.0645043 -0.003486719 -0.012203516 0.019176954 0.04358399
-0.029637111 0.08542462 -0.024407033 -0.040097266 0.0052300785 -0.022663673 -0.013946876 0.045327347
-0.003486719 -0.006973438 0.09762813 0.08716798 0.116805084 -0.041840628 0.0645043 -0.092398055
-0.017433595 0.109831646 0.06973438 0.09937149 0.03312383 0.057530865 0.12726524 -0.015690235
-0.083681256 0.020920314 -0.003486719 0.015690235 -0.020920314 0.008716797 0.081937894 -0.083681256
-0.03661055 -0.057530865 -0.026150392 -0.03486719 0.055787504 -0.109831646 0.09588477 -0.06624766
-0.012203516 -0.055787504 0.08019453 -0.03312383 -0.013946876 -0.08891133 0.10634493 -0.015690235
0.020920314 0.024407033 -0.08542462 -0.020920314 0.013946876 0.013946876 -0.026150392 -0.020920314
0.07147774 -0.03661055 0.0 0.12029181 0.03312383 -0.0732211 -0.03138047 -0.109831646
0.041840628 -0.081937894 0.06624766 0.109831646 -0.017433595 -0.020920314 0.003486719 -0.047070704
-0.015690235 -0.03312383 -0.03138047 0.020920314 0.03661055 -0.06799102 -0.027893752 0.029637111
0.010460157 0.019176954 0.03486719 -0.04358399 0.027893752 0.010460157 0.0 0.013946876
-0.10285821 -0.057530865 -0.054044142 0.06276094 0.013946876 -0.045327347 -0.041840628 0.041840628
-0.1290086 0.06101758 -0.083681256 0.19002618 0.03312383 0.06799102 0.03138047 -0.09937149
0.059274223 0.057530865 0.048814066 0.010460157 0.0645043 -0.08019453 0.09762813 -0.10285821
-0.07147774 -0.041840628 -0.09065469 -0.015690235 0.024407033 -0.10460157 -0.0017433595 0.03486719
-0.019176954 0.0645043 -0.055787504 0.06276094 -0.06624766 0.026150392 -0.03312383 -0.003486719
-0.1464422 -0.045327347 0.024407033 -0.047070704 -0.047070704 0.017433595 -0.026150392 0.06101758
00000000: 140d e217 e9d1 fe0b e3f9 01cb 06fc ed01
00000010: ddd0 e418 e902 dd0e f7e9 c4ef d603 fd1e
00000020: 05cd e82c f600 fb17 1001 2e0c fc04 fecc
00000030: e7eb e9ed 04ec 0805 0d0c 0205 cef8 df08
00000040: 471f 0c05 13ec 1503 fd04 07e1 ebd1 0de7
00000050: 07be fd1e e2fb fbf5 fe17 1403 32f5 de1e
00000060: 0702 cbe4 e4d8 d003 33d2 0efb 36e6 f2f0
00000070: e7d3 17db fef9 0b19 ef31 f2e9 03f3 f81a
00000080: fefc 3832 43e8 25cb f63f 2839 1321 49f7
00000090: d00c fe09 f405 2fd0 ebdf f1ec 20c1 37da
000000a0: f9e0 2eed f8cd 3df7 0c0e cff4 0808 f1f4
000000b0: 29eb 0045 13d6 eec1 18d1 263f f6f4 02e5
000000c0: f7ed ee0c 15d9 f011 060b 14e7 1006 0008
000000d0: c5df e124 08e6 e818 b623 d06d 1327 12c7
000000e0: 2221 1c06 25d2 38c5 d7e8 ccf7 0ec4 ff14
000000f0: f525 e024 da0f edfe ace6 0ee5 e50a f123
