evaluation-code/output/models/tflite/ConvLSTM_one_conv_layer_lstm_128units_framesize_5_20230622-142058.tflite (tflite, 610752 bytes, 5 tensors)

sequential_23/dense_23/MatMul i1 [10, 128] scale=0.0024063028 zero_point=0
-0.1708475 -0.019250423 -0.108283624 0.0818143 -0.052938662 -0.093845814 -0.11550254 -0.103471026
0.1684412 -0.12031514 0.12753405 0.15159708 -0.055344965 -0.055344965 0.13715926 -0.055344965
0.052938662 0.23100507 -0.09625211 -0.026469331 -0.10106472 0.045719754 -0.0842206 -0.05775127
-0.29356894 0.052938662 0.14678447 -0.038500845 -0.09143951 0.12994036 0.117908835 0.23822398
0.05775127 -0.13715926 0.05775127 0.28635004 0.012031514 -0.093845814 -0.028875634 0.21656725
-0.06015757 0.16603489 0.07700169 -0.11550254 -0.19491053 0.026469331 -0.055344965 -0.1756601
0.15159708 0.21175465 -0.18769163 0.1612223 -0.06497018 0.12031514 0.1684412 -0.10106472
-0.12272145 -0.11550254 0.0024063028 -0.0048126057 -0.038500845 -0.11068993 -0.16603489 -0.04090715
0.01684412 -0.04331345 0.038500845 -0.21175465 -0.052938662 0.19972314 0.1636286 0.14678447
-0.055344965 0.19009793 -0.1732538 0.19972314 -0.024063028 0.13956556 0.038500845 -0.19972314
-0.12512775 0.03368824 -0.12753405 0.0 0.07459539 0.20934835 0.24303658 -0.13475296
-0.05775127 -0.12512775 0.11309624 0.22137986 -0.12994036 0.12272145 -0.12753405 0.11309624
0.0048126057 0.1612223 -0.20934835 0.09143951 -0.15881598 0.10106472 0.19731683 0.045719754
0.09865841 0.19491053 0.009625211 0.062563874 -0.052938662 0.16603489 0.021656726 0.11068993
-0.117908835 -0.19250423 0.105877325 0.15640968 0.18528531 0.24063028 -0.028875634 -0.18287902
0.13956556 0.12753405 0.11309624 -0.20453574 0.27191222 -0.19491053 0.13475296 0.1636286
-0.048126057 -0.06737648 0.052938662 0.2454429 0.0866269 -0.1612223 -0.1636286 0.20694205
0.1636286 0.0890332 0.1780664 -0.19731683 0.07940799 0.12512775 -0.093845814 0.2550681
0.0048126057 -0.024063028 0.12994036 0.2574744 -0.2550681 0.07459539 0.105877325 -0.036094543
-0.09143951 -0.038500845 0.15400338 -0.19491053 0.23100507 -0.062563874 0.23581767 -0.03368824
-0.052938662 0.15159708 -0.15159708 0.2526618 -0.04090715 0.1756601 0.031281937 -0.13234666
0.062563874 -0.19250423 -0.0842206 -0.019250423 -0.026469331 0.019250423 -0.0024063028 0.13715926
-0.1636286 -0.09625211 -0.14919078 0.031281937 0.15640968 0.27191222 0.15400338 0.15400338
-0.07459539 0.07459539 0.21656725 -0.30078787 0.019250423 -0.06015757 -0.12272145 -0.2478492
-0.036094543 0.19972314 0.14197187 0.0072189085 -0.0048126057 -0.13715926 0.05775127 -0.1732538
0.13475296 0.05775127 -0.2526618 0.105877325 -0.0072189085 -0.062563874 -0.23100507 -0.22137986
-0.05053236 -0.1612223 -0.14437817 0.14437817 0.019250423 -0.105877325 0.24303658 -0.22137986
-0.1684412 -0.09625211 0.22619247 -0.19491053 0.1636286 0.15881598 0.026469331 0.036094543
0.09143951 -0.038500845 -0.20694205 -0.03368824 0.19491053 -0.019250423 -0.19491053 0.03368824
-0.0818143 0.14197187 0.15400338 -0.26709962 -0.105877325 -0.10106472 0.09625211 -0.117908835
0.0890332 0.072189085 0.06978278 -0.14678447 -0.12031514 -0.048126057 -0.22378616 0.0866269
-0.26469332 0.04331345 -0.19491053 0.26469332 0.14197187 0.12031514 0.13234666 0.04331345
00000000: b9f8 d322 ead9 d0d5 46ce 353f e9e9 39e9
00000010: 1660 d8f5 d613 dde8 8616 3df0 da36 3163
00000020: 18c7 1877 05d9 f45a e745 20d0 af0b e9b7
00000030: 3f58 b243 e532 46d6 cdd0 01fe f0d2 bbef
00000040: 07ee 10a8 ea53 443d e94f b853 f63a 10ad
00000050: cc0e cb00 1f57 65c8 e8cc 2f5c ca33 cb2f
00000060: 0243 a926 be2a 5213 2951 041a ea45 092e
00000070: cfb0 2c41 4d64 f4b4 3a35 2fab 71af 3844
00000080: ece4 1666 24bd bc56 4425 4aae 2134 d96a
00000090: 02f6 366b 961f 2cf1 daf0 40af 60e6 62f2
000000a0: ea3f c169 ef49 0dc9 1ab0 ddf8 f508 ff39
000000b0: bcd8 c20d 4171 4040 e11f 5a83 08e7 cd99
000000c0: f153 3b03 fec7 18b8 3818 972c fde6 a0a4
000000d0: ebbd c43c 08d4 65a4 bad8 5eaf 4442 0b0f
000000e0: 26f0 aaf2 51f8 af0e de3b 4091 d4d6 28cf
000000f0: 251e 1dc3 ceec a324 9212 af6e 3b32 3712

sequential_23/time_distributed_68/conv2d_36/Conv2D i1 [128, 2, 2, 1]
-125 -112 -127 -22 -127 -34 -38 85
127 -43 22 108 -105 -127 16 -100
-17 127 -42 125 -32 127 -123 -13
-11 -127 103 1 -68 -73 -14 127
82 -20 127 -122 37 101 -39 127
-127 113 122 42 94 38 67 127
-94 -127 -14 -17 -9 -127 -43 102
58 -127 -117 -106 5 108 127 4
-9 -102 -127 -98 127 76 -110 2
-94 46 47 127 87 9 -127 -121
-95 -127 4 40 -81 -127 12 21
-127 52 84 -95 92 -114 127 -122
71 85 52 -127 7 -61 127 -97
24 127 64 86 -91 127 -66 29
-50 -59 -127 -110 97 -127 40 -52
125 89 127 -75 28 127 102 -69
-127 -122 -126 -34 89 -63 -31 127
56 127 -44 -4 -65 -79 103 127
-127 -46 4 -115 127 -71 41 16
-12 127 97 7 -127 -75 -77 0
47 44 85 -127 127 -61 -37 -115
-120 -119 -12 127 111 -127 83 -82
122 127 48 -33 -49 83 78 127
-110 -127 -69 23 80 2 -8 127
-52 68 96 -127 1 34 -35 -127
-127 49 33 -15 -28 -127 -100 -23
-127 60 62 -42 -44 -127 -63 59
-48 -4 -89 127 -1 -120 -74 -127
127 -17 55 -49 95 -56 46 -127
-13 127 -56 67 127 -81 48 55
-127 64 63 124 54 43 32 127
127 30 115 -37 78 127 -82 101
00000000: 8390 81ea 81de da55 7fd5 166c 9781 109c
00000010: ef7f d67d e07f 85f3 f581 6701 bcb7 f27f
00000020: 52ec 7f86 2565 d97f 8171 7a2a 5e26 437f
00000030: a281 f2ef f781 d566 3a81 8b96 056c 7f04
00000040: f79a 819e 7f4c 9202 a22e 2f7f 5709 8187
00000050: a181 0428 af81 0c15 8134 54a1 5c8e 7f86
00000060: 4755 3481 07c3 7f9f 187f 4056 a57f be1d
00000070: cec5 8192 6181 28cc 7d59 7fb5 1c7f 66bb
00000080: 8186 82de 59c1 e17f 387f d4fc bfb1 677f
00000090: 81d2 048d 7fb9 2910 f47f 6107 81b5 b300
000000a0: 2f2c 5581 7fc3 db8d 8889 f47f 6f81 53ae
000000b0: 7a7f 30df cf53 4e7f 9281 bb17 5002 f87f
000000c0: cc44 6081 0122 dd81 8131 21f1 e481 9ce9
000000d0: 813c 3ed6 d481 c13b d0fc a77f ff88 b681
000000e0: 7fef 37cf 5fc8 2e81 f37f c843 7faf 3037
000000f0: 8140 3f7c 362b 207f 7f1e 73db 4e7f ae65

sequential_23/lstm_18/Read_2/ReadVariableOp1 i1 [512] scale=0.0040919012 zero_point=-125
0.03273521 0.03682711 0.0040919012 0.0040919012 0.020459507 0.020459507 0.016367605 0.024551407
0.012275703 0.024551407 0.024551407 0.012275703 0.020459507 0.028643308 0.024551407 0.016367605
0.045010913 0.020459507 0.03273521 0.0040919012 0.020459507 0.016367605 0.012275703 0.020459507
0.020459507 0.028643308 0.028643308 0.024551407 0.024551407 0.024551407 0.028643308 0.016367605
0.012275703 0.020459507 0.016367605 0.024551407 0.0081838025 0.0081838025 0.012275703 0.024551407
0.028643308 0.012275703 0.012275703 0.0040919012 0.024551407 0.020459507 0.03682711 0.0040919012
0.03682711 0.03682711 0.028643308 0.016367605 0.020459507 0.0081838025 0.0081838025 0.020459507
0.0081838025 0.03273521 0.020459507 0.012275703 0.0081838025 0.020459507 0.024551407 0.024551407
0.024551407 0.028643308 0.024551407 0.0040919012 0.012275703 0.020459507 0.020459507 0.028643308
0.020459507 0.028643308 0.0040919012 0.024551407 0.016367605 0.0081838025 0.020459507 0.0081838025
0.028643308 0.016367605 0.024551407 0.0 0.024551407 0.020459507 0.016367605 0.040919013
0.028643308 0.03273521 0.016367605 0.012275703 0.012275703 0.028643308 0.012275703 0.020459507
0.028643308 0.012275703 0.03682711 0.016367605 0.0040919012 0.012275703 0.024551407 0.0081838025
0.020459507 0.020459507 0.020459507 0.020459507 0.0081838025 0.0040919012 0.020459507 0.020459507
0.012275703 0.024551407 0.016367605 0.020459507 0.020459507 0.028643308 0.024551407 0.012275703
0.016367605 0.020459507 0.012275703 0.012275703 0.024551407 0.016367605 0.016367605 0.024551407
1.0147915 1.0066077 1.0066077 1.0066077 0.994332 1.0066077 0.9984239 1.0106996
1.0066077 1.0147915 1.0147915 1.0066077 1.0188835 1.0188835 1.0066077 1.0066077
1.0311592 1.0147915 1.0106996 1.0025158 1.0229753 1.0106996 1.0106996 1.0147915
0.994332 1.0066077 1.0066077 1.0147915 1.0188835 1.0066077 1.0025158 0.994332
1.0066077 1.0106996 1.0066077 1.0025158 1.0106996 1.0066077 1.0229753 1.0066077
1.0188835 1.0188835 1.0066077 1.0106996 1.0066077 1.0106996 1.0025158 0.994332
1.0270672 1.0066077 1.0106996 0.9984239 1.0106996 1.0066077 1.0066077 1.0025158
0.9984239 1.0188835 1.0106996 1.0066077 1.0066077 1.0147915 1.0066077 1.0106996
1.0025158 1.0147915 1.0106996 0.9984239 1.0188835 1.0025158 1.0066077 1.0147915
1.0066077 1.0106996 0.9984239 1.0025158 1.0066077 0.9984239 1.0066077 1.0066077
1.0106996 1.0066077 1.0188835 1.0025158 1.0188835 1.0106996 1.0066077 1.0147915
1.0066077 1.0106996 1.0066077 1.0066077 1.0066077 1.0106996 1.0106996 1.0106996
1.0188835 1.0025158 1.0188835 1.0025158 1.0066077 0.9984239 1.0106996 1.0025158
1.0025158 0.9902401 1.0147915 1.0066077 1.0025158 1.0025158 1.0147915 1.0106996
1.0229753 0.9984239 1.0025158 1.0025158 1.0106996 1.0147915 1.0147915 1.0188835
1.0188835 1.0106996 1.0188835 1.0188835 1.0025158 1.0106996 1.0025158 1.0066077
00000000: 8b8c 8484 8888 8789 8689 8986 888a 8987
00000010: 8e88 8b84 8887 8688 888a 8a89 8989 8a87
00000020: 8688 8789 8585 8689 8a86 8684 8988 8c84
00000030: 8c8c 8a87 8885 8588 858b 8886 8588 8989
00000040: 898a 8984 8688 888a 888a 8489 8785 8885
00000050: 8a87 8983 8988 878d 8a8b 8786 868a 8688
00000060: 8a86 8c87 8486 8985 8888 8888 8584 8888
00000070: 8689 8788 888a 8986 8788 8686 8987 8789
00000080: 7b79 7979 7679 777a 797b 7b79 7c7c 7979
00000090: 7f7b 7a78 7d7a 7a7b 7679 797b 7c79 7876
000000a0: 797a 7978 7a79 7d79 7c7c 797a 797a 7876
000000b0: 7e79 7a77 7a79 7978 777c 7a79 797b 797a
000000c0: 787b 7a77 7c78 797b 797a 7778 7977 7979
000000d0: 7a79 7c78 7c7a 797b 797a 7979 797a 7a7a
000000e0: 7c78 7c78 7977 7a78 7875 7b79 7878 7b7a
000000f0: 7d77 7878 7a7b 7b7c 7c7a 7c7c 787a 7879

while/MatMul i1 [512, 1024] scale=0.0017502652 zero_point=0
0.05075769 0.061259285 0.063009545 0.07001061 -0.012251857 0.0017502652 -0.0035005305 -0.0105015915
0.077011675 0.08751326 0.008751326 0.024503713 0.057758752 0.09276406 0.03675557 -0.0035005305
0.029754508 0.0017502652 0.05250796 0.04375663 0.08401273 -0.017502652 0.04375663 0.0052507957
0.015752386 0.015752386 0.057758752 -0.014002122 0.047257163 -0.054258224 0.08401273 0.007001061
-0.031504773 -0.024503713 0.05075769 -0.02625398 -0.059509017 -0.014002122 0.02625398 -0.047257163
0.077011675 -0.015752386 0.05250796 -0.047257163 0.0052507957 0.049007427 -0.03325504 0.09276406
-0.056008488 0.05250796 0.0402561 -0.059509017 0.008751326 -0.0035005305 0.015752386 -0.042006366
0.014002122 -0.03325504 0.07526141 0.082262464 0.059509017 0.0017502652 0.028004244 0.05075769
0.077011675 -0.021003183 0.06651008 0.015752386 0.021003183 0.021003183 -0.022753447 0.0035005305
0.059509017 0.0 0.047257163 0.0052507957 0.0017502652 -0.022753447 0.05075769 0.07176088
-0.045506895 -0.019252919 0.028004244 0.007001061 0.049007427 0.07351114 0.077011675 0.047257163
0.017502652 0.0805122 -0.038505837 -0.007001061 0.057758752 0.022753447 0.063009545 0.0
-0.035005305 0.0402561 0.082262464 -0.0017502652 -0.04375663 0.07001061 0.08751326 0.098014854
0.0 0.07001061 0.0805122 0.047257163 0.0105015915 -0.042006366 -0.019252919 0.07351114
0.049007427 -0.035005305 0.02625398 0.09276406 0.0017502652 -0.035005305 -0.0052507957 -0.022753447
0.08401273 -0.021003183 -0.056008488 -0.017502652 0.0017502652 -0.008751326 -0.024503713 0.007001061
-0.05250796 0.0017502652 0.09276406 0.10326565 0.059509017 0.0052507957 0.056008488 -0.035005305
0.054258224 0.07351114 0.02625398 -0.02625398 -0.04375663 0.08751326 0.029754508 0.045506895
0.056008488 0.045506895 0.038505837 0.0052507957 0.015752386 0.0402561 -0.024503713 0.008751326
0.07001061 0.0035005305 0.038505837 -0.05075769 -0.057758752 0.0402561 0.07526141 0.015752386
-0.0105015915 0.056008488 0.0402561 -0.0052507957 0.035005305 0.012251857 -0.029754508 0.017502652
0.015752386 0.05075769 -0.042006366 -0.0052507957 -0.007001061 0.07351114 -0.045506895 0.0052507957
0.061259285 -0.05075769 -0.042006366 0.0052507957 0.008751326 0.03675557 -0.061259285 0.0017502652
0.0402561 0.02625398 0.07526141 0.019252919 -0.022753447 0.047257163 0.0052507957 0.0105015915
0.06826034 0.07176088 0.07526141 0.029754508 -0.022753447 -0.024503713 -0.015752386 0.031504773
-0.019252919 0.05075769 0.0105015915 -0.014002122 0.08926353 0.05075769 -0.04375663 0.061259285
-0.014002122 0.0035005305 0.038505837 -0.0035005305 -0.0035005305 0.019252919 -0.028004244 0.08751326
-0.017502652 0.09276406 0.059509017 0.008751326 0.022753447 0.019252919 0.03675557 0.0402561
0.063009545 -0.028004244 0.038505837 0.059509017 0.07351114 -0.0402561 0.0805122 0.007001061
0.04375663 0.017502652 0.022753447 0.049007427 0.012251857 0.045506895 0.096264586 0.022753447
0.07526141 0.014002122 0.024503713 0.021003183 0.06826034 0.06651008 -0.03675557 0.09976512
0.07001061 -0.0017502652 0.017502652 0.0017502652 0.05075769 0.014002122 -0.059509017 0.015752386
00000000: 1d23 2428 f901 fefa 2c32 050e 2135 15fe
00000010: 1101 1e19 30f6 1903 0909 21f8 1be1 3004
00000020: eef2 1df1 def8 0fe5 2cf7 1ee5 031c ed35
00000030: e01e 17de 05fe 09e8 08ed 2b2f 2201 101d
00000040: 2cf4 2609 0c0c f302 2200 1b03 01f3 1d29
00000050: e6f5 1004 1c2a 2c1b 0a2e eafc 210d 2400
00000060: ec17 2fff e728 3238 0028 2e1b 06e8 f52a
00000070: 1cec 0f35 01ec fdf3 30f4 e0f6 01fb f204
00000080: e201 353b 2203 20ec 1f2a 0ff1 e732 111a
00000090: 201a 1603 0917 f205 2802 16e3 df17 2b09
000000a0: fa20 17fd 1407 ef0a 091d e8fd fc2a e603
000000b0: 23e3 e803 0515 dd01 170f 2b0b f31b 0306
000000c0: 2729 2b11 f3f2 f712 f51d 06f8 331d e723
000000d0: f802 16fe fe0b f032 f635 2205 0d0b 1517
000000e0: 24f0 1622 2ae9 2e04 190a 0d1c 071a 370d
000000f0: 2b08 0e0c 2726 eb39 28ff 0a01 1d08 de09

while/MatMul_11 i1 [512, 128] scale=0.0015916787 zero_point=0
-0.0031833574 0.07640058 -0.028650217 -0.02546686 0.02387518 0.011141751 -0.02387518 -0.007958394
-0.06525883 -0.07321722 -0.06048379 -0.007958394 -0.052525397 -0.04775036 -0.014325108 -0.01273343
0.058892112 0.004775036 0.04775036 0.02546686 0.0 0.0 0.027058538 -0.020691823
0.09072569 -0.017508466 0.042975325 0.022283502 0.017508466 0.02546686 0.04775036 0.022283502
-0.006366715 -0.117784224 0.017508466 0.100275755 0.015916787 0.052525397 0.06844218 0.12574261
0.009550072 -0.039791968 -0.04934204 -0.042975325 0.0015916787 0.014325108 0.006366715 0.039791968
0.02387518 -0.04775036 -0.044567004 -0.030241895 0.014325108 -0.08117561 0.033425253 -0.087542325
-0.006366715 -0.02546686 0.011141751 0.017508466 -0.0031833574 0.039791968 -0.015916787 -0.019100145
0.06048379 -0.01273343 -0.100275755 -0.03501693 -0.08595065 -0.014325108 -0.028650217 -0.011141751
-0.100275755 0.10664247 -0.017508466 -0.015916787 -0.02387518 0.011141751 0.042975325 -0.07799226
0.03820029 0.0015916787 -0.028650217 0.011141751 0.055708755 -0.052525397 0.06207547 -0.097092405
0.06844218 -0.057300434 0.052525397 0.039791968 -0.027058538 0.05093372 -0.11460087 -0.041383646
0.033425253 -0.041383646 -0.06207547 0.02546686 -0.066850506 -0.033425253 0.06844218 0.08913401
0.09550072 -0.09390904 -0.006366715 -0.0015916787 0.014325108 0.028650217 -0.066850506 -0.020691823
-0.019100145 0.0 0.028650217 0.071625546 0.079583935 -0.009550072 -0.05093372 -0.06048379
0.09390904 0.09868408 0.097092405 -0.074808896 -0.0031833574 -0.033425253 0.022283502 -0.011141751
0.14006773 0.03660861 0.074808896 0.06525883 -0.031833574 -0.04934204 0.017508466 0.07003386
-0.019100145 0.07321722 -0.08117561 -0.031833574 -0.041383646 0.0015916787 -0.022283502 0.014325108
-0.03660861 -0.06844218 0.06207547 0.046158683 -0.02387518 0.04934204 -0.052525397 0.03820029
0.07640058 0.052525397 -0.046158683 0.07003386 -0.019100145 -0.087542325 0.06207547 0.006366715
-0.109825835 0.071625546 -0.028650217 -0.058892112 -0.08117561 0.006366715 0.12574261 0.054117076
-0.019100145 0.030241895 -0.01273343 -0.1273343 -0.071625546 -0.02546686 -0.022283502 -0.07640058
0.0031833574 -0.084358975 0.055708755 -0.07003386 -0.12096758 -0.031833574 0.031833574 -0.022283502
-0.052525397 -0.014325108 -0.057300434 -0.039791968 0.07003386 0.058892112 -0.0015916787 -0.028650217
0.044567004 -0.019100145 -0.055708755 -0.009550072 -0.031833574 -0.006366715 -0.006366715 -0.11619255
-0.01273343 0.017508466 0.027058538 -0.10186744 -0.009550072 0.011141751 -0.004775036 0.054117076
-0.019100145 -0.0015916787 0.02546686 -0.100275755 -0.01273343 -0.105050795 -0.017508466 0.03660861
0.071625546 0.02546686 0.06366715 -0.07799226 0.0 0.03501693 -0.017508466 0.022283502
-0.007958394 -0.022283502 -0.06207547 -0.044567004 -0.01273343 0.1273343 -0.054117076 0.08117561
-0.031833574 -0.017508466 -0.071625546 -0.122559264 -0.0015916787 0.027058538 -0.02387518 0.02387518
0.033425253 -0.006366715 -0.044567004 0.058892112 -0.079583935 -0.054117076 0.06366715 -0.10345912
0.12096758 0.07640058 -0.033425253 0.039791968 -0.04934204 -0.006366715 -0.04775036 -0.020691823
00000000: fe30 eef0 0f07 f1fb d7d2 dafb dfe2 f7f8
00000010: 2503 1e10 0000 11f3 39f5 1b0e 0b10 1e0e
00000020: fcb6 0b3f 0a21 2b4f 06e7 e1e5 0109 0419
00000030: 0fe2 e4ed 09cd 15c9 fcf0 070b fe19 f6f4
00000040: 26f8 c1ea caf7 eef9 c143 f5f6 f107 1bcf
00000050: 1801 ee07 23df 27c3 2bdc 2119 ef20 b8e6
00000060: 15e6 d910 d6eb 2b38 3cc5 fcff 0912 d6f3
00000070: f400 122d 32fa e0da 3b3e 3dd1 feeb 0ef9
00000080: 5817 2f29 ece1 0b2c f42e cdec e601 f209
00000090: e9d5 271d f11f df18 3021 e32c f4c9 2704
000000a0: bb2d eedb cd04 4f22 f413 f8b0 d3f0 f2d0
000000b0: 02cb 23d4 b4ec 14f2 dff7 dce7 2c25 ffee
000000c0: 1cf4 ddfa ecfc fcb7 f80b 11c0 fa07 fd22
000000d0: f4ff 10c1 f8be f517 2d10 28cf 0016 f50e
000000e0: fbf2 d9e4 f850 de33 ecf5 d3b3 ff11 f10f
000000f0: 15fc e425 cede 28bf 4c30 eb19 e1fc e2f3
