evaluation-code/output/models/tflite/ConvLSTM_with_pooling_small_batches_20230621-103811.tflite (tflite, 218104 bytes, 5 tensors)

sequential_2/dense_2/MatMul i1 [10, 128] scale=0.0021879326 zero_point=0
000000 4f 33 57 ac e3 23 c7 f3 2c a3 ad 38 a2 ba d4 1a
       0.17284667 0.11158457 0.19035013 -0.18378633 -0.063450046 0.07657764 -0.12471216 -0.028443124 0.096269034 -0.20347773 -0.18159841 0.122524224 -0.20566566 -0.15315528 -0.096269034 0.05688625
000010 3d f7 4c 0e 19 b8 03 de 49 eb f1 2d 13 d9 36 ee
       0.13346389 -0.019691393 0.16628288 0.030631056 0.054698315 -0.15753114 0.0065637976 -0.07438971 0.15971908 -0.045946583 -0.032818988 0.098456964 0.04157072 -0.08532937 0.118148364 -0.039382786
000020 24 37 22 e0 bd 26 f6 ca 0a 19 30 ce b8 13 48 d0
       0.07876557 0.120336294 0.07438971 -0.07001384 -0.14659148 0.08314144 -0.021879327 -0.118148364 0.021879327 0.054698315 0.10502076 -0.10939663 -0.15753114 0.04157072 0.15753114 -0.10502076
000030 d6 3e d8 c7 09 f9 17 27 07 ec 62 0f c5 2b 3a 44
       -0.09189317 0.13565183 -0.087517306 -0.12471216 0.019691393 -0.015315528 0.05032245 0.08532937 0.015315528 -0.043758653 0.2144174 0.032818988 -0.12908803 0.094081104 0.12690009 0.14877942
000040 56 fb 49 b5 f8 c2 42 c3 36 16 a0 60 b6 54 b9 5a
       0.18816221 -0.010939663 0.15971908 -0.16409494 -0.01750346 -0.13565183 0.14440355 -0.13346389 0.118148364 0.048134517 -0.21004152 0.21004152 -0.16190702 0.18378633 -0.15534322 0.19691393
000050 23 ac 2f dc 05 f3 f9 34 a3 e3 38 c0 54 22 20 ad
       0.07657764 -0.18378633 0.10283283 -0.07876557 0.010939663 -0.028443124 -0.015315528 0.1137725 -0.20347773 -0.063450046 0.122524224 -0.14002769 0.18378633 0.07438971 0.07001384 -0.18159841
000060 f0 25 e2 4d c4 1c b2 f5 13 ed 0b 51 07 c4 35 49
       -0.03500692 0.08095351 -0.065637976 0.16847081 -0.13127595 0.061262112 -0.17065874 -0.024067258 0.04157072 -0.04157072 0.024067258 0.17722254 0.015315528 -0.13127595 0.11596043 0.15971908
000070 c4 2e 08 65 4a 12 e0 cd 24 1a 54 d9 3c 46 21 d3
       -0.13127595 0.1006449 0.01750346 0.2209812 0.16190702 0.039382786 -0.07001384 -0.11158457 0.07876557 0.05688625 0.18378633 -0.08532937 0.13127595 0.15315528 0.07220177 -0.098456964
000080 74 b9 ea 6f 46 ad 63 fc 9a 49 77 a2 88 af db ba
       0.25380018 -0.15534322 -0.048134517 0.24286053 0.15315528 -0.18159841 0.21660534 -0.00875173 -0.22316913 0.15971908 0.26036397 -0.20566566 -0.2625519 -0.17722254 -0.08095351 -0.15315528
000090 c0 32 1b 59 16 fa c8 bf 55 cb 6a 2a 67 30 fa 9e
       -0.14002769 0.10939663 0.059074182 0.194726 0.048134517 -0.013127595 -0.122524224 -0.14221562 0.18597427 -0.11596043 0.23192085 0.09189317 0.22535706 0.10502076 -0.013127595 -0.2144174
0000a0 66 ac 62 57 35 3b 44 08 65 c6 44 de c4 17 5a 26
       0.22316913 -0.18378633 0.2144174 0.19035013 0.11596043 0.12908803 0.14877942 0.01750346 0.2209812 -0.12690009 0.14877942 -0.07438971 -0.13127595 0.05032245 0.19691393 0.08314144
0000b0 e3 25 4f ec b1 fa 48 23 55 58 c2 45 b4 be 35 0b
       -0.063450046 0.08095351 0.17284667 -0.043758653 -0.17284667 -0.013127595 0.15753114 0.07657764 0.18597427 0.19253807 -0.13565183 0.15096734 -0.16628288 -0.14440355 0.11596043 0.024067258
0000c0 1d 62 cc ce bd ab cb 1c 10 16 f8 9e 86 27 4c 95
       0.063450046 0.2144174 -0.1137725 -0.10939663 -0.14659148 -0.18597427 -0.11596043 0.061262112 0.03500692 0.048134517 -0.01750346 -0.2144174 -0.26692778 0.08532937 0.16628288 -0.23410879
0000d0 7f 30 5f f5 b5 2e d8 1b 1d 4e c0 fb aa 4d f6 c5
       0.27786744 0.10502076 0.2078536 -0.024067258 -0.16409494 0.1006449 -0.087517306 0.059074182 0.063450046 0.17065874 -0.14002769 -0.010939663 -0.18816221 0.16847081 -0.021879327 -0.12908803
0000e0 60 5d 97 b7 d1 ad 1c 5f cd a9 c0 b2 99 22 6d eb
       0.21004152 0.20347773 -0.22973293 -0.15971908 -0.10283283 -0.18159841 0.061262112 0.2078536 -0.11158457 -0.19035013 -0.14002769 -0.17065874 -0.22535706 0.07438971 0.23848465 -0.045946583
0000f0 27 29 86 e9 c2 1b 76 b3 e8 21 d8 e2 50 ff c2 26
       0.08532937 0.089705236 -0.26692778 -0.05032245 -0.13565183 0.059074182 0.25817606 -0.16847081 -0.05251038 0.07220177 -0.087517306 -0.065637976 0.17503461 -0.0021879326 -0.13565183 0.08314144

sequential_2/time_distributed_7/conv2d_2/Conv2D i1 [128, 2, 2, 1]
000000 81 77 9f 89 cf bd c6 7f 00 34 4c 7f f6 d1 81 7a
       -127 119 -97 -119 -49 -67 -58 127 0 52 76 127 -10 -47 -127 122
000010 81 39 7e 7a 7f ad fd b8 45 bb 81 b2 3b d5 81 cd
       -127 57 126 122 127 -83 -3 -72 69 -69 -127 -78 59 -43 -127 -51
000020 b2 7f 9b fb a3 7f c8 f2 eb 28 74 81 ca 15 7f 8a
       -78 127 -101 -5 -93 127 -56 -14 -21 40 116 -127 -54 21 127 -118
000030 09 f3 6a 81 7f 30 24 b6 6d 81 5c af b9 7b 4d 81
       9 -13 106 -127 127 48 36 -74 109 -127 92 -81 -71 123 77 -127
000040 f5 7f c8 ff 1d 7f 41 10 ae d9 f7 7f 8d f7 81 d5
       -11 127 -56 -1 29 127 65 16 -82 -39 -9 127 -115 -9 -127 -43
000050 26 c5 73 7f 7f ab 36 b3 c5 91 81 dd 6c 6b 7e 81
       38 -59 115 127 127 -85 54 -77 -59 -111 -127 -35 108 107 126 -127
000060 62 7f 12 5e 9a 7f a6 0f a5 81 e2 63 60 92 fa 7f
       98 127 18 94 -102 127 -90 15 -91 -127 -30 99 96 -110 -6 127
000070 c3 ee 7f a9 e0 ee 81 d2 4a 56 56 81 5a 81 90 61
       -61 -18 127 -87 -32 -18 -127 -46 74 86 86 -127 90 -127 -112 97
000080 e3 83 7f 95 81 0c 62 bc 05 62 a9 7f c7 7f fe 82
       -29 -125 127 -107 -127 12 98 -68 5 98 -87 127 -57 127 -2 -126
000090 4d ed 81 56 23 cf 44 7f 7f b6 76 c4 fa ae 7f af
       77 -19 -127 86 35 -49 68 127 127 -74 118 -60 -6 -82 127 -81
0000a0 12 f8 72 81 06 a3 f8 7f 59 7f b6 40 ca 84 81 a4
       18 -8 114 -127 6 -93 -8 127 89 127 -74 64 -54 -124 -127 -92
0000b0 2f 4a 81 19 b7 f5 b9 7f 7f 8e b4 36 66 9c 7f 25
       47 74 -127 25 -73 -11 -71 127 127 -114 -76 54 102 -100 127 37
0000c0 81 19 c8 d1 3b 01 d9 7f a2 85 7f 21 81 a6 89 9e
       -127 25 -56 -47 59 1 -39 127 -94 -123 127 33 -127 -90 -119 -98
0000d0 0d 81 35 37 bc 88 81 43 81 57 a9 6b 40 81 66 e6
       13 -127 53 55 -68 -120 -127 67 -127 87 -87 107 64 -127 102 -26
0000e0 6f 81 6b 8e 4b 5a 81 f8 6c 7f d6 89 6f 99 cb 81
       111 -127 107 -114 75 90 -127 -8 108 127 -42 -119 111 -103 -53 -127
0000f0 f8 b2 7f 56 b0 d8 c4 7f de 7f a4 f2 30 7b db 81
       -8 -78 127 86 -80 -40 -60 127 -34 127 -92 -14 48 123 -37 -127

sequential_2/lstm_2/Read_2/ReadVariableOp1 i1 [512] scale=0.0041239285 zero_point=-124
000000 84 83 88 86 86 88 89 85 88 84 85 89 87 8b 85 88
       0.0 -0.0041239285 0.016495714 0.008247857 0.008247857 0.016495714 0.020619642 0.0041239285 0.016495714 0.0 0.0041239285 0.020619642 0.012371786 0.0288675 0.0041239285 0.016495714
000010 8b 8a 84 84 88 87 88 84 85 87 87 86 88 84 85 84
       0.0288675 0.024743572 0.0 0.0 0.016495714 0.012371786 0.016495714 0.0 0.0041239285 0.012371786 0.012371786 0.008247857 0.016495714 0.0 0.0041239285 0.0
000020 87 87 85 87 89 88 88 8a 87 87 87 85 87 88 87 89
       0.012371786 0.012371786 0.0041239285 0.012371786 0.020619642 0.016495714 0.016495714 0.024743572 0.012371786 0.012371786 0.012371786 0.0041239285 0.012371786 0.016495714 0.012371786 0.020619642
000030 86 88 89 89 89 84 88 86 88 88 8a 86 88 87 85 86
       0.008247857 0.016495714 0.020619642 0.020619642 0.020619642 0.0 0.016495714 0.008247857 0.016495714 0.016495714 0.024743572 0.008247857 0.016495714 0.012371786 0.0041239285 0.008247857
000040 86 85 88 86 85 86 89 89 83 88 88 87 86 8a 86 86
       0.008247857 0.0041239285 0.016495714 0.008247857 0.0041239285 0.008247857 0.020619642 0.020619642 -0.0041239285 0.016495714 0.016495714 0.012371786 0.008247857 0.024743572 0.008247857 0.008247857
000050 8a 86 89 8d 85 86 83 81 83 84 84 83 8c 8b 81 87
       0.024743572 0.008247857 0.020619642 0.037115358 0.0041239285 0.008247857 -0.0041239285 -0.012371786 -0.0041239285 0.0 0.0 -0.0041239285 0.032991428 0.0288675 -0.012371786 0.012371786
000060 89 88 87 89 85 88 87 8a 89 89 87 88 8e 87 84 87
       0.020619642 0.016495714 0.012371786 0.020619642 0.0041239285 0.016495714 0.012371786 0.024743572 0.020619642 0.020619642 0.012371786 0.016495714 0.041239284 0.012371786 0.0 0.012371786
000070 86 87 88 86 8a 84 85 89 84 85 89 86 8a 89 86 87
       0.008247857 0.012371786 0.016495714 0.008247857 0.024743572 0.0 0.0041239285 0.020619642 0.0 0.0041239285 0.020619642 0.008247857 0.024743572 0.020619642 0.008247857 0.012371786
000080 76 74 78 76 79 7a 79 79 7a 77 78 7a 79 79 76 79
       0.99799067 0.9897428 1.0062386 0.99799067 1.0103625 1.0144864 1.0103625 1.0103625 1.0144864 1.0021147 1.0062386 1.0144864 1.0103625 1.0103625 0.99799067 1.0103625
000090 7f 7c 77 76 7a 78 7a 76 77 7a 79 78 79 77 78 79
       1.0351061 1.0227343 1.0021147 0.99799067 1.0144864 1.0062386 1.0144864 0.99799067 1.0021147 1.0144864 1.0103625 1.0062386 1.0103625 1.0021147 1.0062386 1.0103625
0000a0 78 79 77 7a 7d 78 7a 79 7b 78 78 7a 79 78 79 7e
       1.0062386 1.0103625 1.0021147 1.0144864 1.0268582 1.0062386 1.0144864 1.0103625 1.0186104 1.0062386 1.0062386 1.0144864 1.0103625 1.0062386 1.0103625 1.0309821
0000b0 77 78 78 7a 7d 78 7b 79 7c 7a 7b 79 7a 7b 78 7b
       1.0021147 1.0062386 1.0062386 1.0144864 1.0268582 1.0062386 1.0186104 1.0103625 1.0227343 1.0144864 1.0186104 1.0103625 1.0144864 1.0186104 1.0062386 1.0186104
0000c0 77 78 7a 76 76 7b 7b 7c 75 79 7c 78 7a 7c 79 78
       1.0021147 1.0062386 1.0144864 0.99799067 0.99799067 1.0186104 1.0186104 1.0227343 0.99386674 1.0103625 1.0227343 1.0062386 1.0144864 1.0227343 1.0103625 1.0062386
0000d0 7a 78 7b 7c 78 7a 77 74 76 75 78 76 7f 7b 74 79
       1.0144864 1.0062386 1.0186104 1.0227343 1.0062386 1.0144864 1.0021147 0.9897428 0.99799067 0.99386674 1.0062386 0.99799067 1.0351061 1.0186104 0.9897428 1.0103625
0000e0 7b 7c 79 7a 77 78 78 79 7b 79 7b 78 7e 79 77 79
       1.0186104 1.0227343 1.0103625 1.0144864 1.0021147 1.0062386 1.0062386 1.0103625 1.0186104 1.0103625 1.0186104 1.0062386 1.0309821 1.0103625 1.0021147 1.0103625
0000f0 79 78 78 78 7c 77 78 7c 78 78 78 78 7c 7c 77 78
       1.0103625 1.0062386 1.0062386 1.0062386 1.0227343 1.0021147 1.0062386 1.0227343 1.0062386 1.0062386 1.0062386 1.0062386 1.0227343 1.0227343 1.0021147 1.0062386

while/MatMul i1 [512, 256] scale=0.0015295378 zero_point=0
000000 f3 d7 e7 1d c8 e4 1d 27 f7 08 0c 38 36 35 06 c2
       -0.019883992 -0.06271105 -0.038238447 0.044356596 -0.08565412 -0.04282706 0.044356596 0.059651975 -0.013765841 0.012236303 0.018354453 0.08565412 0.08259504 0.081065506 0.009177227 -0.09483135
000010 12 1c cb d6 21 03 1f ff e4 eb dd e6 e8 f4 25 02
       0.027531682 0.04282706 -0.081065506 -0.06424059 0.050474748 0.0045886133 0.047415674 -0.0015295378 -0.04282706 -0.032120295 -0.053533826 -0.039767984 -0.036708906 -0.018354453 0.0565929 0.0030590757
000020 1b 3c 1a b9 2b d0 33 19 fc 20 1d ec f9 d7 d2 0d
       0.04129752 0.09177227 0.039767984 -0.10859719 0.06577013 -0.07341781 0.07800643 0.038238447 -0.0061181514 0.04894521 0.044356596 -0.030590758 -0.010706765 -0.06271105 -0.07035874 0.019883992
000030 29 08 25 26 d7 0f c1 1c 0e f7 e5 5a f7 1f 2e f8
       0.06271105 0.012236303 0.0565929 0.058122437 -0.06271105 0.022943068 -0.096360885 0.04282706 0.02141353 -0.013765841 -0.04129752 0.1376584 -0.013765841 0.047415674 0.07035874 -0.012236303
000040 f9 e0 df 1c ff c6 35 c7 c2 f4 c8 3b d8 f6 1a dc
       -0.010706765 -0.04894521 -0.050474748 0.04282706 -0.0015295378 -0.08871319 0.081065506 -0.087183654 -0.09483135 -0.018354453 -0.08565412 0.090242736 -0.061181515 -0.015295379 0.039767984 -0.055063363
000050 07 3c e7 45 d4 fb e8 0b 18 c2 ef ff 13 16 0b dc
       0.010706765 0.09177227 -0.038238447 0.10553811 -0.067299664 -0.0076476894 -0.036708906 0.016824916 0.036708906 -0.09483135 -0.026002143 -0.0015295378 0.029061219 0.033649832 0.016824916 -0.055063363
000060 35 f2 c6 d7 02 cb 61 fa 07 d0 d7 c6 cf 2a 0d 0b
       0.081065506 -0.02141353 -0.08871319 -0.06271105 0.0030590757 -0.081065506 0.14836517 -0.009177227 0.010706765 -0.07341781 -0.06271105 -0.08871319 -0.07494736 0.06424059 0.019883992 0.016824916
000070 06 0d 13 15 dc 03 00 d1 35 e0 d5 2a 03 25 12 18
       0.009177227 0.019883992 0.029061219 0.032120295 -0.055063363 0.0045886133 0.0 -0.071888275 0.081065506 -0.04894521 -0.06577013 0.06424059 0.0045886133 0.0565929 0.027531682 0.036708906
000080 cd 07 f5 35 f8 29 1f d0 d2 21 d2 f8 3c da 26 0b
       -0.07800643 0.010706765 -0.016824916 0.081065506 -0.012236303 0.06271105 0.047415674 -0.07341781 -0.07035874 0.050474748 -0.07035874 -0.012236303 0.09177227 -0.058122437 0.058122437 0.016824916
000090 23 c8 cb e5 d5 fa 12 f7 01 29 2a d9 2b 10 14 fa
       0.053533826 -0.08565412 -0.081065506 -0.04129752 -0.06577013 -0.009177227 0.027531682 -0.013765841 0.0015295378 0.06271105 0.06424059 -0.059651975 0.06577013 0.024472605 0.030590758 -0.009177227
0000a0 19 03 2e c0 31 e1 f0 f7 f0 2f d9 15 d2 0b f3 f1
       0.038238447 0.0045886133 0.07035874 -0.09789042 0.07494736 -0.047415674 -0.024472605 -0.013765841 -0.024472605 0.071888275 -0.059651975 0.032120295 -0.07035874 0.016824916 -0.019883992 -0.022943068
0000b0 1f d8 f7 1a 04 10 dc fd e4 d2 08 31 e5 e3 02 07
       0.047415674 -0.061181515 -0.013765841 0.039767984 0.0061181514 0.024472605 -0.055063363 -0.0045886133 -0.04282706 -0.07035874 0.012236303 0.07494736 -0.04129752 -0.044356596 0.0030590757 0.010706765
0000c0 04 f0 fc 10 00 f4 40 26 fd 20 36 00 e9 07 03 2c
       0.0061181514 -0.024472605 -0.0061181514 0.024472605 0.0 -0.018354453 0.09789042 0.058122437 -0.0045886133 0.04894521 0.08259504 0.0 -0.03517937 0.010706765 0.0045886133 0.067299664
0000d0 fa 26 fa 18 d4 1c cd ec 40 da 21 15 e1 e4 f5 e0
       -0.009177227 0.058122437 -0.009177227 0.036708906 -0.067299664 0.04282706 -0.07800643 -0.030590758 0.09789042 -0.058122437 0.050474748 0.032120295 -0.047415674 -0.04282706 -0.016824916 -0.04894521
0000e0 03 c9 1a 0f c6 06 46 f0 fe d8 ef ed 32 38 30 36
       0.0045886133 -0.08412458 0.039767984 0.022943068 -0.08871319 0.009177227 0.10706765 -0.024472605 -0.0030590757 -0.061181515 -0.026002143 -0.029061219 0.076476894 0.08565412 0.07341781 0.08259504
0000f0 d8 0e dc 30 ce 2f d3 f4 eb ea 0b 08 30 3e e1 c5
       -0.061181515 0.02141353 -0.055063363 0.07341781 -0.076476894 0.071888275 -0.0688292 -0.018354453 -0.032120295 -0.033649832 0.016824916 0.012236303 0.07341781 0.09483135 -0.047415674 -0.090242736

while/MatMul_11 i1 [512, 128] scale=0.0014962127 zero_point=0
000000 fa e0 0a 00 f6 d3 f8 fe 01 e4 37 f5 dc d0 3c 03
       -0.008977276 -0.047878806 0.0149621265 0.0 -0.0149621265 -0.06732957 -0.011969701 -0.0029924253 0.0014962127 -0.041893955 0.0822917 -0.01645834 -0.053863656 -0.07181821 0.08977276 0.004488638
000010 d4 f0 1b 11 e5 e4 1d ee 14 f6 ee 13 f7 28 07 00
       -0.06583336 -0.023939403 0.04039774 0.025435615 -0.04039774 -0.041893955 0.043390166 -0.026931828 0.029924253 -0.0149621265 -0.026931828 0.02842804 -0.013465914 0.059848506 0.010473489 0.0
000020 4b ea f6 fc 39 08 22 27 f8 30 db bb 21 ce f5 16
       0.11221595 -0.03291668 -0.0149621265 -0.0059848507 0.08528412 0.011969701 0.05087123 0.058352295 -0.011969701 0.07181821 -0.05535987 -0.10323867 0.04937502 -0.07481063 -0.01645834 0.03291668
000030 17 fe 02 fa f7 db ff ea 03 f9 01 cb 0f fd 10 ef
       0.03441289 -0.0029924253 0.0029924253 -0.008977276 -0.013465914 -0.05535987 -0.0014962127 -0.03291668 0.004488638 -0.010473489 0.0014962127 -0.07929927 0.02244319 -0.004488638 0.023939403 -0.025435615
000040 09 1c f3 ef 01 af fb 02 fb 31 53 e0 10 2c 1a 04
       0.013465914 0.041893955 -0.019450765 -0.025435615 0.0014962127 -0.12119323 -0.0074810633 0.0029924253 -0.0074810633 0.07331442 0.12418565 -0.047878806 0.023939403 0.06583336 0.03890153 0.0059848507
000050 02 00 29 08 05 37 f9 df 28 1f 17 e7 c9 27 29 f7
       0.0029924253 0.0 0.06134472 0.011969701 0.0074810633 0.0822917 -0.010473489 -0.04937502 0.059848506 0.04638259 0.03441289 -0.037405316 -0.0822917 0.058352295 0.06134472 -0.013465914
000060 41 f7 18 d6 ff 0e 11 f8 12 e3 f6 28 ff 13 1a e7
       0.09725382 -0.013465914 0.035909105 -0.06284093 -0.0014962127 0.020946978 0.025435615 -0.011969701 0.026931828 -0.043390166 -0.0149621265 0.059848506 -0.0014962127 0.02842804 0.03890153 -0.037405316
000070 30 19 e1 e7 ea c9 f1 e8 07 21 13 ea 12 02 cd 1e
       0.07181821 0.037405316 -0.04638259 -0.037405316 -0.03291668 -0.0822917 -0.02244319 -0.035909105 0.010473489 0.04937502 0.02842804 -0.03291668 0.026931828 0.0029924253 -0.07630685 0.04488638
000080 d2 0e 29 11 e2 0b f4 1e 1a 02 2a 07 fa 63 f6 b7
       -0.06882578 0.020946978 0.06134472 0.025435615 -0.04488638 0.01645834 -0.017954553 0.04488638 0.03890153 0.0029924253 0.06284093 0.010473489 -0.008977276 0.14812505 -0.0149621265 -0.10922352
000090 f2 ec c9 1c 0e 05 fd 0b d9 30 d7 f5 2c f4 d4 1a
       -0.020946978 -0.029924253 -0.0822917 0.041893955 0.020946978 0.0074810633 -0.004488638 0.01645834 -0.058352295 0.07181821 -0.06134472 -0.01645834 0.06583336 -0.017954553 -0.06583336 0.03890153
0000a0 f9 e7 f7 fb eb ed cd f0 2e 42 f3 07 e8 04 ff fa
       -0.010473489 -0.037405316 -0.013465914 -0.0074810633 -0.031420466 -0.02842804 -0.07630685 -0.023939403 0.06882578 0.09875004 -0.019450765 0.010473489 -0.035909105 0.0059848507 -0.0014962127 -0.008977276
0000b0 e2 00 fd b3 d6 1c 19 fa 14 34 28 0a e8 39 e9 e6
       -0.04488638 0.0 -0.004488638 -0.11520837 -0.06284093 0.041893955 0.037405316 -0.008977276 0.029924253 0.07780306 0.059848506 0.0149621265 -0.035909105 0.08528412 -0.03441289 -0.03890153
0000c0 f7 e8 08 24 e3 03 0d 26 fb f7 d7 36 0a e5 20 1f
       -0.013465914 -0.035909105 0.011969701 0.053863656 -0.043390166 0.004488638 0.019450765 0.05685608 -0.0074810633 -0.013465914 -0.06134472 0.08079548 0.0149621265 -0.04039774 0.047878806 0.04638259
0000d0 f9 1e ee dc 26 13 ef 04 46 09 28 ee 06 e4 16 04
       -0.010473489 0.04488638 -0.026931828 -0.053863656 0.05685608 0.02842804 -0.025435615 0.0059848507 0.10473489 0.013465914 0.059848506 -0.026931828 0.008977276 -0.041893955 0.03291668 0.0059848507
0000e0 f4 21 de 2d ee 32 19 16 14 0c e2 1e 02 f8 f7 29
       -0.017954553 0.04937502 -0.05087123 0.06732957 -0.026931828 0.07481063 0.037405316 0.03291668 0.029924253 0.017954553 -0.04488638 0.04488638 0.0029924253 -0.011969701 -0.013465914 0.06134472
0000f0 e7 f6 0c e9 d6 03 d5 fc c5 ed 36 e4 f0 d8 f7 1f
       -0.037405316 -0.0149621265 0.017954553 -0.03441289 -0.06284093 0.004488638 -0.06433714 -0.0059848507 -0.08827655 -0.02842804 0.08079548 -0.041893955 -0.023939403 -0.059848506 -0.013465914 0.04638259
