evaluation-code/output/models/tflite/ConvLSTM_max_pooling_64units_framesize_5_20230624-154301.tflite (tflite, 102584 bytes, 5 tensors)

sequential_10/dense_10/MatMul i1 [10, 64] scale=0.0035788051 zero_point=0
000000 35 1e 0c 4e 24 fc 20 b7 c3 4d 20 f7 1b 0c 45 bd
       0.18967667 0.107364155 0.04294566 0.2791468 0.12883699 -0.0143152205 0.114521764 -0.26125276 -0.21830711 0.275568 0.114521764 -0.032209247 0.09662774 0.04294566 0.24693756 -0.23977995
000010 4b 24 dd b8 f9 09 ba c4 26 f3 21 27 e9 2d 11 30
       0.26841038 0.12883699 -0.12525818 -0.25767398 -0.025051637 0.032209247 -0.25051636 -0.21472831 0.1359946 -0.046524465 0.11810057 0.1395734 -0.08231252 0.16104624 0.060839687 0.17178264
000020 24 b1 16 c7 d6 11 d2 db cd e1 0c b9 c1 ed 32 3c
       0.12883699 -0.2827256 0.07873371 -0.20399189 -0.15030982 0.060839687 -0.16462503 -0.13241579 -0.18251906 -0.11094296 0.04294566 -0.25409517 -0.22546472 -0.0679973 0.17894025 0.21472831
000030 5f 39 21 15 19 29 4f fd 24 17 08 42 20 63 07 07
       0.33998647 0.20399189 0.11810057 0.07515491 0.089470126 0.146731 0.2827256 -0.010736415 0.12883699 0.08231252 0.028630441 0.23620114 0.114521764 0.35430172 0.025051637 0.025051637
000040 4a a6 81 26 ef 21 ab 1d 34 a5 e8 b4 54 32 3e 9e
       0.26483157 -0.32209247 -0.45450824 0.1359946 -0.060839687 0.11810057 -0.30419844 0.10378535 0.18609786 -0.32567126 -0.08589132 -0.2719892 0.30061963 0.17894025 0.22188592 -0.3507229
000050 44 bf 08 61 67 a4 3b fe 21 56 30 c6 f7 2b 3f 36
       0.24335875 -0.23262234 0.028630441 0.3471441 0.36861694 -0.32925007 0.2111495 -0.0071576103 0.11810057 0.30777726 0.17178264 -0.2075707 -0.032209247 0.15388863 0.22546472 0.19325548
000060 b7 18 f5 ec 03 f4 99 53 ad 65 0f 2e 71 58 44 a5
       -0.26125276 0.08589132 -0.039366856 -0.0715761 0.010736415 -0.04294566 -0.36861694 0.29704082 -0.29704082 0.3614593 0.053682078 0.16462503 0.40440497 0.31493485 0.24335875 -0.32567126
000070 bc a4 45 8c ef 10 1f 48 ef c4 25 e1 b7 54 0c 13
       -0.24335875 -0.32925007 0.24693756 -0.4151414 -0.060839687 0.057260882 0.11094296 0.25767398 -0.060839687 -0.21472831 0.13241579 -0.11094296 -0.26125276 0.30061963 0.04294566 0.0679973
000080 e9 dc 0d fc 1f 0d 3c cc c6 24 35 62 31 39 fe c5
       -0.08231252 -0.12883699 0.046524465 -0.0143152205 0.11094296 0.046524465 0.21472831 -0.18609786 -0.2075707 0.12883699 0.18967667 0.3507229 0.17536145 0.20399189 -0.0071576103 -0.2111495
000090 f8 3d cf f7 f1 e1 e5 fd be fe bb 46 bf c9 3d 18
       -0.028630441 0.21830711 -0.17536145 -0.032209247 -0.053682078 -0.11094296 -0.09662774 -0.010736415 -0.23620114 -0.0071576103 -0.24693756 0.25051636 -0.23262234 -0.19683428 0.21830711 0.08589132
0000a0 f1 b8 28 0b c9 16 bc 0e dd 02 02 44 14 37 a9 18
       -0.053682078 -0.25767398 0.1431522 0.039366856 -0.19683428 0.07873371 -0.24335875 0.050103273 -0.12525818 0.0071576103 0.0071576103 0.24335875 0.0715761 0.19683428 -0.31135604 0.08589132
0000b0 e1 f9 0e 4f df 05 c9 ed 25 37 b6 3c 32 12 48 b5
       -0.11094296 -0.025051637 0.050103273 0.2827256 -0.11810057 0.017894026 -0.19683428 -0.0679973 0.13241579 0.19683428 -0.26483157 0.21472831 0.17894025 0.064418495 0.25767398 -0.26841038
0000c0 10 3b 10 f0 1a bb 11 e6 4b 16 00 c2 10 c0 23 41
       0.057260882 0.2111495 0.057260882 -0.057260882 0.09304893 -0.24693756 0.060839687 -0.09304893 0.26841038 0.07873371 0.0 -0.22188592 0.057260882 -0.22904353 0.12525818 0.23262234
0000d0 ca 1d d6 15 c5 f2 28 df 3d f9 ee 0e 46 47 3e 03
       -0.19325548 0.10378535 -0.15030982 0.07515491 -0.2111495 -0.050103273 0.1431522 -0.11810057 0.21830711 -0.025051637 -0.064418495 0.050103273 0.25051636 0.25409517 0.22188592 0.010736415
0000e0 4a 0a f6 dc f8 00 28 02 cc c3 f4 3a f8 ed 39 d5
       0.26483157 0.03578805 -0.03578805 -0.12883699 -0.028630441 0.0 0.1431522 0.0071576103 -0.18609786 -0.21830711 -0.04294566 0.2075707 -0.028630441 -0.0679973 0.20399189 -0.15388863
0000f0 c8 19 07 06 d3 f4 d6 32 e9 f1 c3 18 37 31 e0 c5
       -0.2004131 0.089470126 0.025051637 0.02147283 -0.16104624 -0.04294566 -0.15030982 0.17894025 -0.08231252 -0.053682078 -0.21830711 0.08589132 0.19683428 0.17536145 -0.114521764 -0.2111495

sequential_10/time_distributed_13/conv2d_1/Conv2D i1 [128, 2, 2, 1]
000000 b0 81 df 0d 0d 81 57 14 81 23 31 d7 7f 1c 3e 31
       -80 -127 -33 13 13 -127 87 20 -127 35 49 -41 127 28 62 49
000010 a8 c3 81 f4 a2 1f 88 81 d2 04 05 7f 5b 81 f0 98
       -88 -61 -127 -12 -94 31 -120 -127 -46 4 5 127 91 -127 -16 -104
000020 10 81 df 9d 24 7f b3 47 5c e8 35 81 2f 11 7f 83
       16 -127 -33 -99 36 127 -77 71 92 -24 53 -127 47 17 127 -125
000030 a6 81 d5 f1 7f c5 02 aa 20 73 81 05 81 f1 0a 3b
       -90 -127 -43 -15 127 -59 2 -86 32 115 -127 5 -127 -15 10 59
000040 7f f7 03 82 b6 81 bc a3 38 e9 4d 81 1f 81 b0 86
       127 -9 3 -126 -74 -127 -68 -93 56 -23 77 -127 31 -127 -80 -122
000050 7f 4d 68 e9 20 24 7f 68 65 ba 7f 88 81 5e ae 2e
       127 77 104 -23 32 36 127 104 101 -70 127 -120 -127 94 -82 46
000060 46 bc eb 81 ae 31 f2 81 8f 1f 6d 7f d1 81 7a 1a
       70 -68 -21 -127 -82 49 -14 -127 -113 31 109 127 -47 -127 122 26
000070 81 e4 d8 f5 ee a1 0a 81 10 81 5f b1 8d 76 bb 81
       -127 -28 -40 -11 -18 -95 10 -127 16 -127 95 -79 -115 118 -69 -127
000080 79 86 81 78 4c 81 1d 08 1c 9e 81 cd 0b 61 7f 05
       121 -122 -127 120 76 -127 29 8 28 -98 -127 -51 11 97 127 5
000090 7f 68 c8 b8 a6 7f 9a ed 07 7f 1e f8 44 7f fb 09
       127 104 -56 -72 -90 127 -102 -19 7 127 30 -8 68 127 -5 9
0000a0 02 81 e2 66 ee f5 81 f3 81 35 37 9c 7f 3d 1e a2
       2 -127 -30 102 -18 -11 -127 -13 -127 53 55 -100 127 61 30 -94
0000b0 81 fc f9 62 20 8f 7f cd ee 55 7f 19 81 4a 84 5b
       -127 -4 -7 98 32 -113 127 -51 -18 85 127 25 -127 74 -124 91
0000c0 81 3b d6 30 b7 88 7f 8a ef c8 49 7f 1c 7f eb 60
       -127 59 -42 48 -73 -120 127 -118 -17 -56 73 127 28 127 -21 96
0000d0 05 c5 5a 7f 04 e0 81 c8 7f 93 8b 3a fd 7f 10 74
       5 -59 90 127 4 -32 -127 -56 127 -109 -117 58 -3 127 16 116
0000e0 81 ae d0 b2 81 dc fa 44 5c 7f a3 0d f5 67 1c 81
       -127 -82 -48 -78 -127 -36 -6 68 92 127 -93 13 -11 103 28 -127
0000f0 7f 3c bb 58 7f 1c 21 be a6 0a 78 7f d3 da 6f 7f
       127 60 -69 88 127 28 33 -66 -90 10 120 127 -45 -38 111 127

sequential_10/lstm_4/Read_2/ReadVariableOp1 i1 [256] scale=0.0042532496 zero_point=-122
000000 90 8a 8c 89 87 91 89 93 8d 91 8c 8c 8d 8d 8b 86
       0.042532496 0.017012998 0.025519498 0.012759749 0.0042532496 0.046785746 0.012759749 0.055292245 0.029772747 0.046785746 0.025519498 0.025519498 0.029772747 0.029772747 0.021266248 0.0
000010 8f 93 88 8d 8a 88 99 8e 8d 87 8b 8c 88 8a 8b 8b
       0.038279247 0.055292245 0.008506499 0.029772747 0.017012998 0.008506499 0.08081174 0.034025997 0.029772747 0.0042532496 0.021266248 0.025519498 0.008506499 0.017012998 0.021266248 0.021266248
000020 8c 8e 92 8b 8a 8d 8d 92 8a 8e 90 8b 8d 8d 8a 8f
       0.025519498 0.034025997 0.051038995 0.021266248 0.017012998 0.029772747 0.029772747 0.051038995 0.017012998 0.034025997 0.042532496 0.021266248 0.029772747 0.029772747 0.017012998 0.038279247
000030 92 8a 89 8d 8c 89 8a 86 8c 91 87 88 92 87 89 8f
       0.051038995 0.017012998 0.012759749 0.029772747 0.025519498 0.012759749 0.017012998 0.0 0.025519498 0.046785746 0.0042532496 0.008506499 0.051038995 0.0042532496 0.012759749 0.038279247
000040 7f 70 73 73 72 72 74 79 77 7a 79 77 77 77 73 73
       1.0590591 0.9952604 1.0080202 1.0080202 1.0037669 1.0037669 1.0122734 1.0335397 1.0250331 1.0377929 1.0335397 1.0250331 1.0250331 1.0250331 1.0080202 1.0080202
000050 76 78 71 74 74 72 76 77 74 74 79 76 72 73 74 77
       1.0207798 1.0292864 0.9995137 1.0122734 1.0122734 1.0037669 1.0207798 1.0250331 1.0122734 1.0122734 1.0335397 1.0207798 1.0037669 1.0080202 1.0122734 1.0250331
000060 74 79 7e 75 73 79 74 78 76 76 7c 76 77 77 75 76
       1.0122734 1.0335397 1.0548059 1.0165267 1.0080202 1.0335397 1.0122734 1.0292864 1.0207798 1.0207798 1.0462995 1.0207798 1.0250331 1.0250331 1.0165267 1.0207798
000070 7c 75 74 75 75 73 73 71 77 76 74 74 77 74 74 77
       1.0462995 1.0165267 1.0122734 1.0165267 1.0165267 1.0080202 1.0080202 0.9995137 1.0250331 1.0207798 1.0122734 1.0122734 1.0250331 1.0122734 1.0122734 1.0250331
000080 84 8b 88 87 8b 88 85 86 85 89 8a 89 84 85 83 87
       -0.008506499 0.021266248 0.008506499 0.0042532496 0.021266248 0.008506499 -0.0042532496 0.0 -0.0042532496 0.012759749 0.017012998 0.012759749 -0.008506499 -0.0042532496 -0.012759749 0.0042532496
000090 83 87 81 87 83 86 87 86 87 86 87 89 85 87 88 85
       -0.012759749 0.0042532496 -0.021266248 0.0042532496 -0.012759749 0.0 0.0042532496 0.0 0.0042532496 0.0 0.0042532496 0.012759749 -0.0042532496 0.0042532496 0.008506499 -0.0042532496
0000a0 82 86 86 89 81 86 86 85 82 83 86 85 85 83 86 86
       -0.017012998 0.0 0.0 0.012759749 -0.021266248 0.0 0.0 -0.0042532496 -0.017012998 -0.012759749 0.0 -0.0042532496 -0.0042532496 -0.012759749 0.0 0.0
0000b0 86 85 84 87 88 85 8a 88 84 88 86 83 80 85 83 87
       0.0 -0.0042532496 -0.008506499 0.0042532496 0.008506499 -0.0042532496 0.017012998 0.008506499 -0.008506499 0.008506499 0.0 -0.012759749 -0.025519498 -0.0042532496 -0.012759749 0.0042532496
0000c0 94 8a 90 8d 8a 94 8d 92 91 93 8e 8d 8b 8e 8d 8b
       0.059545495 0.017012998 0.042532496 0.029772747 0.017012998 0.059545495 0.029772747 0.051038995 0.046785746 0.055292245 0.034025997 0.029772747 0.021266248 0.034025997 0.029772747 0.021266248
0000d0 8e 95 89 8f 91 8b 92 94 8e 88 8c 90 89 8e 8e 8c
       0.034025997 0.06379874 0.012759749 0.038279247 0.046785746 0.021266248 0.051038995 0.059545495 0.034025997 0.008506499 0.025519498 0.042532496 0.012759749 0.034025997 0.034025997 0.025519498
0000e0 8c 90 93 8b 8d 8e 8c 91 8c 8d 8e 8b 90 8f 8a 94
       0.025519498 0.042532496 0.055292245 0.021266248 0.029772747 0.034025997 0.025519498 0.046785746 0.025519498 0.029772747 0.034025997 0.021266248 0.042532496 0.038279247 0.017012998 0.059545495
0000f0 97 88 8c 8f 8f 8a 8b 87 90 96 8a 8e 8f 88 88 90
       0.07230525 0.008506499 0.025519498 0.038279247 0.038279247 0.017012998 0.021266248 0.0042532496 0.042532496 0.068051994 0.017012998 0.034025997 0.038279247 0.008506499 0.008506499 0.042532496

while/MatMul i1 [256, 256] scale=0.0024562976 zero_point=0
000000 ef d5 f4 32 1c e6 2f 06 0a 22 f6 1b ff ca 21 d2
       -0.04175706 -0.1056208 -0.029475572 0.12281488 0.06877633 -0.06386374 0.11544599 0.014737786 0.024562977 0.08351412 -0.024562977 0.06632004 -0.0024562976 -0.13264008 0.081057824 -0.112989694
000010 d3 1b 03 d9 32 f2 0f d3 22 fb 38 f8 19 1b 26 18
       -0.110533394 0.06632004 0.007368893 -0.09579561 0.12281488 -0.034388166 0.036844466 -0.110533394 0.08351412 -0.012281489 0.13755266 -0.019650381 0.06140744 0.06632004 0.09333931 0.058951143
000020 17 df fc 07 f1 17 3a 38 e7 fd ee 19 d2 1b 1c d8
       0.056494847 -0.081057824 -0.0098251905 0.017194083 -0.036844466 0.056494847 0.14246526 0.13755266 -0.06140744 -0.007368893 -0.04421336 0.06140744 -0.112989694 0.06632004 0.06877633 -0.09825191
000030 0b ee 07 41 eb eb d4 18 ef 0a 15 fa 05 23 0e 10
       0.027019273 -0.04421336 0.017194083 0.15965934 -0.05158225 -0.05158225 -0.108077094 0.058951143 -0.04175706 0.024562977 0.05158225 -0.014737786 0.012281489 0.08597042 0.034388166 0.039300762
000040 30 19 d4 3c 14 35 c7 0f f7 f8 e6 05 f8 15 37 01
       0.11790229 0.06140744 -0.108077094 0.14737786 0.049125955 0.13018377 -0.14000897 0.036844466 -0.02210668 -0.019650381 -0.06386374 0.012281489 -0.019650381 0.05158225 0.13509637 0.0024562976
000050 18 e3 eb 08 16 31 05 2b 02 0a ca e5 1c 32 19 1c
       0.058951143 -0.07123263 -0.05158225 0.019650381 0.054038547 0.12035859 0.012281489 0.1056208 0.0049125953 0.024562977 -0.13264008 -0.06632004 0.06877633 0.12281488 0.06140744 0.06877633
000060 2b eb 18 0b d7 23 f8 18 d9 15 13 25 e2 3c fa e9
       0.1056208 -0.05158225 0.058951143 0.027019273 -0.1007082 0.08597042 -0.019650381 0.058951143 -0.09579561 0.05158225 0.046669655 0.09088301 -0.07368893 0.14737786 -0.014737786 -0.056494847
000070 18 01 e0 dc fb f2 ef df fe 22 f7 fc d3 e8 f5 03
       0.058951143 0.0024562976 -0.078601524 -0.08842672 -0.012281489 -0.034388166 -0.04175706 -0.081057824 -0.0049125953 0.08351412 -0.02210668 -0.0098251905 -0.110533394 -0.058951143 -0.027019273 0.007368893
000080 d7 15 c3 16 30 ff 0b 35 14 17 d5 22 17 0c 1e 01
       -0.1007082 0.05158225 -0.14983416 0.054038547 0.11790229 -0.0024562976 0.027019273 0.13018377 0.049125955 0.056494847 -0.1056208 0.08351412 0.056494847 0.029475572 0.07368893 0.0024562976
000090 11 0b f1 f9 0f 0c 08 d7 2b fa 2f fc 0d fe 1d 19
       0.04175706 0.027019273 -0.036844466 -0.017194083 0.036844466 0.029475572 0.019650381 -0.1007082 0.1056208 -0.014737786 0.11544599 -0.0098251905 0.03193187 -0.0049125953 0.07123263 0.06140744
0000a0 05 e8 fb f9 2d df 19 0e f5 02 d9 e7 cf cb 0d 07
       0.012281489 -0.058951143 -0.012281489 -0.017194083 0.110533394 -0.081057824 0.06140744 0.034388166 -0.027019273 0.0049125953 -0.09579561 -0.06140744 -0.12035859 -0.13018377 0.03193187 0.017194083
0000b0 fe 1c fc ed 03 ea ef eb 09 e3 0e 02 f7 0d 10 00
       -0.0049125953 0.06877633 -0.0098251905 -0.046669655 0.007368893 -0.054038547 -0.04175706 -0.05158225 0.02210668 -0.07123263 0.034388166 0.0049125953 -0.02210668 0.03193187 0.039300762 0.0
0000c0 f0 32 dc 41 07 ea f4 f9 40 ef 15 1f 06 02 01 16
       -0.039300762 0.12281488 -0.08842672 0.15965934 0.017194083 -0.054038547 -0.029475572 -0.017194083 0.15720305 -0.04175706 0.05158225 0.076145224 0.014737786 0.0049125953 0.0024562976 0.054038547
0000d0 0c 02 37 fb e7 0b 1c 31 2a 0a 0a f6 04 2d f5 f8
       0.029475572 0.0049125953 0.13509637 -0.012281489 -0.06140744 0.027019273 0.06877633 0.12035859 0.1031645 0.024562977 0.024562977 -0.024562977 0.0098251905 0.110533394 -0.027019273 -0.019650381
0000e0 ed 11 09 12 1b eb 16 29 f1 12 28 14 ec f3 0d 16
       -0.046669655 0.04175706 0.02210668 0.04421336 0.06632004 -0.05158225 0.054038547 0.1007082 -0.036844466 0.04421336 0.09825191 0.049125955 -0.049125955 -0.03193187 0.03193187 0.054038547
0000f0 e9 fd 28 d7 0c fe 01 ea 15 fc f6 e3 fb fe 19 29
       -0.056494847 -0.007368893 0.09825191 -0.1007082 0.029475572 -0.0049125953 0.0024562976 -0.054038547 0.05158225 -0.0098251905 -0.024562977 -0.07123263 -0.012281489 -0.0049125953 0.06140744 0.1007082

while/MatMul_11 i1 [256, 64] scale=0.0026358636 zero_point=0
000000 1c 0a 1c e3 f9 05 06 ec ea 12 09 c1 f2 2e 31 fc
       0.073804185 0.026358636 0.073804185 -0.076440044 -0.018451046 0.013179318 0.015815182 -0.052717272 -0.057989 0.047445543 0.023722772 -0.1660594 -0.036902092 0.12124973 0.12915732 -0.010543454
000010 dc 13 e5 1d ee 11 cd 0b 21 12 33 05 12 f2 d5 25
       -0.094891086 0.05008141 -0.07116832 0.076440044 -0.047445543 0.04480968 -0.13442904 0.0289945 0.0869835 0.047445543 0.13442904 0.013179318 0.047445543 -0.036902092 -0.113342136 0.09752695
000020 ef 1b 33 d4 ea c5 26 0e 16 e2 fa 1e d5 0d fb f7
       -0.04480968 0.07116832 0.13442904 -0.115978 -0.057989 -0.15551595 0.10016282 0.036902092 0.057989 -0.07907591 -0.015815182 0.07907591 -0.113342136 0.034266226 -0.013179318 -0.023722772
000030 ff 1c f5 0e 22 c0 f1 cf 11 d6 1e ff 11 f3 f9 0d
       -0.0026358636 0.073804185 -0.0289945 0.036902092 0.08961936 -0.16869527 -0.039537955 -0.12915732 0.04480968 -0.11070627 0.07907591 -0.0026358636 0.04480968 -0.034266226 -0.018451046 0.034266226
000040 08 ee 11 12 da fb 2f ff 12 d6 05 19 dd fb e7 f3
       0.021086909 -0.047445543 0.04480968 0.047445543 -0.10016282 -0.013179318 0.12388559 -0.0026358636 0.047445543 -0.11070627 0.013179318 0.06589659 -0.09225523 -0.013179318 -0.06589659 -0.034266226
000050 0f e6 03 e9 e3 fc ff 36 35 e0 cd 00 e5 ed 23 ed
       0.039537955 -0.06853245 0.007907591 -0.060624864 -0.076440044 -0.010543454 -0.0026358636 0.14233664 0.13970077 -0.084347636 -0.13442904 0.0 -0.07116832 -0.05008141 0.09225523 -0.05008141
000060 f5 fa f7 dd 28 11 ec 14 07 0d fb 29 ff ed fb 01
       -0.0289945 -0.015815182 -0.023722772 -0.09225523 0.105434544 0.04480968 -0.052717272 0.052717272 0.018451046 0.034266226 -0.013179318 0.10807041 -0.0026358636 -0.05008141 -0.013179318 0.0026358636
000070 f2 de 19 0f 16 15 f4 18 ff fa f5 f5 f6 02 ed e3
       -0.036902092 -0.08961936 0.06589659 0.039537955 0.057989 0.055353135 -0.031630363 0.06326073 -0.0026358636 -0.015815182 -0.0289945 -0.0289945 -0.026358636 0.005271727 -0.05008141 -0.076440044
000080 0e f3 f2 0c ca fe ec f7 cb e5 f6 f9 15 15 2f d5
       0.036902092 -0.034266226 -0.036902092 0.031630363 -0.14233664 -0.005271727 -0.052717272 -0.023722772 -0.13970077 -0.07116832 -0.026358636 -0.018451046 0.055353135 0.055353135 0.12388559 -0.113342136
000090 23 cd 41 03 0d 0e ee 19 24 25 fb b7 d6 11 13 f6
       0.09225523 -0.13442904 0.17133114 0.007907591 0.034266226 0.036902092 -0.047445543 0.06589659 0.094891086 0.09752695 -0.013179318 -0.19241804 -0.11070627 0.04480968 0.05008141 -0.026358636
0000a0 00 f7 ee ff ff 0a c4 03 00 30 e3 fb 28 0f da 18
       0.0 -0.023722772 -0.047445543 -0.0026358636 -0.0026358636 0.026358636 -0.15815182 0.007907591 0.0 0.12652145 -0.076440044 -0.013179318 0.105434544 0.039537955 -0.10016282 0.06326073
0000b0 f6 dc fc 01 fe fc c4 0a db fe 35 3d eb 5c 0a f2
       -0.026358636 -0.094891086 -0.010543454 0.0026358636 -0.005271727 -0.010543454 -0.15815182 0.026358636 -0.09752695 -0.005271727 0.13970077 0.16078769 -0.055353135 0.24249946 0.026358636 -0.036902092
0000c0 ed f8 e4 25 08 19 02 14 e5 de 0f e4 b7 08 ff fc
       -0.05008141 -0.021086909 -0.073804185 0.09752695 0.021086909 0.06589659 0.005271727 0.052717272 -0.07116832 -0.08961936 0.039537955 -0.073804185 -0.19241804 0.021086909 -0.0026358636 -0.010543454
0000d0 e8 fb 16 07 f7 eb c4 20 de c0 ea cf 04 ed eb e9
       -0.06326073 -0.013179318 0.057989 0.018451046 -0.023722772 -0.055353135 -0.15815182 0.084347636 -0.08961936 -0.16869527 -0.057989 -0.12915732 0.010543454 -0.05008141 -0.055353135 -0.060624864
0000e0 fb 1d 13 c2 dd ec 09 2b 00 eb 10 e8 07 1d 10 c8
       -0.013179318 0.076440044 0.05008141 -0.16342354 -0.09225523 -0.052717272 0.023722772 0.113342136 0.0 -0.055353135 0.042173818 -0.06326073 0.018451046 0.076440044 0.042173818 -0.14760837
0000f0 16 15 09 04 f5 14 1e 05 d3 cf 00 f9 f3 f1 f8 fc
       0.057989 0.055353135 0.023722772 0.010543454 -0.0289945 0.052717272 0.07907591 0.013179318 -0.11861386 -0.12915732 0.0 -0.018451046 -0.034266226 -0.039537955 -0.021086909 -0.010543454
