evaluation-code/output/models/tflite/ConvLSTM_two_conv_extra_dense_layer_64lstmunits_framesize_5_20230623-132018.tflite (tflite, 242336 bytes, 7 tensors)

sequential_1/dense_3/MatMul i1 [10, 64] scale=0.0027022886 zero_point=0
-0.059450347 -0.22699223 -0.22428995 -0.27833572 0.19726707 -0.016213732 0.17294647 0.27022886
-0.062152635 -0.021618308 0.010809154 -0.03783204 -0.010809154 0.008106866 -0.067557216 0.19456477
-0.067557216 -0.09728239 -0.18645792 -0.013511443 -0.20267165 0.0945801 -0.14862587 -0.25401512
0.16213731 0.16213731 -0.027022885 0.24050368 0.008106866 -0.05674806 -0.15132816 0.032427464
-0.045938905 0.24590826 -0.099984676 0.0 0.1648396 -0.118900694 -0.03783204 0.30535862
0.09728239 -0.005404577 0.16754189 -0.11349612 0.22158766 -0.05674806 -0.2350991 0.17564876
0.17835104 0.29725173 -0.29725173 0.086473234 -0.19996935 -0.10538925 -0.04053433 0.008106866
-0.013511443 -0.08106866 -0.13511443 0.05674806 -0.2134808 -0.15132816 -0.2134808 0.10538925
-0.005404577 0.21618308 0.07566408 -0.29454947 -0.059450347 -0.05674806 -0.15943502 0.19726707
-0.086473234 -0.19726707 0.13511443 0.024320597 0.25131282 0.2837403 0.10809154 -0.051343482
-0.19726707 -0.22428995 0.21888538 -0.045938905 0.07566408 -0.05404577 0.08917552 -0.3323815
-0.28644258 0.27293116 0.14322129 0.16754189 -0.30806088 -0.021618308 -0.262122 0.34319064
-0.2567174 0.13781671 -0.008106866 0.099984676 -0.045938905 -0.099984676 -0.051343482 -0.0945801
-0.05674806 -0.17564876 -0.30265632 0.032427464 -0.12970985 0.086473234 0.09728239 0.24861054
-0.20537393 -0.13241214 -0.12160298 0.15403044 0.16754189 -0.016213732 0.1648396 0.14322129
-0.25401512 0.05674806 0.102686964 0.10809154 0.25401512 0.08917552 0.18375562 0.2837403
0.08917552 -0.15403044 0.059450347 0.15943502 0.09728239 0.16754189 -0.2134808 -0.27833572
-0.029725173 0.013511443 -0.021618308 -0.24050368 -0.14051901 0.07296179 -0.20537393 -0.03783204
0.18645792 0.27833572 -0.14051901 0.1891602 -0.08106866 -0.13241214 -0.083770946 -0.31346548
0.24861054 0.09187781 -0.021618308 0.12430527 0.22428995 0.17564876 -0.24320596 0.18645792
-0.21618308 0.12700756 -0.25401512 0.15132816 0.09187781 0.262122 -0.027022885 -0.2107785
0.010809154 -0.05404577 -0.20807622 0.27563342 -0.18105334 0.062152635 0.05404577 -0.19996935
0.28644258 0.08106866 0.24050368 -0.12160298 0.15403044 0.029725173 -0.0945801 -0.09728239
-0.29454947 -0.15403044 -0.03783204 0.15673274 -0.118900694 -0.03783204 -0.15132816 -0.102686964
-0.12430527 -0.116198406 0.30265632 -0.19456477 0.2350991 0.04053433 -0.062152635 -0.2567174
-0.22428995 -0.12430527 -0.26482427 -0.17024417 -0.013511443 0.22158766 -0.29454947 -0.21618308
0.16754189 0.118900694 -0.043236617 -0.22428995 -0.23780139 -0.20807622 0.262122 0.10809154
-0.1891602 -0.010809154 -0.16213731 -0.15132816 -0.11349612 0.29725173 0.27293116 0.22158766
0.059450347 0.10809154 0.070259504 -0.18375562 0.05404577 0.2350991 0.2837403 -0.05674806
0.10809154 0.13511443 0.021618308 0.12160298 0.11349612 0.2594197 -0.13511443 -0.14051901
0.22158766 -0.17024417 0.15943502 -0.01891602 -0.27022886 0.14051901 -0.15673274 -0.22158766
0.18375562 0.16754189 -0.062152635 0.07836637 0.067557216 0.11349612 -0.17835104 0.045938905
00000000: eaac ad99 49fa 4064 e9f8 04f2 fc03 e748
00000010: e7dc bbfb b523 c9a2 3c3c f659 03eb c80c
00000020: ef5b db00 3dd4 f271 24fe 3ed6 52eb a941
00000030: 426e 9220 b6d9 f103 fbe2 ce15 b1c8 b127
00000040: fe50 1c93 eaeb c549 e0b7 3209 5d69 28ed
00000050: b7ad 51ef 1cec 2185 9665 353e 8ef8 9f7f
00000060: a133 fd25 efdb eddd ebbf 900c d020 245c
00000070: b4cf d339 3efa 3d35 a215 2628 5e21 4469
00000080: 21c7 163b 243e b199 f505 f8a7 cc1b b4f2
00000090: 4567 cc46 e2cf e18c 5c22 f82e 5341 a645
000000a0: b02f a238 2261 f6b2 04ec b366 bd17 14b6
000000b0: 6a1e 59d3 390b dddc 93c7 f23a d4f2 c8da
000000c0: d2d5 70b8 570f e9a1 add2 9ec1 fb52 93b0
000000d0: 3e2c f0ad a8b3 6128 bafc c4c8 d66e 6552
000000e0: 1628 1abc 1457 69eb 2832 082d 2a60 cecc
000000f0: 52c1 3bf9 9c34 c6ae 443e e91d 192a be11

sequential_1/dense_2/MatMul i1 [64, 64] scale=0.0023306308 zero_point=0
0.027967568 -0.14216848 0.006991892 0.10953965 -0.1584829 0.0023306308 0.15382163 0.0023306308
-0.21674867 0.116531536 0.19111173 -0.048943248 0.06525766 0.05127388 -0.039620724 -0.15382163
-0.044281986 0.0302982 0.0908946 0.16547479 -0.21208741 -0.19810362 0.048943248 0.20043425
-0.16547479 0.19344236 -0.072249554 0.19577299 -0.21208741 0.14216848 0.12585406 0.06525766
-0.20742615 0.12818469 0.13051532 -0.08623334 -0.14916037 0.12818469 -0.0046612616 -0.0023306308
-0.19810362 -0.06292703 -0.116531536 -0.16547479 -0.13051532 0.24005497 -0.12585406 0.10254776
0.1584829 0.17479731 -0.14449911 -0.16547479 -0.076910816 0.16547479 0.15382163 0.0908946
-0.151491 0.12818469 -0.055935137 -0.12818469 -0.1211928 -0.10720902 -0.10720902 0.20276488
0.039620724 -0.10953965 0.023306308 -0.116531536 -0.018645046 -0.17013605 0.048943248 -0.03262883
-0.044281986 0.011653154 0.17246668 -0.20276488 0.006991892 -0.22607118 0.19344236 -0.15382163
-0.15615226 -0.17246668 -0.08390271 -0.17246668 -0.23073244 -0.058265768 0.10720902 0.12352343
0.02563694 -0.17013605 -0.116531536 0.0046612616 -0.12818469 -0.10487839 0.013983784 0.0302982
-0.1211928 0.05127388 0.046612617 0.06292703 0.12352343 -0.08157208 0.20043425 0.02563694
-0.13750722 0.018645046 -0.17945857 0.048943248 0.20043425 0.020975677 0.013983784 -0.08157208
0.111870274 -0.13983785 -0.020975677 -0.06991892 0.19344236 -0.20043425 -0.13284595 0.10720902
-0.013983784 -0.06991892 0.10487839 0.058265768 -0.23772433 -0.08390271 -0.0023306308 -0.13983785
0.016314415 0.1211928 0.13284595 0.0023306308 -0.076910816 -0.08623334 0.013983784 0.13517658
0.020975677 -0.097886495 0.16314416 0.13051532 0.09322523 -0.21441804 0.2587 -0.097886495
0.22140993 -0.1817892 -0.17945857 -0.10254776 -0.03495946 -0.27035317 -0.2353937 0.048943248
0.0023306308 -0.14216848 0.0605964 -0.20276488 0.12352343 -0.18645047 0.20276488 -0.16547479
0.20276488 0.19111173 -0.0023306308 0.048943248 0.08856397 0.08856397 0.02563694 0.14682974
-0.16780542 0.06991892 -0.08390271 0.0605964 0.10487839 -0.072249554 -0.006991892 -0.111870274
0.10953965 -0.22140993 0.0046612616 -0.1584829 -0.16081353 -0.0023306308 -0.19111173 -0.21674867
-0.13051532 -0.06758829 -0.055935137 -0.2190793 0.14916037 0.10021713 -0.19577299 -0.03495946
0.0302982 0.08623334 0.22840181 -0.15615226 -0.13284595 0.114200905 -0.07924145 -0.19577299
0.009322523 0.16314416 0.1817892 0.072249554 -0.2190793 -0.20043425 -0.15382163 -0.19810362
0.2353937 0.095555864 -0.17712794 0.0023306308 0.03495946 -0.03262883 -0.05127388 -0.074580185
-0.10487839 -0.14682974 0.06525766 0.020975677 -0.055935137 0.10487839 0.0908946 0.2353937
0.12818469 0.06758829 0.027967568 -0.18411984 0.0605964 -0.17479731 -0.072249554 0.12352343
-0.16547479 -0.10953965 -0.037290093 -0.013983784 -0.2190793 0.17246668 -0.05360451 -0.076910816
0.0 -0.08390271 -0.06292703 -0.037290093 -0.17479731 0.046612617 -0.046612617 -0.10254776
0.048943248 0.15615226 0.21208741 -0.11886217 0.08157208 -0.07924145 -0.10021713 0.06758829
00000000: 0cc3 032f bc01 4201 a332 52eb 1c16 efbe
00000010: ed0d 2747 a5ab 1556 b953 e154 a53d 361c
00000020: a737 38db c037 feff abe5 ceb9 c867 ca2c
00000030: 444b c2b9 df47 4227 bf37 e8c9 ccd2 d257
00000040: 11d1 0ace f8b7 15f2 ed05 4aa9 039f 53be
00000050: bdb6 dcb6 9de7 2e35 0bb7 ce02 c9d3 060d
00000060: cc16 141b 35dd 560b c508 b315 5609 06dd
00000070: 30c4 f7e2 53aa c72e fae2 2d19 9adc ffc4
00000080: 0734 3901 dfdb 063a 09d6 4638 28a4 6fd6
00000090: 5fb2 b3d4 f18c 9b15 01c3 1aa9 35b0 57b9
000000a0: 5752 ff15 2626 0b3f b81e dc1a 2de1 fdd0
000000b0: 2fa1 02bc bbff aea3 c8e3 e8a2 402b acf1
000000c0: 0d25 62bd c731 deac 0446 4e1f a2aa beab
000000d0: 6529 b401 0ff2 eae0 d3c1 1c09 e82d 2765
000000e0: 371d 0cb1 1ab5 e135 b9d1 f0fa a24a e9df
000000f0: 00dc e5f0 b514 ecd4 1543 5bcd 23de d51d

sequential_1/time_distributed_5/conv2d_3/Conv2D i1 [128, 2, 2, 128]
-15 -82 25 44 50 10 22 -10
-33 -54 36 -19 21 -59 65 42
4 -38 60 3 16 33 -13 -46
5 -26 14 0 -52 38 -55 -34
-62 -31 -16 17 -46 -67 21 58
-15 63 -30 19 5 -51 -44 58
37 69 62 -23 -6 -16 -25 -8
0 -9 23 43 59 -40 -11 -111
6 -23 44 -13 20 32 -28 -60
-71 -8 -43 0 71 9 59 50
-20 37 61 -27 -55 -37 72 -94
8 -45 62 39 56 28 -60 -83
56 44 -2 -88 -42 -12 31 -6
39 53 43 -22 -56 12 -39 -11
59 26 -18 3 71 46 -68 -57
-58 -23 -2 -1 30 49 -44 -4
-38 -3 10 35 0 53 23 29
21 -32 52 0 37 -38 -51 62
-78 -14 -22 21 -32 47 30 58
60 43 -45 20 -25 30 17 69
-1 5 13 51 38 3 61 -21
-12 46 14 -58 22 -53 -74 20
-29 -43 12 28 -58 -8 -37 18
46 62 45 -9 -35 34 -32 -102
41 51 5 -15 -59 -24 52 -65
-74 45 45 34 35 -29 15 -35
-12 -48 14 -52 15 -50 41 4
-3 -57 43 36 -26 26 -48 -71
45 13 -43 -29 -16 -1 1 -37
-36 -30 -40 -34 -22 63 11 -43
55 -3 57 46 47 53 -57 13
19 -51 -39 -2 -39 13 -73 -38
00000000: f1ae 192c 320a 16f6 dfca 24ed 15c5 412a
00000010: 04da 3c03 1021 f3d2 05e6 0e00 cc26 c9de
00000020: c2e1 f011 d2bd 153a f13f e213 05cd d43a
00000030: 2545 3ee9 faf0 e7f8 00f7 172b 3bd8 f591
00000040: 06e9 2cf3 1420 e4c4 b9f8 d500 4709 3b32
00000050: ec25 3de5 c9db 48a2 08d3 3e27 381c c4ad
00000060: 382c fea8 d6f4 1ffa 2735 2bea c80c d9f5
00000070: 3b1a ee03 472e bcc7 c6e9 feff 1e31 d4fc
00000080: dafd 0a23 0035 171d 15e0 3400 25da cd3e
00000090: b2f2 ea15 e02f 1e3a 3c2b d314 e71e 1145
000000a0: ff05 0d33 2603 3deb f42e 0ec6 16cb b614
000000b0: e3d5 0c1c c6f8 db12 2e3e 2df7 dd22 e09a
000000c0: 2933 05f1 c5e8 34bf b62d 2d22 23e3 0fdd
000000d0: f4d0 0ecc 0fce 2904 fdc7 2b24 e61a d0b9
000000e0: 2d0d d5e3 f0ff 01db dce2 d8de ea3f 0bd5
000000f0: 37fd 392e 2f35 c70d 13cd d9fe d90d b7da

sequential_1/time_distributed_4/conv2d_2/Conv2D i1 [128, 3, 1, 1]
123 127 -27 98 -127 11 92 -127
116 -111 -127 -126 127 -12 -125 -2
-127 -113 127 0 21 -44 101 127
26 127 8 -75 -127 -44 117 -2
127 -77 -63 127 -54 120 127 -4
-127 -19 -40 127 10 -107 127 82
-15 117 -127 5 -101 -127 -71 127
-87 127 101 59 -36 -21 -127 -127
96 -105 127 -80 89 -99 30 -127
-68 -4 127 81 122 -127 20 127
-88 -127 119 50 -93 127 63 85
127 -60 80 -106 127 -42 127 -1
-111 -127 124 127 50 101 127 -13
-25 -127 52 -81 115 -127 -14 74
24 -127 127 42 95 -127 90 -49
127 105 -34 127 -19 -108 42 -83
127 25 -34 127 87 127 -101 9
-127 -47 127 -121 -64 -12 127 5
127 -16 42 -3 -21 127 -99 113
127 -66 81 127 -55 -127 -60 52
-127 -19 127 -27 -33 20 127 16
-112 127 -18 4 127 21 -81 38
127 -44 127 -11 127 -46 -12 -56
127 -104 -127 -8 -29 -127 -20 98
1 -64 -127 -127 53 -111 127 -64
-75 97 127 6 127 -73 50 127
-76 -78 24 -127 94 -127 -57 -27
127 -52 -99 118 -127 105 -27 48
-127 -82 -88 -127 -6 -50 127 -69
-9 -127 18 127 48 6 -63 127
-126 127 86 23 -35 127 -43 31
127 16 116 127 24 127 14 -21
00000000: 7b7f e562 810b 5c81 7491 8182 7ff4 83fe
00000010: 818f 7f00 15d4 657f 1a7f 08b5 81d4 75fe
00000020: 7fb3 c17f ca78 7ffc 81ed d87f 0a95 7f52
00000030: f175 8105 9b81 b97f a97f 653b dceb 8181
00000040: 6097 7fb0 599d 1e81 bcfc 7f51 7a81 147f
00000050: a881 7732 a37f 3f55 7fc4 5096 7fd6 7fff
00000060: 9181 7c7f 3265 7ff3 e781 34af 7381 f24a
00000070: 1881 7f2a 5f81 5acf 7f69 de7f ed94 2aad
00000080: 7f19 de7f 577f 9b09 81d1 7f87 c0f4 7f05
00000090: 7ff0 2afd eb7f 9d71 7fbe 517f c981 c434
000000a0: 81ed 7fe5 df14 7f10 907f ee04 7f15 af26
000000b0: 7fd4 7ff5 7fd2 f4c8 7f98 81f8 e381 ec62
000000c0: 01c0 8181 3591 7fc0 b561 7f06 7fb7 327f
000000d0: b4b2 1881 5e81 c7e5 7fcc 9d76 8169 e530
000000e0: 81ae a881 face 7fbb f781 127f 3006 c17f
000000f0: 827f 5617 dd7f d51f 7f10 747f 187f 0eeb

sequential_1/lstm_1/Read_2/ReadVariableOp1 i1 [256] scale=0.0040731477 zero_point=-126
0.020365737 0.020365737 0.008146295 0.01629259 0.008146295 0.01629259 0.061097216 0.03258518
0.020365737 0.012219443 0.01629259 0.01629259 0.01629259 0.020365737 0.01629259 0.012219443
0.0040731477 0.036658328 0.020365737 0.036658328 0.01629259 0.012219443 0.040731475 0.020365737
0.012219443 0.040731475 0.008146295 0.012219443 0.012219443 0.036658328 0.020365737 0.020365737
0.03258518 0.024438886 0.012219443 0.024438886 0.03258518 0.01629259 0.024438886 0.008146295
0.012219443 0.024438886 0.05702407 0.020365737 0.020365737 0.024438886 0.028512035 0.036658328
0.040731475 0.020365737 0.0 0.008146295 0.028512035 0.020365737 0.028512035 0.03258518
0.0 0.012219443 -0.0040731477 0.01629259 0.020365737 0.020365737 0.012219443 0.012219443
1.0142138 1.0060675 1.0223601 1.0060675 1.0223601 1.0101407 1.0264332 1.0264332
1.0223601 1.0060675 1.0142138 1.0101407 1.0060675 1.0264332 1.0060675 1.018287
1.0223601 1.0142138 1.0101407 1.0101407 1.0142138 1.0101407 1.018287 1.018287
1.018287 1.018287 1.0223601 1.0142138 1.0264332 1.0142138 1.0101407 1.0142138
1.0264332 1.0142138 1.0142138 1.0223601 1.018287 1.0060675 1.0264332 1.018287
1.0142138 1.0101407 1.0142138 1.0142138 1.0060675 1.0142138 1.0060675 1.0305064
1.0142138 1.0060675 1.018287 0.99792117 1.0223601 1.0019944 1.0142138 1.0305064
1.0019944 1.0101407 1.018287 1.0223601 1.0101407 1.0101407 1.0060675 1.0060675
0.0 0.0 0.008146295 0.0 0.0 0.0 0.0 -0.008146295
0.0040731477 -0.0040731477 0.0040731477 0.0040731477 0.0 0.0 0.0 0.0
0.0040731477 -0.0040731477 0.0 -0.008146295 -0.0040731477 0.0 -0.008146295 -0.0040731477
0.0040731477 -0.008146295 0.0 -0.0040731477 0.0040731477 0.0 0.0040731477 0.0040731477
0.012219443 0.0 0.0 0.008146295 0.008146295 0.012219443 0.0 0.0
-0.008146295 0.0 0.0 -0.0040731477 -0.0040731477 0.008146295 0.0040731477 0.0040731477
0.0040731477 0.0040731477 -0.008146295 -0.0040731477 -0.008146295 0.0 0.0040731477 -0.0040731477
-0.0040731477 0.008146295 0.0 0.0 -0.008146295 0.0 0.008146295 0.012219443
0.024438886 0.040731475 0.020365737 0.020365737 0.028512035 0.028512035 0.06924351 0.036658328
0.03258518 0.024438886 0.03258518 0.020365737 0.040731475 0.024438886 0.024438886 0.01629259
0.01629259 0.036658328 0.03258518 0.044804625 0.01629259 0.01629259 0.036658328 0.028512035
0.024438886 0.040731475 0.024438886 0.024438886 0.028512035 0.048877772 0.020365737 0.036658328
0.028512035 0.036658328 0.024438886 0.044804625 0.036658328 0.03258518 0.03258518 0.028512035
0.03258518 0.05295092 0.044804625 0.040731475 0.024438886 0.03258518 0.024438886 0.036658328
0.05295092 0.05702407 0.020365737 0.012219443 0.03258518 0.020365737 0.03258518 0.020365737
0.01629259 0.024438886 0.008146295 0.028512035 0.036658328 0.01629259 0.028512035 0.024438886
00000000: 8787 8486 8486 918a 8785 8686 8687 8685
00000010: 838b 878b 8685 8c87 858c 8485 858b 8787
00000020: 8a88 8588 8a86 8884 8588 9087 8788 898b
00000030: 8c87 8284 8987 898a 8285 8186 8787 8585
00000040: 7b79 7d79 7d7a 7e7e 7d79 7b7a 797e 797c
00000050: 7d7b 7a7a 7b7a 7c7c 7c7c 7d7b 7e7b 7a7b
00000060: 7e7b 7b7d 7c79 7e7c 7b7a 7b7b 797b 797f
00000070: 7b79 7c77 7d78 7b7f 787a 7c7d 7a7a 7979
00000080: 8282 8482 8282 8280 8381 8383 8282 8282
00000090: 8381 8280 8182 8081 8380 8281 8382 8383
000000a0: 8582 8284 8485 8282 8082 8281 8184 8383
000000b0: 8383 8081 8082 8381 8184 8282 8082 8485
000000c0: 888c 8787 8989 938b 8a88 8a87 8c88 8886
000000d0: 868b 8a8d 8686 8b89 888c 8888 898e 878b
000000e0: 898b 888d 8b8a 8a89 8a8f 8d8c 888a 888b
000000f0: 8f90 8785 8a87 8a87 8688 8489 8b86 8988

while/MatMul i1 [256, 512] scale=0.0019008932 zero_point=0
0.026612505 -0.074134834 -0.013306253 -0.04752233 -0.032315183 -0.017108038 -0.013306253 0.074134834
0.112152696 -0.043720543 0.11785538 -0.05322501 -0.051324114 0.07223394 0.06843215 0.081738405
-0.06843215 -0.074134834 -0.032315183 0.0038017863 0.043720543 0.08744109 0.04752233 -0.05322501
0.06843215 -0.01900893 0.09504466 0.09314377 -0.074134834 -0.03611697 -0.022810718 0.07603572
-0.051324114 -0.0836393 0.10645002 0.017108038 -0.03611697 -0.04752233 0.09124287 -0.02471161
0.04752233 0.034216076 -0.020909825 0.10074734 0.12355806 -0.043720543 0.051324114 -0.06653126
0.096945554 0.01900893 0.028513398 -0.017108038 -0.03611697 -0.074134834 0.09884644 -0.03801786
-0.034216076 0.09504466 0.01900893 0.055125903 0.057026796 0.06843215 0.020909825 -0.1672786
-0.06653126 0.04752233 -0.10645002 0.01900893 0.06463037 0.02471161 0.028513398 0.03801786
0.026612505 0.08554019 0.10074734 -0.015207145 -0.043720543 0.07223394 -0.10264823 0.009504465
0.09314377 0.04942322 -0.07223394 0.10264823 -0.022810718 0.04942322 0.034216076 0.06463037
0.043720543 0.03611697 -0.032315183 0.034216076 0.081738405 0.020909825 0.043720543 0.01900893
0.0 -0.051324114 0.04942322 -0.04752233 0.013306253 -0.015207145 -0.03041429 0.03801786
0.09124287 -0.011405359 -0.04942322 -0.03611697 -0.04752233 0.09504466 0.0057026795 -0.020909825
0.12545896 -0.089341976 0.03041429 0.09504466 0.06463037 0.026612505 0.026612505 -0.009504465
-0.03801786 -0.05322501 -0.0057026795 0.057026796 0.07603572 0.096945554 -0.06082858 0.02471161
0.043720543 0.026612505 -0.0076035727 -0.017108038 0.0 0.08744109 0.081738405 -0.026612505
0.06463037 -0.039918758 -0.03611697 -0.01900893 0.06843215 -0.026612505 0.017108038 -0.015207145
-0.06653126 0.09314377 0.043720543 -0.06082858 -0.05892769 -0.020909825 0.08554019 0.057026796
-0.05322501 0.020909825 0.05892769 0.017108038 0.06082858 0.07603572 0.03041429 0.081738405
-0.03041429 0.07223394 0.13116163 -0.017108038 -0.079837516 0.07033305 0.017108038 0.043720543
-0.034216076 0.020909825 -0.022810718 0.10074734 -0.02471161 -0.011405359 -0.009504465 0.079837516
0.0057026795 -0.06653126 -0.04942322 0.032315183 0.08554019 0.06463037 0.020909825 -0.034216076
0.0057026795 0.06843215 0.05892769 0.017108038 0.011405359 -0.04181965 0.013306253 -0.0076035727
0.06272948 -0.01900893 -0.013306253 -0.034216076 0.06272948 0.03801786 0.081738405 -0.06082858
0.0019008932 0.10074734 0.07223394 0.07603572 0.022810718 0.089341976 0.020909825 0.0
0.043720543 0.06082858 -0.011405359 0.03041429 0.05322501 0.079837516 0.06843215 0.09314377
0.04942322 0.10264823 0.020909825 -0.0057026795 0.026612505 0.05892769 -0.03801786 0.017108038
0.06653126 -0.02471161 0.06082858 0.017108038 -0.015207145 0.011405359 0.043720543 0.09504466
0.12545896 0.026612505 -0.07223394 0.034216076 0.07793662 0.022810718 -0.020909825 0.12735984
0.12545896 0.089341976 -0.015207145 0.074134834 -0.01900893 0.112152696 -0.0057026795 0.09314377
-0.013306253 0.04752233 -0.039918758 -0.028513398 0.112152696 0.043720543 0.11025181 -0.0057026795
00000000: 0ed9 f9e7 eff7 f927 3be9 3ee4 e526 242b
00000010: dcd9 ef02 172e 19e4 24f6 3231 d9ed f428
00000020: e5d4 3809 ede7 30f3 1912 f535 41e9 1bdd
00000030: 330a 0ff7 edd9 34ec ee32 0a1d 1e24 0ba8
00000040: dd19 c80a 220d 0f14 0e2d 35f8 e926 ca05
00000050: 311a da36 f41a 1222 1713 ef12 2b0b 170a
00000060: 00e5 1ae7 07f8 f014 30fa e6ed e732 03f5
00000070: 42d1 1032 220e 0efb ece4 fd1e 2833 e00d
00000080: 170e fcf7 002e 2bf2 22eb edf6 24f2 09f8
00000090: dd31 17e0 e1f5 2d1e e40b 1f09 2028 102b
000000a0: f026 45f7 d625 0917 ee0b f435 f3fa fb2a
000000b0: 03dd e611 2d22 0bee 0324 1f09 06ea 07fc
000000c0: 21f6 f9ee 2114 2be0 0135 2628 0c2f 0b00
000000d0: 1720 fa10 1c2a 2431 1a36 0bfd 0e1f ec09
000000e0: 23f3 2009 f806 1732 420e da12 290c f543
000000f0: 422f f827 f63b fd31 f919 ebf1 3b17 3afd

while/MatMul_11 i1 [256, 64] scale=0.0020906676 zero_point=0
0.091989376 -0.089898705 0.031360015 0.094080046 -0.04390402 -0.06062936 0.03554135 -0.020906676
0.012544006 0.0773547 0.03554135 0.06690136 -0.01881601 -0.020906676 0.0773547 0.04390402
-0.03345068 0.0773547 -0.039722685 0.06481069 -0.054357357 0.03763202 0.03763202 0.04390402
0.03345068 -0.11707739 0.01672534 0.10453338 -0.04181335 -0.16516274 0.04390402 -0.0710827
-0.01672534 0.04181335 -0.06690136 0.14634673 0.10453338 -0.06062936 0.006272003 -0.031360015
0.058538694 -0.07317337 -0.09617071 0.06899203 0.03763202 0.08571737 0.04181335 -0.022997344
-0.0773547 0.06690136 -0.11498672 0.0146346735 0.029269347 -0.039722685 -0.06690136 -0.0773547
0.01881601 0.039722685 -0.0836267 0.07526404 -0.004181335 0.00836267 0.022997344 -0.03763202
0.09617071 -0.022997344 -0.08780804 0.031360015 0.05226669 0.06062936 0.0146346735 -0.08571737
-0.10453338 -0.06899203 0.0020906676 0.058538694 0.029269347 0.06062936 0.10244271 0.054357357
0.108714715 0.022997344 -0.025088012 0.10244271 0.045994688 0.0 0.06062936 0.07526404
-0.12125872 0.06272003 -0.0020906676 0.12125872 0.06690136 0.029269347 0.106624044 -0.07526404
-0.11289605 0.0710827 -0.13589339 0.020906676 -0.08153604 -0.058538694 0.13589339 0.050176024
0.07944537 -0.027178679 0.058538694 0.03345068 0.08153604 -0.19025075 -0.03554135 -0.031360015
0.012544006 0.10035205 -0.04390402 -0.0836267 0.048085354 0.01672534 -0.006272003 -0.07526404
0.08571737 -0.03763202 0.06272003 0.010453338 -0.020906676 -0.004181335 0.0710827 -0.03763202
0.0 0.0 -0.029269347 0.039722685 0.110805385 -0.00836267 0.06272003 -0.045994688
-0.006272003 -0.012544006 0.031360015 0.022997344 -0.012544006 -0.022997344 0.10035205 0.089898705
0.039722685 0.058538694 0.06272003 0.0 0.03345068 0.058538694 0.0146346735 0.04181335
-0.027178679 -0.07944537 -0.11707739 0.0773547 -0.03763202 -0.031360015 0.1609814 0.027178679
0.0836267 -0.06272003 -0.0836267 -0.04181335 -0.12544006 -0.027178679 0.06899203 -0.050176024
-0.01672534 0.10035205 -0.027178679 0.048085354 -0.004181335 0.025088012 -0.06062936 0.004181335
0.06272003 -0.039722685 0.04390402 0.012544006 -0.12753072 0.06481069 -0.13380273 0.07944537
0.08571737 -0.058538694 -0.03554135 0.07317337 0.050176024 -0.07944537 -0.1609814 -0.12125872
-0.00836267 -0.004181335 0.0773547 -0.12125872 0.18816009 0.010453338 0.09826138 0.04181335
-0.06272003 -0.09617071 0.05226669 -0.00836267 0.108714715 -0.050176024 0.039722685 0.06062936
-0.058538694 0.0146346735 -0.020906676 -0.029269347 -0.15261874 -0.06899203 0.031360015 0.089898705
0.03554135 -0.15052807 0.11707739 0.03554135 -0.050176024 -0.0710827 0.10244271 -0.027178679
-0.056448024 0.11498672 0.0020906676 0.058538694 -0.0710827 0.0020906676 -0.039722685 -0.0773547
0.004181335 -0.03554135 0.012544006 -0.03763202 0.020906676 -0.01672534 -0.039722685 -0.06481069
-0.0020906676 0.039722685 -0.09617071 0.004181335 0.094080046 0.0836267 -0.094080046 -0.058538694
-0.027178679 -0.004181335 -0.08780804 -0.012544006 -0.06899203 -0.04181335 0.07944537 0.020906676
00000000: 2cd5 0f2d ebe3 11f6 0625 1120 f7f6 2515
00000010: f025 ed1f e612 1215 10c8 0832 ecb1 15de
00000020: f814 e046 32e3 03f1 1cdd d221 1229 14f5
00000030: db20 c907 0eed e0db 0913 d824 fe04 0bee
00000040: 2ef5 d60f 191d 07d7 cedf 011c 0e1d 311a
00000050: 340b f431 1600 1d24 c61e ff3a 200e 33dc
00000060: ca22 bf0a d9e4 4118 26f3 1c10 27a5 eff1
00000070: 0630 ebd8 1708 fddc 29ee 1e05 f6fe 22ee
00000080: 0000 f213 35fc 1eea fdfa 0f0b faf5 302b
00000090: 131c 1e00 101c 0714 f3da c825 eef1 4d0d
000000a0: 28e2 d8ec c4f3 21e8 f830 f317 fe0c e302
000000b0: 1eed 1506 c31f c026 29e4 ef23 18da b3c6
000000c0: fcfe 25c6 5a05 2f14 e2d2 19fc 34e8 131d
000000d0: e407 f6f2 b7df 0f2b 11b8 3811 e8de 31f3
000000e0: e537 011c de01 eddb 02ef 06ee 0af8 ede1
000000f0: ff13 d202 2d28 d3e4 f3fe d6fa dfec 260a
