evaluation-code/output/models/tflite/ConvLSTM_one_conv_layers_horizontal_kernel_lstm_128units_framesize_5_20230622-110617.tflite (tflite, 676152 bytes, 5 tensors)

sequential_14/dense_14/MatMul i1 [10, 128] scale=0.0023290021 zero_point=0
-0.16535915 -0.018632017 0.123437114 0.17467517 -0.13974012 0.27482226 -0.13974012 -0.046580043
-0.05356705 0.09781809 -0.2142682 -0.079186074 -0.081515074 -0.03493503 0.2165972 0.24920323
-0.1048051 -0.18864918 0.17700416 0.08850208 -0.1071341 -0.11877911 -0.095489085 -0.1117921
-0.29578328 -0.28413826 0.11877911 -0.039593037 -0.011645011 -0.013974013 0.23988722 0.048909046
0.016303014 0.2119392 -0.03493503 -0.06987006 0.081515074 0.10014709 -0.123437114 -0.07452807
-0.14206913 -0.17234616 -0.1048051 0.048909046 -0.20728119 0.09781809 0.11645011 -0.23057121
-0.05356705 -0.093160085 0.16303015 -0.16303015 -0.09781809 -0.018632017 -0.14672713 -0.19330718
0.14672713 -0.1071341 -0.123437114 0.095489085 -0.011645011 -0.032606028 -0.02096102 0.10247609
-0.19097817 0.048909046 0.018632017 -0.1048051 0.03493503 -0.123437114 -0.2165972 -0.10014709
0.016303014 -0.025619023 0.04425104 -0.039593037 -0.1117921 -0.26550624 -0.08384408 -0.046580043
-0.15837215 -0.090831086 0.093160085 -0.14439814 -0.06754106 0.081515074 -0.095489085 0.13275312
-0.07452807 -0.06987006 -0.16535915 -0.048909046 0.14439814 -0.12576611 0.10014709 0.037264034
0.24920323 0.16303015 -0.14905614 0.18864918 -0.060554057 0.1071341 -0.032606028 0.037264034
0.023290021 0.081515074 -0.17234616 0.02096102 -0.08850208 0.060554057 0.0046580043 0.0069870064
-0.11877911 -0.10247609 0.2142682 0.2142682 0.11645011 0.13741113 -0.11877911 0.08384408
0.17001715 -0.06987006 -0.039593037 -0.07685707 0.17467517 0.08850208 -0.07452807 0.030277029
0.030277029 0.2282422 -0.20495218 0.15138514 0.06987006 -0.05589605 0.25619024 -0.08617308
-0.07685707 -0.06288306 -0.23290022 0.2119392 0.079186074 0.15604314 0.2282422 0.07452807
-0.06987006 0.060554057 0.12809512 0.17700416 -0.081515074 0.0046580043 0.16535915 0.048909046
-0.03493503 -0.05589605 -0.03493503 0.16768816 -0.06754106 -0.18399116 -0.12576611 0.08850208
-0.1117921 -0.081515074 0.17700416 0.14206913 -0.23290022 -0.030277029 0.13974012 0.16535915
0.13042411 0.06987006 0.046580043 -0.08850208 -0.046580043 -0.16303015 -0.28879628 -0.13042411
-0.06987006 -0.17234616 -0.079186074 -0.16768816 -0.15371414 0.13508213 0.20029418 0.24687423
-0.09781809 0.18166217 0.26550624 0.18166217 0.20728119 -0.2212552 -0.048909046 -0.17234616
0.0 -0.037264034 -0.0046580043 -0.093160085 -0.19097817 -0.1048051 -0.06754106 -0.079186074
0.16303015 0.07452807 -0.093160085 -0.123437114 -0.095489085 0.081515074 0.27482226 -0.03493503
-0.2142682 0.23290022 0.2212552 -0.02096102 -0.07219907 -0.23988722 0.07452807 -0.081515074
-0.123437114 -0.16535915 0.027948026 0.13974012 -0.26550624 0.2096102 -0.1094631 -0.25386122
-0.15138514 -0.079186074 0.18399116 -0.058225054 -0.17001715 -0.18632017 -0.24687423 -0.090831086
-0.06987006 0.051238045 -0.08384408 0.046580043 0.14672713 0.24920323 0.18166217 -0.26084822
0.23522921 -0.23290022 0.1048051 0.22591321 -0.12809512 -0.19563618 0.123437114 -0.065212056
0.090831086 0.19097817 -0.19097817 -0.04425104 0.060554057 -0.13741113 0.060554057 0.17933317
00000000: b9f8 354b c476 c4ec e92a a4de ddf1 5d6b
00000010: d3af 4c26 d2cd d7d0 8186 33ef fbfa 6715
00000020: 075b f1e2 232b cbe0 c3b6 d315 a72a 329d
00000030: e9d8 46ba d6f8 c1ad 3fd2 cb29 fbf2 f72c
00000040: ae15 08d3 0fcb a3d5 07f5 13ef d08e dcec
00000050: bcd9 28c2 e323 d739 e0e2 b9eb 3eca 2b10
00000060: 6b46 c051 e62e f210 0a23 b609 da1a 0203
00000070: cdd4 5c5c 323b cd24 49e2 efdf 4b26 e00d
00000080: 0d62 a841 1ee8 6edb dfe5 9c5b 2243 6220
00000090: e21a 374c dd02 4715 f1e8 f148 e3b1 ca26
000000a0: d0dd 4c3d 9cf3 3c47 381e 14da ecba 84c8
000000b0: e2b6 deb8 be3a 566a d64e 724e 59a1 ebb6
000000c0: 00f0 fed8 aed3 e3de 4620 d8cb d723 76f1
000000d0: a464 5ff7 e199 20dd cbb9 0c3c 8e5a d193
000000e0: bfde 4fe7 b7b0 96d9 e216 dc14 3f6b 4e90
000000f0: 659c 2d61 c9ac 35e4 2752 aeed 1ac5 1a4d

sequential_14/time_distributed_41/conv2d_21/Conv2D i1 [128, 3, 1, 1]
-127 32 38 -76 -127 108 127 -116
-102 10 127 121 -127 18 -79 -93
-90 127 69 -107 127 15 -127 76
108 -127 -22 -24 127 11 -48 127
52 -105 41 -127 80 -93 127 -54
-117 127 88 127 -48 -53 40 127
127 -2 -18 13 -127 54 -123 -99
-127 84 -53 127 -22 127 -105 127
35 -24 -6 120 -127 127 -32 63
-127 33 51 -7 -127 -92 53 -127
-91 127 91 -34 -72 22 -127 86
-127 -62 119 127 -24 -5 10 127
110 127 60 -18 -17 -127 32 127
-50 -5 91 127 -127 40 38 67
127 125 -94 5 127 73 127 -59
87 -127 -8 -93 127 123 36 -127
-93 127 -43 60 127 -22 24 -123
121 127 -119 -127 -65 80 -56 127
-36 127 64 127 52 57 -97 13
-127 -7 127 35 108 -101 127 127
99 116 -127 15 16 127 127 48
127 7 26 88 -58 127 -13 -127
-40 -73 13 -127 -127 -19 -33 127
109 67 43 60 -127 12 -127 -72
127 91 -118 -18 127 5 79 -80
127 15 -9 127 -98 -120 127 127
-110 102 127 -37 50 71 -21 127
114 9 127 -81 -127 -103 120 -127
-56 -62 72 -127 -127 -105 -94 -52
58 127 9 -123 -127 117 -100 127
127 54 34 16 -109 -127 127 113
12 62 -36 127 113 127 -8 47
00000000: 8120 26b4 816c 7f8c 9a0a 7f79 8112 b1a3
00000010: a67f 4595 7f0f 814c 6c81 eae8 7f0b d07f
00000020: 3497 2981 50a3 7fca 8b7f 587f d0cb 287f
00000030: 7ffe ee0d 8136 859d 8154 cb7f ea7f 977f
00000040: 23e8 fa78 817f e03f 8121 33f9 81a4 3581
00000050: a57f 5bde b816 8156 81c2 777f e8fb 0a7f
00000060: 6e7f 3cee ef81 207f cefb 5b7f 8128 2643
00000070: 7f7d a205 7f49 7fc5 5781 f8a3 7f7b 2481
00000080: a37f d53c 7fea 1885 797f 8981 bf50 c87f
00000090: dc7f 407f 3439 9f0d 81f9 7f23 6c9b 7f7f
000000a0: 6374 810f 107f 7f30 7f07 1a58 c67f f381
000000b0: d8b7 0d81 81ed df7f 6d43 2b3c 810c 81b8
000000c0: 7f5b 8aee 7f05 4fb0 7f0f f77f 9e88 7f7f
000000d0: 9266 7fdb 3247 eb7f 7209 7faf 8199 7881
000000e0: c8c2 4881 8197 a2cc 3a7f 0985 8175 9c7f
000000f0: 7f36 2210 9381 7f71 0c3e dc7f 717f f82f

sequential_14/lstm_9/Read_2/ReadVariableOp1 i1 [512] scale=0.004104422 zero_point=-124
0.016417688 0.02462653 0.016417688 0.028730953 0.004104422 0.028730953 0.028730953 0.016417688
0.02462653 0.02052211 0.012313265 0.028730953 0.016417688 0.016417688 0.02462653 0.016417688
0.004104422 0.016417688 0.02052211 0.016417688 0.004104422 0.02462653 0.04104422 0.032835376
0.016417688 0.016417688 0.016417688 0.032835376 0.012313265 0.016417688 0.016417688 -0.016417688
0.02052211 0.032835376 0.02462653 0.028730953 0.02052211 0.008208844 0.028730953 0.02462653
0.02052211 0.008208844 0.02052211 0.028730953 0.028730953 0.016417688 0.02052211 0.036939796
0.02462653 0.008208844 0.028730953 0.057461906 0.008208844 0.02052211 0.02462653 0.012313265
0.032835376 0.02462653 0.012313265 0.02462653 0.008208844 0.016417688 0.0 0.032835376
0.016417688 0.02052211 0.028730953 0.008208844 0.004104422 0.004104422 0.028730953 0.016417688
0.008208844 0.02462653 0.02052211 0.012313265 0.028730953 0.04514864 0.0 0.02052211
0.028730953 0.032835376 0.008208844 0.04104422 0.032835376 0.012313265 0.016417688 0.028730953
0.008208844 0.004104422 0.012313265 0.02462653 0.028730953 0.02462653 0.032835376 0.02052211
0.012313265 0.02462653 0.012313265 0.012313265 0.008208844 0.016417688 0.02052211 0.016417688
0.016417688 0.02052211 0.004104422 0.02052211 0.02462653 0.004104422 0.008208844 0.02052211
0.012313265 0.004104422 0.012313265 0.02462653 0.004104422 0.0 0.028730953 0.012313265
0.012313265 0.008208844 0.008208844 0.0 0.032835376 0.012313265 0.016417688 0.016417688
1.0137923 1.0096878 0.99737453 1.0055834 0.99737453 1.0178967 1.0096878 1.0055834
1.022001 1.0055834 1.022001 1.0261055 1.0014789 1.0096878 1.0055834 1.0096878
1.0137923 1.0096878 1.0178967 1.0137923 1.0055834 1.0096878 1.0178967 1.022001
1.0055834 1.0137923 1.0055834 1.0261055 1.0137923 1.0137923 1.0096878 0.99737453
1.0137923 1.0178967 1.0055834 1.0096878 1.0178967 1.0055834 1.0096878 1.0178967
1.0137923 1.0137923 1.0055834 1.0055834 1.0137923 1.0014789 1.0014789 1.0178967
1.0178967 1.0137923 0.99737453 1.0137923 1.0137923 1.0096878 1.0261055 1.0137923
1.0302099 1.0178967 1.0055834 1.0137923 1.0096878 1.0137923 1.0014789 1.0137923
1.0055834 1.0137923 1.0178967 1.0096878 1.0014789 1.0014789 1.0096878 1.0055834
1.0055834 1.0178967 1.0096878 1.0055834 1.0137923 1.0137923 1.0096878 1.0137923
1.0137923 1.0096878 1.0014789 1.0178967 1.0096878 1.0055834 1.0055834 1.0178967
1.0055834 1.0096878 1.0055834 1.022001 1.0055834 1.0137923 1.0302099 1.0096878
1.0055834 1.0137923 1.0137923 1.0096878 1.0178967 1.0178967 1.0137923 1.0096878
1.0096878 1.0178967 0.98916566 1.0055834 1.0096878 1.0137923 1.0014789 1.0014789
1.0096878 0.99737453 1.0055834 1.0137923 1.0055834 1.0055834 1.0096878 1.0096878
1.0096878 1.0014789 1.0055834 0.99737453 1.0055834 1.0014789 1.0096878 1.0137923
00000000: 888a 888b 858b 8b88 8a89 878b 8888 8a88
00000010: 8588 8988 858a 8e8c 8888 888c 8788 8880
00000020: 898c 8a8b 8986 8b8a 8986 898b 8b88 898d
00000030: 8a86 8b92 8689 8a87 8c8a 878a 8688 848c
00000040: 8889 8b86 8585 8b88 868a 8987 8b8f 8489
00000050: 8b8c 868e 8c87 888b 8685 878a 8b8a 8c89
00000060: 878a 8787 8688 8988 8889 8589 8a85 8689
00000070: 8785 878a 8584 8b87 8786 8684 8c87 8888
00000080: 7b7a 7779 777c 7a79 7d79 7d7e 787a 797a
00000090: 7b7a 7c7b 797a 7c7d 797b 797e 7b7b 7a77
000000a0: 7b7c 797a 7c79 7a7c 7b7b 7979 7b78 787c
000000b0: 7c7b 777b 7b7a 7e7b 7f7c 797b 7a7b 787b
000000c0: 797b 7c7a 7878 7a79 797c 7a79 7b7b 7a7b
000000d0: 7b7a 787c 7a79 797c 797a 797d 797b 7f7a
000000e0: 797b 7b7a 7c7c 7b7a 7a7c 7579 7a7b 7878
000000f0: 7a77 797b 7979 7a7a 7a78 7977 7978 7a7b

while/MatMul i1 [512, 1152] scale=0.0015833678 zero_point=0
-0.0047501037 0.026917253 0.011083575 0.052251138 -0.045917667 -0.02850062 0.066501446 0.012666943
-0.0031667356 0.02850062 0.03483409 0.0063334713 -0.011083575 0.047501035 0.0443343 0.025333885
-0.042750932 0.009500207 -0.0443343 0.025333885 -0.052251138 -0.023750518 0.011083575 0.055417873
0.0047501037 -0.039584197 -0.05700124 0.07758503 0.023750518 -0.042750932 -0.017417045 0.042750932
0.0443343 -0.0031667356 0.023750518 0.049084403 -0.045917667 0.049084403 0.055417873 0.045917667
0.017417045 0.015833678 -0.055417873 -0.03800083 -0.017417045 0.033250723 -0.05858461 0.012666943
0.039584197 0.074418284 -0.0047501037 -0.01425031 0.026917253 0.033250723 0.020583782 0.052251138
0.07600166 0.026917253 0.0031667356 -0.030083988 0.011083575 0.0063334713 0.025333885 -0.031667355
0.007916839 -0.02216715 -0.017417045 0.060167976 -0.0015833678 -0.017417045 0.05700124 0.030083988
0.009500207 0.039584197 -0.011083575 -0.015833678 -0.007916839 0.020583782 0.0 0.049084403
-0.01425031 -0.033250723 0.060167976 0.02216715 0.0015833678 0.025333885 0.026917253 -0.01425031
-0.0031667356 0.05066777 0.05066777 -0.03641746 0.06333471 0.0015833678 0.015833678 0.07758503
0.02216715 -0.039584197 -0.053834505 0.05858461 0.030083988 0.045917667 0.042750932 -0.0047501037
-0.052251138 -0.02216715 -0.042750932 -0.023750518 0.052251138 0.06808481 -0.017417045 -0.015833678
0.045917667 -0.011083575 -0.05066777 -0.0031667356 -0.01425031 -0.05858461 -0.03800083 0.007916839
-0.020583782 0.039584197 0.0031667356 -0.02216715 0.049084403 0.015833678 -0.05700124 0.06491808
0.03800083 -0.03483409 0.023750518 0.03800083 0.041167565 0.019000415 0.012666943 0.02850062
0.0063334713 -0.0063334713 0.030083988 0.055417873 0.055417873 0.02850062 0.0443343 0.007916839
-0.030083988 0.08233513 -0.017417045 0.025333885 0.045917667 -0.01425031 0.0047501037 0.007916839
-0.041167565 -0.045917667 -0.0047501037 -0.020583782 0.045917667 -0.007916839 -0.015833678 0.03800083
-0.020583782 0.041167565 0.0443343 0.0031667356 -0.031667355 0.033250723 0.049084403 -0.017417045
0.015833678 -0.047501035 -0.0015833678 0.060167976 0.025333885 -0.03641746 -0.05858461 0.066501446
-0.017417045 0.045917667 0.053834505 -0.01425031 0.066501446 -0.01425031 0.0015833678 0.06491808
0.011083575 -0.015833678 0.060167976 -0.0031667356 0.03800083 0.0015833678 0.10608564 0.009500207
0.0015833678 0.042750932 -0.0031667356 -0.020583782 0.033250723 0.053834505 0.03483409 0.05700124
-0.023750518 0.05066777 0.09500207 0.017417045 -0.03641746 0.011083575 0.041167565 -0.023750518
0.03641746 -0.0063334713 -0.012666943 -0.020583782 -0.03800083 0.030083988 0.012666943 0.08708523
0.060167976 -0.0047501037 0.047501035 -0.031667355 0.03483409 -0.017417045 -0.041167565 0.033250723
0.0047501037 0.05858461 0.026917253 0.060167976 -0.039584197 -0.0015833678 -0.020583782 0.02216715
-0.031667355 0.060167976 -0.049084403 0.06491808 -0.023750518 -0.05066777 0.049084403 0.045917667
0.13141952 -0.041167565 0.05066777 0.05700124 0.09658544 0.049084403 -0.0443343 -0.0443343
-0.026917253 -0.011083575 0.055417873 0.019000415 0.05066777 -0.0015833678 0.039584197 0.05066777
00000000: fd11 0721 e3ee 2a08 fe12 1604 f91e 1c10
00000010: e506 e410 dff1 0723 03e7 dc31 0fe5 f51b
00000020: 1cfe 0f1f e31f 231d 0b0a dde8 f515 db08
00000030: 192f fdf7 1115 0d21 3011 02ed 0704 10ec
00000040: 05f2 f526 fff5 2413 0619 f9f6 fb0d 001f
00000050: f7eb 260e 0110 11f7 fe20 20e9 2801 0a31
00000060: 0ee7 de25 131d 1bfd dff2 e5f1 212b f5f6
00000070: 1df9 e0fe f7db e805 f319 02f2 1f0a dc29
00000080: 18ea 0f18 1a0c 0812 04fc 1323 2312 1c05
00000090: ed34 f510 1df7 0305 e6e3 fdf3 1dfb f618
000000a0: f31a 1c02 ec15 1ff5 0ae2 ff26 10e9 db2a
000000b0: f51d 22f7 2af7 0129 07f6 26fe 1801 4306
000000c0: 011b fef3 1522 1624 f120 3c0b e907 1af1
000000d0: 17fc f8f3 e813 0837 26fd 1eec 16f5 e615
000000e0: 0325 1126 e7ff f30e ec26 e129 f1e0 1f1d
000000f0: 53e6 2024 3d1f e4e4 eff9 230c 20ff 1920

while/MatMul_11 i1 [512, 128] scale=0.0017083861 zero_point=0
-0.027334178 -0.010250317 -0.08029415 -0.017083861 0.017083861 -0.04441804 0.025625791 -0.0017083861
0.1110451 -0.0068335445 0.0495432 -0.015375475 -0.037584495 -0.0051251585 0.03075095 -0.051251583
0.032459337 -0.0068335445 0.046126425 0.0068335445 0.07687738 0.04783481 -0.059793513 -0.02220902
-0.0615019 -0.029042564 0.0017083861 -0.051251583 -0.03929288 0.064918675 -0.010250317 -0.042709652
0.013667089 0.041001268 0.041001268 0.07858576 -0.0119587025 0.07858576 -0.059793513 -0.015375475
0.07004383 0.041001268 0.03929288 0.08883608 -0.124712184 0.07004383 0.051251583 0.0034167722
-0.0495432 -0.037584495 -0.037584495 -0.013667089 -0.117878646 -0.09737801 -0.027334178 -0.023917405
0.032459337 -0.07004383 0.0085419305 -0.08883608 -0.027334178 0.054668356 0.013667089 -0.0085419305
-0.04441804 -0.020500634 0.10933671 -0.0119587025 -0.02220902 0.0734606 0.07004383 0.063210286
-0.041001268 -0.042709652 -0.0085419305 0.02220902 -0.063210286 -0.03075095 -0.015375475 -0.0051251585
-0.017083861 0.034167722 0.09566962 0.027334178 -0.04783481 0.054668356 0.03929288 -0.104211554
-0.04441804 -0.05637674 0.07516899 0.032459337 0.03587611 0.010250317 0.013667089 0.05295997
-0.0615019 0.0085419305 -0.0119587025 0.0 -0.0085419305 0.07175222 -0.0051251585 -0.018792247
0.08371092 0.037584495 -0.08883608 0.0085419305 -0.0051251585 -0.0034167722 -0.041001268 0.041001268
0.025625791 0.032459337 0.03075095 0.0 -0.068335444 0.063210286 -0.0017083861 -0.10933671
0.0068335445 0.0734606 0.0990864 0.025625791 -0.020500634 0.0495432 -0.018792247 -0.09566962
0.07004383 -0.029042564 0.0051251585 0.0495432 0.041001268 -0.015375475 0.05808513 -0.032459337
-0.10933671 0.034167722 -0.066627055 0.07175222 0.015375475 0.0034167722 0.046126425 -0.023917405
0.063210286 0.04441804 -0.1230038 0.023917405 0.11275348 -0.085419305 0.03929288 -0.042709652
-0.027334178 0.054668356 -0.054668356 0.020500634 0.05808513 -0.018792247 0.03075095 -0.03587611
0.041001268 -0.020500634 0.07516899 0.02220902 -0.020500634 0.0495432 0.02220902 0.04783481
0.0 0.05295997 0.037584495 -0.09054446 -0.051251583 -0.051251583 -0.121295415 0.0068335445
-0.16571346 0.10079478 0.063210286 -0.0119587025 -0.051251583 -0.082002535 0.02220902 0.0734606
-0.029042564 0.07516899 0.041001268 0.041001268 0.03929288 -0.027334178 0.03075095 0.085419305
-0.05637674 -0.015375475 -0.09737801 -0.0017083861 -0.07687738 -0.010250317 -0.066627055 0.029042564
0.029042564 -0.027334178 0.054668356 -0.11275348 -0.068335444 -0.023917405 0.063210286 0.03075095
-0.010250317 0.02220902 0.05808513 0.11617026 -0.037584495 0.05808513 -0.0495432 -0.054668356
0.015375475 0.032459337 -0.018792247 -0.018792247 0.03929288 0.13667089 -0.03075095 0.0085419305
0.05637674 -0.0017083861 -0.037584495 -0.041001268 -0.025625791 -0.023917405 -0.023917405 -0.025625791
-0.03587611 -0.082002535 -0.08883608 0.042709652 -0.018792247 0.085419305 0.051251583 -0.063210286
0.054668356 -0.05295997 0.023917405 0.018792247 0.034167722 0.029042564 0.0495432 -0.03587611
-0.13154574 -0.05808513 0.05637674 0.03075095 0.034167722 0.04783481 -0.015375475 0.0495432
00000000: f0fa d1f6 0ae6 0fff 41fc 1df7 eafd 12e2
00000010: 13fc 1b04 2d1c ddf3 dcef 01e2 e926 fae7
00000020: 0818 182e f92e ddf7 2918 1734 b729 1e02
00000030: e3ea eaf8 bbc7 f0f2 13d7 05cc f020 08fb
00000040: e6f4 40f9 f32b 2925 e8e7 fb0d dbee f7fd
00000050: f614 3810 e420 17c3 e6df 2c13 1506 081f
00000060: dc05 f900 fb2a fdf5 3116 cc05 fdfe e818
00000070: 0f13 1200 d825 ffc0 042b 3a0f f41d f5c8
00000080: 29ef 031d 18f7 22ed c014 d92a 0902 1bf2
00000090: 251a b80e 42ce 17e7 f020 e00c 22f5 12eb
000000a0: 18f4 2c0d f41d 0d1c 001f 16cb e2e2 b904
000000b0: 9f3b 25f9 e2d0 0d2b ef2c 1818 17f0 1232
000000c0: dff7 c7ff d3fa d911 11f0 20be d8f2 2512
000000d0: fa0d 2244 ea22 e3e0 0913 f5f5 1750 ee05
000000e0: 21ff eae8 f1f2 f2f1 ebd0 cc19 f532 1edb
000000f0: 20e1 0e0b 1411 1deb b3de 2112 141c f71d
