evaluation-code/output/models/tflite/ConvLSTM_two_conv_layers_lstm_64units_framesize_5_20230622-142741.tflite (tflite, 204984 bytes, 6 tensors)

sequential_25/dense_25/MatMul i1 [10, 64] scale=0.003517699 zero_point=0
0.2814159 0.18643804 0.123119466 -0.014070796 -0.003517699 0.23216814 0.20050885 -0.045730088
0.27789822 0.07035398 -0.06331858 0.091460176 0.18995574 -0.13015486 -0.3306637 0.2638274
-0.20754424 -0.3236283 -0.21106194 -0.26734513 -0.007035398 0.24623893 0.08794247 0.17588495
-0.11608407 0.014070796 -0.003517699 0.22865044 0.003517699 -0.109048665 -0.08090708 0.059800882
-0.06331858 0.23920353 -0.2638274 0.11608407 0.19699115 -0.014070796 0.16533186 0.16533186
0.028141592 0.3165929 -0.13719025 -0.23568583 0.03165929 0.038694687 -0.06331858 -0.24623893
-0.23216814 -0.19347344 0.22161503 -0.17236724 0.12663716 -0.3130752 0.26734513 0.21457964
0.003517699 0.12663716 0.08442478 0.18995574 0.0 0.091460176 -0.26734513 -0.18643804
0.4010177 0.17940265 -0.3447345 0.091460176 -0.2743805 0.08794247 -0.28493363 0.12663716
-0.24975662 -0.22161503 0.19699115 -0.3412168 -0.3095575 -0.12663716 0.27789822 0.08090708
-0.12663716 0.27086282 -0.024623893 -0.13015486 -0.4115708 0.109048665 -0.052765485 0.16181415
-0.21457964 0.27789822 0.08442478 -0.2743805 -0.24623893 -0.18643804 -0.28493363 0.03165929
0.26734513 -0.3869469 -0.06331858 -0.2990044 0.44674778 -0.14070795 0.07387168 -0.3517699
-0.16181415 -0.04221239 0.3130752 -0.03517699 0.17236724 0.22513273 -0.21809733 0.3517699
0.11608407 -0.18995574 -0.13367257 0.27086282 -0.021106195 0.21457964 -0.3306637 0.3165929
-0.15829645 0.19699115 0.06683628 0.23920353 -0.24975662 0.10553097 -0.22865044 -0.291969
-0.049247786 -0.25679204 -0.17940265 -0.017588494 0.20754424 -0.18643804 0.15829645 -0.29548672
0.13367257 0.049247786 0.22161503 0.017588494 0.23216814 -0.25679204 0.16181415 0.35528758
-0.15829645 0.09849557 -0.045730088 0.028141592 -0.07387168 0.010553097 -0.109048665 0.3130752
0.09849557 -0.024623893 0.003517699 -0.007035398 -0.08442478 -0.18292035 0.3236283 0.08442478
-0.06331858 0.06331858 -0.21106194 0.08442478 -0.06331858 -0.14422566 -0.12663716 -0.19347344
0.08442478 0.12663716 0.27789822 0.2743805 -0.049247786 0.15477875 -0.24272123 -0.13015486
0.19699115 0.13719025 0.08442478 -0.014070796 0.08794247 -0.017588494 0.12663716 0.15829645
0.13367257 -0.059800882 0.017588494 0.3095575 0.11608407 -0.08442478 0.20402654 -0.06683628
-0.22513273 0.16181415 -0.14422566 -0.2638274 0.26030973 0.119601764 -0.25327432 -0.26734513
0.04221239 0.23216814 0.27789822 0.049247786 -0.16884956 0.07035398 0.28493363 -0.17236724
-0.12663716 0.327146 -0.077389374 0.20402654 0.028141592 0.0 -0.3447345 0.08442478
0.10553097 -0.017588494 0.21106194 0.17236724 0.045730088 -0.017588494 -0.14422566 -0.052765485
0.13367257 0.17940265 -0.07035398 0.014070796 -0.14774336 -0.056283183 -0.18995574 -0.014070796
0.049247786 -0.16181415 0.0 0.16884956 0.23216814 0.18995574 -0.038694687 -0.23568583
-0.038694687 -0.15477875 -0.22865044 0.09497787 0.003517699 0.003517699 0.14070795 -0.22513273
0.19347344 0.003517699 0.14774336 -0.16884956 -0.2638274 -0.25327432 -0.077389374 0.15829645
00000000: 5035 23fc ff42 39f3 4f14 ee1a 36db a24b
00000010: c5a4 c4b4 fe46 1932 df04 ff41 01e1 e911
00000020: ee44 b521 38fc 2f2f 085a d9bd 090b eeba
00000030: bec9 3fcf 24a7 4c3d 0124 1836 001a b4cb
00000040: 7233 9e1a b219 af24 b9c1 389f a8dc 4f17
00000050: dc4d f9db 8b1f f12e c34f 18b2 bacb af09
00000060: 4c92 eeab 7fd8 159c d2f4 59f6 3140 c264
00000070: 21ca da4d fa3d a25a d338 1344 b91e bfad
00000080: f2b7 cdfb 3bcb 2dac 260e 3f05 42b7 2e65
00000090: d31c f308 eb03 e159 1cf9 01fe e8cc 5c18
000000a0: ee12 c418 eed7 dcc9 1824 4f4e f22c bbdb
000000b0: 3827 18fc 19fb 242d 26ef 0558 21e8 3aed
000000c0: c02e d7b5 4a22 b8b4 0c42 4f0e d014 51cf
000000d0: dc5d ea3a 0800 9e18 1efb 3c31 0dfb d7f1
000000e0: 2633 ec04 d6f0 cafc 0ed2 0030 4236 f5bd
000000f0: f5d4 bf1b 0101 28c0 3701 2ad0 b5b8 ea2d

sequential_25/time_distributed_74/conv2d_40/Conv2D i1 [128, 2, 2, 128]
-4 -56 -58 -20 42 -13 48 -64
9 14 -63 -1 -66 98 -48 -3
-13 -46 113 -43 67 18 -10 21
-60 -27 32 -50 -20 -34 -30 -34
-28 32 89 33 12 -53 57 124
-68 -67 56 51 17 -77 113 49
-30 41 -120 49 -86 -32 0 -90
-66 18 66 77 -21 37 11 -11
-39 4 14 27 -31 3 8 -21
2 1 14 -21 74 7 44 -49
110 15 53 95 -12 -21 -18 -110
58 -22 -30 12 -13 59 -3 -10
10 -31 14 -64 4 -66 -17 -52
-16 -71 58 -40 25 -15 64 -25
43 89 -19 42 55 2 -54 11
-100 16 3 24 -56 -45 -13 57
-38 39 26 61 10 34 67 37
-69 42 7 15 -42 -16 51 -49
-24 85 -5 -24 48 -39 -41 -13
-9 -40 1 -27 78 83 -36 -37
56 -44 35 -50 38 48 -55 -16
66 51 -4 39 -29 -80 -33 27
-12 14 -60 -27 28 -10 -29 -46
1 -43 -27 55 -52 25 -8 69
-26 -72 -53 -69 13 -22 -31 51
-55 57 -74 22 74 -5 -21 -87
9 -75 30 -42 75 9 -9 -47
-34 24 11 68 -49 60 -63 70
63 76 11 -6 -31 38 77 54
-7 -50 -49 12 -62 42 25 -42
20 -28 14 4 2 -47 29 5
13 -27 -53 -44 51 35 85 -2
00000000: fcc8 c6ec 2af3 30c0 090e c1ff be62 d0fd
00000010: f3d2 71d5 4312 f615 c4e5 20ce ecde e2de
00000020: e420 5921 0ccb 397c bcbd 3833 11b3 7131
00000030: e229 8831 aae0 00a6 be12 424d eb25 0bf5
00000040: d904 0e1b e103 08eb 0201 0eeb 4a07 2ccf
00000050: 6e0f 355f f4eb ee92 3aea e20c f33b fdf6
00000060: 0ae1 0ec0 04be efcc f0b9 3ad8 19f1 40e7
00000070: 2b59 ed2a 3702 ca0b 9c10 0318 c8d3 f339
00000080: da27 1a3d 0a22 4325 bb2a 070f d6f0 33cf
00000090: e855 fbe8 30d9 d7f3 f7d8 01e5 4e53 dcdb
000000a0: 38d4 23ce 2630 c9f0 4233 fc27 e3b0 df1b
000000b0: f40e c4e5 1cf6 e3d2 01d5 e537 cc19 f845
000000c0: e6b8 cbbb 0dea e133 c939 b616 4afb eba9
000000d0: 09b5 1ed6 4b09 f7d1 de18 0b44 cf3c c146
000000e0: 3f4c 0bfa e126 4d36 f9ce cf0c c22a 19d6
000000f0: 14e4 0e04 02d1 1d05 0de5 cbd4 3323 55fe

sequential_25/time_distributed_73/conv2d_39/Conv2D i1 [128, 2, 2, 1]
82 67 -88 127 -118 60 71 127
-37 -121 107 127 78 -40 127 -77
41 -124 -107 -127 68 127 -7 -109
-97 -67 -23 127 127 24 -7 47
-127 -85 -57 -5 -93 127 -29 -12
-127 2 -67 -111 127 -60 106 -6
127 91 45 11 -23 -6 -103 127
62 -127 15 94 53 -127 56 13
-122 -118 -127 -70 31 -38 -70 127
-78 127 -36 -92 -66 95 126 127
-25 127 70 -55 -64 -127 -4 -38
-24 127 -53 30 -127 125 -5 -78
81 -15 127 82 22 -55 -97 127
26 -34 127 -79 17 -7 -28 -127
55 40 -123 127 -115 103 -127 118
127 -53 -105 15 102 98 -127 114
127 83 8 71 25 15 44 -127
-53 127 -95 -114 28 103 64 127
58 127 21 -127 89 76 127 -123
-52 -127 -40 -109 -127 -96 82 66
97 -127 -19 69 -12 -75 127 116
77 98 55 -127 -123 114 -15 -127
75 -127 -3 29 24 -126 127 -35
-107 127 -5 -127 -71 25 -124 -127
127 -31 46 -82 -90 -127 -94 -116
113 -127 32 -29 96 127 -116 73
68 -95 88 -127 -47 -127 99 -74
-40 127 -31 50 125 13 -39 -127
127 -23 55 -51 91 127 7 31
58 35 -23 127 -14 127 -1 92
44 -112 -127 -99 -127 41 -9 88
127 -115 -38 6 51 64 20 127
00000000: 5243 a87f 8a3c 477f db87 6b7f 4ed8 7fb3
00000010: 2984 9581 447f f993 9fbd e97f 7f18 f92f
00000020: 81ab c7fb a37f e3f4 8102 bd91 7fc4 6afa
00000030: 7f5b 2d0b e9fa 997f 3e81 0f5e 3581 380d
00000040: 868a 81ba 1fda ba7f b27f dca4 be5f 7e7f
00000050: e77f 46c9 c081 fcda e87f cb1e 817d fbb2
00000060: 51f1 7f52 16c9 9f7f 1ade 7fb1 11f9 e481
00000070: 3728 857f 8d67 8176 7fcb 970f 6662 8172
00000080: 7f53 0847 190f 2c81 cb7f a18e 1c67 407f
00000090: 3a7f 1581 594c 7f85 cc81 d893 81a0 5242
000000a0: 6181 ed45 f4b5 7f74 4d62 3781 8572 f181
000000b0: 4b81 fd1d 1882 7fdd 957f fb81 b919 8481
000000c0: 7fe1 2eae a681 a28c 7181 20e3 607f 8c49
000000d0: 44a1 5881 d181 63b6 d87f e132 7d0d d981
000000e0: 7fe9 37cd 5b7f 071f 3a23 e97f f27f ff5c
000000f0: 2c90 819d 8129 f758 7f8d da06 3340 147f

sequential_25/lstm_20/Read_2/ReadVariableOp1 i1 [256] scale=0.004126973 zero_point=-124
0.0123809185 0.024761837 0.0123809185 0.0123809185 0.016507892 0.004126973 0.033015784 0.049523674
0.033015784 0.037142757 0.020634865 0.0123809185 0.045396704 0.016507892 0.020634865 0.06603157
0.024761837 0.0 0.0 0.016507892 0.024761837 0.037142757 0.033015784 0.0123809185
0.037142757 0.02888881 0.004126973 0.045396704 0.04126973 0.024761837 0.020634865 0.0123809185
0.004126973 0.04126973 0.061904594 0.02888881 0.016507892 0.024761837 0.045396704 0.008253946
0.008253946 0.05777762 0.02888881 0.02888881 0.004126973 0.016507892 0.016507892 0.016507892
0.02888881 0.020634865 0.033015784 0.020634865 0.020634865 0.04126973 0.004126973 0.024761837
0.02888881 0.045396704 0.020634865 0.0123809185 0.024761837 0.016507892 0.016507892 0.0123809185
0.9904735 1.0152353 1.0152353 1.0111084 0.99872744 1.0028545 1.0358702 1.0317433
1.0358702 1.0152353 1.0193623 1.0234894 1.0152353 1.0069814 1.0317433 1.0317433
1.0152353 1.0069814 1.0111084 1.0028545 1.0152353 1.0358702 0.99872744 1.0028545
1.0111084 1.0317433 1.0111084 1.0111084 1.0193623 1.0152353 1.0152353 1.0152353
0.99872744 1.0193623 1.0152353 1.0317433 0.99872744 1.0234894 1.0317433 1.0152353
1.0111084 1.0152353 1.0317433 1.0193623 1.0152353 1.0152353 1.0317433 1.0193623
1.0028545 1.0111084 1.0193623 1.0028545 1.0152353 1.0276163 1.0111084 1.0152353
1.0152353 1.0358702 1.0358702 1.0069814 1.0317433 1.0028545 1.0358702 1.0317433
0.0 0.008253946 0.0 -0.004126973 -0.004126973 -0.0123809185 0.0 0.004126973
0.008253946 0.004126973 -0.004126973 0.008253946 -0.004126973 0.008253946 0.0 -0.004126973
0.0 0.0 0.008253946 0.008253946 -0.004126973 0.008253946 -0.004126973 -0.016507892
-0.004126973 0.004126973 0.0 -0.008253946 0.004126973 0.004126973 0.004126973 0.004126973
0.0 0.0 -0.004126973 -0.008253946 0.0 0.004126973 0.004126973 0.008253946
-0.004126973 -0.004126973 -0.004126973 0.0 0.0 -0.004126973 0.008253946 0.0
0.0 0.004126973 -0.0123809185 -0.004126973 -0.004126973 0.004126973 0.0 0.0
-0.004126973 -0.008253946 0.0 0.0 -0.008253946 -0.004126973 -0.008253946 0.0
0.020634865 0.045396704 0.02888881 0.0123809185 0.045396704 0.024761837 0.02888881 0.04126973
0.037142757 0.02888881 0.02888881 0.024761837 0.045396704 0.016507892 0.049523674 0.037142757
0.037142757 0.037142757 0.008253946 0.037142757 0.037142757 0.06603157 0.037142757 0.037142757
0.045396704 0.02888881 0.037142757 0.06603157 0.061904594 0.020634865 0.02888881 0.02888881
0.0123809185 0.05777762 0.09492038 0.045396704 0.033015784 0.02888881 0.045396704 0.04126973
0.02888881 0.07015854 0.037142757 0.04126973 0.04126973 0.024761837 0.02888881 0.020634865
0.024761837 0.0123809185 0.024761837 0.02888881 0.045396704 0.045396704 0.0123809185 0.02888881
0.04126973 0.053650647 0.033015784 0.02888881 0.02888881 0.0123809185 0.053650647 0.037142757
00000000: 878a 8787 8885 8c90 8c8d 8987 8f88 8994
00000010: 8a84 8488 8a8d 8c87 8d8b 858f 8e8a 8987
00000020: 858e 938b 888a 8f86 8692 8b8b 8588 8888
00000030: 8b89 8c89 898e 858a 8b8f 8987 8a88 8887
00000040: 747a 7a79 7677 7f7e 7f7a 7b7c 7a78 7e7e
00000050: 7a78 7977 7a7f 7677 797e 7979 7b7a 7a7a
00000060: 767b 7a7e 767c 7e7a 797a 7e7b 7a7a 7e7b
00000070: 7779 7b77 7a7d 797a 7a7f 7f78 7e77 7f7e
00000080: 8486 8483 8381 8485 8685 8386 8386 8483
00000090: 8484 8686 8386 8380 8385 8482 8585 8585
000000a0: 8484 8382 8485 8586 8383 8384 8483 8684
000000b0: 8485 8183 8385 8484 8382 8484 8283 8284
000000c0: 898f 8b87 8f8a 8b8e 8d8b 8b8a 8f88 908d
000000d0: 8d8d 868d 8d94 8d8d 8f8b 8d94 9389 8b8b
000000e0: 8792 9b8f 8c8b 8f8e 8b95 8d8e 8e8a 8b89
000000f0: 8a87 8a8b 8f8f 878b 8e91 8c8b 8b87 918d

while/MatMul i1 [256, 384] scale=0.0017644601 zero_point=0
0.0441115 0.058227185 -0.026466902 0.022937981 -0.081165165 0.015880141 0.07763624 0.058227185
0.070578404 0.10410315 -0.054698262 -0.08645855 0.08469409 -0.081165165 -0.051169343 0.061756104
-0.0035289202 -0.059991643 0.091751926 -0.07410733 0.091751926 0.01940906 0.070578404 0.024702441
0.098809764 0.07587179 -0.082929626 0.0 0.059991643 -0.029995821 0.035289202 -0.06528503
0.089987464 0.035289202 -0.08645855 0.058227185 0.100574225 -0.072342865 0.082929626 0.0070578405
-0.031760283 -0.091751926 0.10233869 -0.06704948 0.022937981 0.028231362 0.09351639 -0.040582582
-0.082929626 0.10410315 0.037053663 0.0441115 0.070578404 -0.040582582 0.054698262 -0.15703695
-0.031760283 0.11292545 0.015880141 -0.06528503 0.01940906 0.045875963 0.06704948 0.0088223005
0.06528503 -0.017644601 0.0035289202 0.056462724 0.0035289202 0.09704531 -0.0070578405 -0.054698262
0.06704948 -0.061756104 -0.042347044 0.10410315 0.028231362 0.0052933805 -0.0088223005 0.072342865
-0.088223 0.089987464 0.0052933805 -0.017644601 0.058227185 0.037053663 -0.051169343 -0.0794007
-0.0052933805 -0.0035289202 -0.040582582 -0.09528085 0.06528503 0.0 -0.07410733 0.01940906
-0.031760283 0.054698262 -0.031760283 0.07763624 -0.059991643 0.12174775 -0.07587179 -0.06528503
0.01940906 -0.03881812 -0.042347044 0.06528503 0.10233869 0.10763207 0.12704113 0.042347044
-0.06704948 -0.07587179 0.070578404 -0.0088223005 0.061756104 -0.024702441 0.07587179 0.09351639
0.061756104 -0.049404882 0.0123512205 -0.07410733 -0.01940906 -0.054698262 0.03352474 -0.070578404
-0.100574225 0.015880141 -0.051169343 0.0070578405 0.09704531 0.10410315 0.042347044 0.037053663
-0.022937981 0.0035289202 -0.091751926 0.08469409 -0.029995821 -0.051169343 -0.047640424 0.0017644601
-0.042347044 -0.024702441 0.0123512205 0.035289202 -0.029995821 0.091751926 0.11468991 -0.091751926
0.024702441 0.09528085 -0.031760283 -0.06704948 0.010586761 0.024702441 0.056462724 -0.13762788
-0.047640424 -0.059991643 0.07587179 -0.028231362 0.047640424 0.0088223005 -0.021173522 0.010586761
-0.06528503 -0.091751926 0.0070578405 0.07587179 0.10233869 0.031760283 -0.081165165 -0.070578404
0.089987464 0.026466902 0.03881812 -0.010586761 0.021173522 0.029995821 -0.0123512205 -0.035289202
0.054698262 0.06528503 -0.0088223005 0.058227185 -0.061756104 -0.010586761 0.063520566 0.091751926
-0.06528503 0.052933805 0.03881812 -0.029995821 0.037053663 -0.031760283 0.024702441 0.058227185
0.0070578405 0.0052933805 0.047640424 0.06704948 -0.08469409 0.014115681 0.10233869 0.022937981
-0.07410733 0.051169343 0.037053663 -0.09704531 -0.021173522 -0.01940906 0.088223 -0.0794007
0.070578404 -0.015880141 0.07763624 -0.12527667 0.026466902 0.0088223005 -0.088223 -0.051169343
0.03352474 0.056462724 0.047640424 -0.047640424 0.081165165 -0.058227185 0.06881394 0.10233869
-0.07410733 0.022937981 -0.03881812 -0.03881812 0.072342865 0.06881394 0.049404882 0.10586761
0.031760283 0.0441115 0.08469409 -0.049404882 0.06881394 -0.037053663 0.111160986 -0.08469409
-0.026466902 0.058227185 -0.08469409 0.098809764 0.089987464 -0.047640424 0.047640424 -0.059991643
00000000: 1921 f10d d209 2c21 283b e1cf 30d2 e323
00000010: fede 34d6 340b 280e 382b d100 22ef 14db
00000020: 3314 cf21 39d7 2f04 eecc 3ada 0d10 35e9
00000030: d13b 1519 28e9 1fa7 ee40 09db 0b1a 2605
00000040: 25f6 0220 0237 fce1 26dd e83b 1003 fb29
00000050: ce33 03f6 2115 e3d3 fdfe e9ca 2500 d60b
00000060: ee1f ee2c de45 d5db 0bea e825 3a3d 4818
00000070: dad5 28fb 23f2 2b35 23e4 07d6 f5e1 13d8
00000080: c709 e304 373b 1815 f302 cc30 efe3 e501
00000090: e8f2 0714 ef34 41cc 0e36 eeda 060e 20b2
000000a0: e5de 2bf0 1b05 f406 dbcc 042b 3a12 d2d8
000000b0: 330f 16fa 0c11 f9ec 1f25 fb21 ddfa 2434
000000c0: db1e 16ef 15ee 0e21 0403 1b26 d008 3a0d
000000d0: d61d 15c9 f4f5 32d3 28f7 2cb9 0f05 cee3
000000e0: 1320 1be5 2edf 273a d60d eaea 2927 1c3c
000000f0: 1219 30e4 27eb 3fd0 f121 d038 33e5 1bde

while/MatMul_11 i1 [256, 64] scale=0.0024158615 zero_point=0
-0.009663446 0.15461513 0.060396537 -0.12320893 -0.024158616 -0.3068144 -0.060396537 0.103882045
-0.03623792 0.043485507 -0.004831723 0.03623792 -0.028990338 0.05314895 0.09180274 -0.041069645
0.0024158615 0.12804066 -0.031406198 -0.057980675 -0.079723425 -0.060396537 -0.08938687 0.057980675
-0.062812395 -0.01691103 -0.021742754 -0.120793074 -0.024158616 -0.11837721 -0.01691103 -0.086971015
0.026574476 0.014495169 -0.060396537 -0.14011997 -0.07247584 -0.024158616 -0.01691103 0.03623792
-0.03382206 -0.024158616 -0.07489171 -0.021742754 0.024158616 0.038653784 0.08938687 -0.024158616
0.05314895 -0.019326892 0.041069645 0.17152616 -0.038653784 0.0942186 0.014495169 0.021742754
0.12804066 0.062812395 -0.04831723 -0.15461513 -0.03382206 0.070059985 0.014495169 0.11112963
-0.06764412 -0.019326892 -0.024158616 0.057980675 -0.04590137 0.04590137 -0.079723425 -0.07730757
0.014495169 0.043485507 0.038653784 0.019326892 -0.01691103 0.13287239 0.09180274 0.014495169
0.06522826 0.024158616 0.060396537 0.04831723 -0.09663446 -0.120793074 0.028990338 0.1377041
-0.060396537 0.11837721 -0.03382206 -0.028990338 0.019326892 0.14978342 -0.12562479 0.070059985
0.041069645 -0.07489171 -0.1062979 0.062812395 0.09905032 -0.11112963 0.03382206 0.03382206
-0.03382206 -0.024158616 0.019326892 0.08938687 0.15219927 -0.0072475844 0.03623792 -0.028990338
0.10146618 0.021742754 0.0 -0.070059985 0.06764412 -0.09663446 0.009663446 0.0942186
0.13287239 -0.09905032 0.12804066 -0.06764412 0.014495169 0.1377041 -0.05073309 0.055564813
-0.004831723 0.05073309 -0.009663446 -0.04831723 0.07247584 -0.012079308 0.07489171 -0.07730757
-0.026574476 -0.079723425 0.11837721 -0.10871377 -0.031406198 -0.04590137 -0.07247584 0.05314895
0.03382206 -0.08213929 0.079723425 -0.014495169 -0.0072475844 0.04831723 0.04831723 -0.012079308
-0.0072475844 0.08938687 0.1062979 -0.038653784 -0.03382206 -0.086971015 -0.06522826 0.038653784
-0.062812395 -0.012079308 -0.05314895 0.01691103 0.11837721 -0.14495169 -0.012079308 -0.15219927
0.03382206 0.004831723 -0.009663446 0.038653784 -0.103882045 0.04590137 -0.01691103 0.041069645
-0.08455515 0.019326892 0.05314895 -0.043485507 -0.086971015 -0.024158616 -0.062812395 0.0072475844
-0.13045652 0.019326892 -0.09905032 0.024158616 0.055564813 -0.026574476 -0.09663446 -0.055564813
0.10146618 0.14253582 -0.10146618 0.04590137 -0.01691103 -0.057980675 0.055564813 0.06764412
-0.041069645 0.043485507 0.03623792 -0.1377041 -0.041069645 0.014495169 0.009663446 -0.04590137
-0.041069645 0.031406198 0.004831723 0.0024158615 0.057980675 -0.10871377 0.031406198 0.04590137
-0.1691103 -0.06764412 -0.009663446 0.062812395 0.024158616 0.0 -0.14253582 -0.03623792
-0.09180274 -0.079723425 0.070059985 -0.05073309 0.13045652 0.021742754 0.038653784 0.0072475844
-0.019326892 -0.05073309 -0.03623792 0.08455515 -0.031406198 -0.004831723 0.060396537 0.019326892
0.038653784 -0.021742754 0.01691103 0.07489171 -0.062812395 0.08213929 -0.0942186 0.004831723
-0.041069645 -0.17152616 -0.01691103 -0.079723425 -0.07247584 0.041069645 -0.07730757 -0.062812395
00000000: fc40 19cd f681 e72b f112 fe0f f416 26ef
00000010: 0135 f3e8 dfe7 db18 e6f9 f7ce f6cf f9dc
00000020: 0b06 e7c6 e2f6 f90f f2f6 e1f7 0a10 25f6
00000030: 16f8 1147 f027 0609 351a ecc0 f21d 062e
00000040: e4f8 f618 ed13 dfe0 0612 1008 f937 2606
00000050: 1b0a 1914 d8ce 0c39 e731 f2f4 083e cc1d
00000060: 11e1 d41a 29d2 0e0e f2f6 0825 3ffd 0ff4
00000070: 2a09 00e3 1cd8 0427 37d7 35e4 0639 eb17
00000080: fe15 fcec 1efb 1fe0 f5df 31d3 f3ed e216
00000090: 0ede 21fa fd14 14fb fd25 2cf0 f2dc e510
000000a0: e6fb ea07 31c4 fbc1 0e02 fc10 d513 f911
000000b0: dd08 16ee dcf6 e603 ca08 d70a 17f5 d8e9
000000c0: 2a3b d613 f9e8 171c ef12 0fc7 ef06 04ed
000000d0: ef0d 0201 18d3 0d13 bae4 fc1a 0a00 c5f1
000000e0: dadf 1deb 3609 1003 f8eb f123 f3fe 1908
000000f0: 10f7 071f e622 d902 efb9 f9df e211 e0e6
