evaluation-code/output/models/tflite/ConvLSTM_one_conv_layers_horizontal_kernel_lstm_32units_framesize_5_20230622-105917.tflite (tflite, 171000 bytes, 5 tensors)

sequential_12/dense_12/MatMul i1 [10, 32] scale=0.0039024462 zero_point=0
000000 e2 bf c1 d4 d0 ea d8 e6 19 3b 22 a5 42 03 f8 3a
       -0.11707339 -0.253659 -0.24585411 -0.17170763 -0.18731742 -0.085853815 -0.15609784 -0.1014636 0.09756116 0.23024432 0.13268317 -0.3551226 0.25756145 0.0117073385 -0.03121957 0.22634189
000010 bc 50 0a 40 f9 c6 9e 1d 01 ed d7 ea 01 13 11 61
       -0.26536635 0.3121957 0.03902446 0.24975656 -0.027317123 -0.22634189 -0.38243973 0.113170944 0.0039024462 -0.07414648 -0.1600003 -0.085853815 0.0039024462 0.07414648 0.06634159 0.3785373
000020 ce 0f 0c 57 e9 81 96 de c7 7a 3a 5d 05 ad aa b1
       -0.19512232 0.058536693 0.046829354 0.33951283 -0.089756265 -0.49561068 -0.4136593 -0.13268317 -0.22243944 0.47609845 0.22634189 0.3629275 0.01951223 -0.32390302 -0.3356104 -0.30829325
000030 34 fb 51 ba 95 f5 26 d1 7f b1 4f 4a d1 08 3e 14
       0.2029272 -0.01951223 0.31609815 -0.27317125 -0.41756174 -0.042926908 0.14829296 -0.18341498 0.49561068 -0.30829325 0.30829325 0.28878102 -0.18341498 0.03121957 0.24195167 0.07804892
000040 0f 03 e7 f9 31 ce d0 68 3e d4 ac fd 26 b4 4c 13
       0.058536693 0.0117073385 -0.09756116 -0.027317123 0.19121987 -0.19512232 -0.18731742 0.4058544 0.24195167 -0.17170763 -0.3278055 -0.0117073385 0.14829296 -0.29658592 0.29658592 0.07414648
000050 90 07 c5 d3 14 c7 41 2b bb e2 03 dd e2 a0 f6 2b
       -0.43707398 0.027317123 -0.23024432 -0.17561008 0.07804892 -0.22243944 0.253659 0.1678052 -0.26926878 -0.11707339 0.0117073385 -0.13658562 -0.11707339 -0.37463483 -0.03902446 0.1678052
000060 48 bf e5 43 32 d8 e2 12 fd b7 c0 cd 27 06 fd 17
       0.28097612 -0.253659 -0.10536605 0.2614639 0.19512232 -0.15609784 -0.11707339 0.07024403 -0.0117073385 -0.28487858 -0.24975656 -0.19902475 0.15219541 0.023414677 -0.0117073385 0.089756265
000070 ba a9 02 e3 3e bb 46 51 b6 5e 1c 2f 27 32 1e 1b
       -0.27317125 -0.33951283 0.0078048925 -0.113170944 0.24195167 -0.26926878 0.27317125 0.31609815 -0.28878102 0.36682996 0.109268494 0.18341498 0.15219541 0.19512232 0.11707339 0.10536605
000080 57 4d f2 47 d6 27 51 58 34 a4 42 10 10 a9 3d be
       0.33951283 0.30048835 -0.054634247 0.27707368 -0.16390274 0.15219541 0.31609815 0.34341526 0.2029272 -0.35902506 0.25756145 0.06243914 0.06243914 -0.33951283 0.23804922 -0.25756145
000090 a2 1d 62 ac 16 ab d9 e9 c1 2f 39 eb 3b 53 ec b9
       -0.36682996 0.113170944 0.38243973 -0.3278055 0.085853815 -0.33170792 -0.15219541 -0.089756265 -0.24585411 0.18341498 0.22243944 -0.08195137 0.23024432 0.32390302 -0.07804892 -0.27707368
0000a0 d4 fb d4 d0 c2 31 09 3a 27 a3 2c 0e 2d fb f4 df
       -0.17170763 -0.01951223 -0.17170763 -0.18731742 -0.24195167 0.19121987 0.035122015 0.22634189 0.15219541 -0.3629275 0.17170763 0.054634247 0.17561008 -0.01951223 -0.046829354 -0.12878072
0000b0 03 fe f6 1e 17 c6 eb 29 d6 69 c8 b2 4f 57 bf e3
       0.0117073385 -0.0078048925 -0.03902446 0.11707339 0.089756265 -0.22634189 -0.08195137 0.1600003 -0.16390274 0.40975687 -0.21853699 -0.30439082 0.30829325 0.33951283 -0.253659 -0.113170944
0000c0 f5 2f ff e2 13 73 4a 97 67 cf 62 dc f5 d2 eb d0
       -0.042926908 0.18341498 -0.0039024462 -0.11707339 0.07414648 0.4487813 0.28878102 -0.40975687 0.40195197 -0.19121987 0.38243973 -0.14048806 -0.042926908 -0.17951253 -0.08195137 -0.18731742
0000d0 ce 5b 19 1b 0f 29 b9 11 20 28 c0 e7 fb 5d d9 c8
       -0.19512232 0.3551226 0.09756116 0.10536605 0.058536693 0.1600003 -0.27707368 0.06634159 0.12487828 0.15609784 -0.24975656 -0.09756116 -0.01951223 0.3629275 -0.15219541 -0.21853699
0000e0 0c 0d 4e 56 fa d7 06 59 3a f3 58 ea b6 c6 d7 92
       0.046829354 0.0507318 0.30439082 0.3356104 -0.023414677 -0.1600003 0.023414677 0.34731773 0.22634189 -0.0507318 0.34341526 -0.085853815 -0.28878102 -0.22634189 -0.1600003 -0.42926908
0000f0 2d 87 29 9e e3 9c 3e 07 f9 1a b8 ad 26 b3 4e b2
       0.17561008 -0.47219598 0.1600003 -0.38243973 -0.113170944 -0.39024463 0.24195167 0.027317123 -0.027317123 0.1014636 -0.28097612 -0.32390302 0.14829296 -0.30048835 0.30439082 -0.30439082

sequential_12/time_distributed_37/conv2d_19/Conv2D i1 [128, 3, 1, 1]
000000 81 e1 ff 01 3f 7f f9 7f 03 a7 81 49 d1 01 7f 81
       -127 -31 -1 1 63 127 -7 127 3 -89 -127 73 -47 1 127 -127
000010 09 9f f7 4d 7f bc a0 81 81 b4 3e 0d 7f bb 81 40
       9 -97 -9 77 127 -68 -96 -127 -127 -76 62 13 127 -69 -127 64
000020 41 7f 5c 92 ab 35 7f 5f 4e 7f d0 a7 81 c2 81 63
       65 127 92 -110 -85 53 127 95 78 127 -48 -89 -127 -62 -127 99
000030 8b 7f b2 a6 3f 81 cc 8b 7f a4 a6 7f 7e 5d 81 64
       -117 127 -78 -90 63 -127 -52 -117 127 -92 -90 127 126 93 -127 100
000040 92 7f 7f dc a2 75 7f d3 33 7f df 88 7f 46 81 7c
       -110 127 127 -36 -94 117 127 -45 51 127 -33 -120 127 70 -127 124
000050 04 35 7f 58 7f f5 e0 73 7f 78 81 40 1d 7f 75 00
       4 53 127 88 127 -11 -32 115 127 120 -127 64 29 127 117 0
000060 db 81 c0 7f 87 cb 49 7f 13 ef 7f 20 81 20 02 71
       -37 -127 -64 127 -121 -53 73 127 19 -17 127 32 -127 32 2 113
000070 a1 7f 47 60 7f 07 81 b7 7f b7 79 86 0a 81 ff 7f
       -95 127 71 96 127 7 -127 -73 127 -73 121 -122 10 -127 -1 127
000080 d4 17 63 81 c9 98 7f 81 10 d3 eb 81 cc 03 81 4f
       -44 23 99 -127 -55 -104 127 -127 16 -45 -21 -127 -52 3 -127 79
000090 70 bf 7f ab cc 7f 7f b9 6b 24 7f 27 ba 7f 1c 7f
       112 -65 127 -85 -52 127 127 -71 107 36 127 39 -70 127 28 127
0000a0 a7 9b 7f f4 42 b7 10 7f 7f d5 7a e3 81 e5 0a ae
       -89 -101 127 -12 66 -73 16 127 127 -43 122 -29 -127 -27 10 -82
0000b0 81 35 1b 81 f8 81 95 d5 81 59 83 3d 7f 81 fb 84
       -127 53 27 -127 -8 -127 -107 -43 -127 89 -125 61 127 -127 -5 -124
0000c0 7f c7 8d 05 81 1a 05 14 81 7f 09 25 41 0c 81 bd
       127 -57 -115 5 -127 26 5 20 -127 127 9 37 65 12 -127 -67
0000d0 71 81 7a 7f 39 db 7f 24 f4 b7 81 81 e1 66 6e 35
       113 -127 122 127 57 -37 127 36 -12 -73 -127 -127 -31 102 110 53
0000e0 7f 65 81 a9 7f 69 83 81 bf 65 7f 4f e3 5c 03 7f
       127 101 -127 -87 127 105 -125 -127 -65 101 127 79 -29 92 3 127
0000f0 7f 4a 3e 81 8f 90 a3 9b 81 e0 7e 81 e2 19 81 d8
       127 74 62 -127 -113 -112 -93 -101 -127 -32 126 -127 -30 25 -127 -40

sequential_12/lstm_7/Read_2/ReadVariableOp1 i1 [128] scale=0.004107796 zero_point=-125
000000 86 8c 86 84 85 88 82 87 86 84 84 8a 84 89 85 94
       0.012323389 0.036970165 0.012323389 0.004107796 0.008215592 0.02053898 -0.004107796 0.016431184 0.012323389 0.004107796 0.004107796 0.028754573 0.004107796 0.024646778 0.008215592 0.06983253
000010 8b 86 86 88 8a 85 85 85 89 86 87 85 80 8f 85 87
       0.03286237 0.012323389 0.012323389 0.02053898 0.028754573 0.008215592 0.008215592 0.008215592 0.024646778 0.012323389 0.016431184 0.008215592 -0.012323389 0.049293555 0.008215592 0.016431184
000020 78 7e 7e 7f 79 77 7a 78 7d 79 7a 7a 79 7d 7c 7d
       1.00641 1.0310569 1.0310569 1.0351646 1.0105178 1.0023023 1.0146257 1.00641 1.026949 1.0105178 1.0146257 1.0146257 1.0105178 1.026949 1.0228412 1.026949
000030 7c 77 7a 7b 7f 7b 7b 7c 7e 7a 7e 77 7a 7c 78 7c
       1.0228412 1.0023023 1.0146257 1.0187334 1.0351646 1.0187334 1.0187334 1.0228412 1.0310569 1.0146257 1.0310569 1.0023023 1.0146257 1.0228412 1.00641 1.0228412
000040 83 84 83 84 82 82 85 83 82 84 82 83 84 82 84 82
       0.0 0.004107796 0.0 0.004107796 -0.004107796 -0.004107796 0.008215592 0.0 -0.004107796 0.004107796 -0.004107796 0.0 0.004107796 -0.004107796 0.004107796 -0.004107796
000050 82 83 84 82 84 82 84 84 85 81 85 84 81 83 83 83
       -0.004107796 0.0 0.004107796 -0.004107796 0.004107796 -0.004107796 0.004107796 0.004107796 0.008215592 -0.008215592 0.008215592 0.004107796 -0.008215592 0.0 0.0 0.0
000060 88 8b 8b 89 86 8b 84 88 88 88 88 8a 83 8b 88 89
       0.02053898 0.03286237 0.03286237 0.024646778 0.012323389 0.03286237 0.004107796 0.02053898 0.02053898 0.02053898 0.02053898 0.028754573 0.0 0.03286237 0.02053898 0.024646778
000070 89 86 88 8d 8d 8d 8b 89 87 89 89 85 87 8a 87 8a
       0.024646778 0.012323389 0.02053898 0.04107796 0.04107796 0.04107796 0.03286237 0.024646778 0.016431184 0.024646778 0.024646778 0.008215592 0.016431184 0.028754573 0.016431184 0.028754573

while/MatMul i1 [128, 1152] scale=0.002053566 zero_point=0
000000 11 13 20 13 f9 f2 27 1d f1 14 01 ec 0b f2 fe d8
       0.034910623 0.039017756 0.06571411 0.039017756 -0.014374962 -0.028749924 0.08008908 0.059553415 -0.03080349 0.04107132 0.002053566 -0.04107132 0.022589227 -0.028749924 -0.004107132 -0.08214264
000010 1e 02 db db 17 20 c6 09 0d 15 0b 1c ec f7 e0 f8
       0.06160698 0.004107132 -0.075981945 -0.075981945 0.04723202 0.06571411 -0.11910683 0.018482095 0.026696358 0.043124888 0.022589227 0.05749985 -0.04107132 -0.018482095 -0.06571411 -0.016428528
000020 11 d2 f3 1a cd 1c ec e7 0a e2 14 c8 18 e3 15 06
       0.034910623 -0.09446404 -0.026696358 0.053392716 -0.104731865 0.05749985 -0.04107132 -0.05133915 0.02053566 -0.06160698 0.04107132 -0.1149997 0.049285583 -0.059553415 0.043124888 0.012321396
000030 f8 12 05 0b fe d2 07 0f 05 df 21 e5 fd f0 20 ea
       -0.016428528 0.03696419 0.01026783 0.022589227 -0.004107132 -0.09446404 0.014374962 0.03080349 0.01026783 -0.06776768 0.06776768 -0.055446282 -0.006160698 -0.032857057 0.06571411 -0.045178454
000040 f9 05 e0 1d cc dd 0a f4 21 ee 06 f7 1d f2 0f 2c
       -0.014374962 0.01026783 -0.06571411 0.059553415 -0.10678543 -0.07187481 0.02053566 -0.024642792 0.06776768 -0.03696419 0.012321396 -0.018482095 0.059553415 -0.028749924 0.03080349 0.09035691
000050 0e f1 e0 f3 e3 f1 16 f4 f3 ea 24 ed f6 11 0f ff
       0.028749924 -0.03080349 -0.06571411 -0.026696358 -0.059553415 -0.03080349 0.045178454 -0.024642792 -0.026696358 -0.045178454 0.07392838 -0.039017756 -0.02053566 0.034910623 0.03080349 -0.002053566
000060 d3 ed e8 ee e5 ec 28 20 26 f0 0e 1d f1 11 dc f7
       -0.092410475 -0.039017756 -0.049285583 -0.03696419 -0.055446282 -0.04107132 0.08214264 0.06571411 0.07803551 -0.032857057 0.028749924 0.059553415 -0.03080349 0.034910623 -0.07392838 -0.018482095
000070 04 f0 18 20 23 f8 1c ed ef 04 f5 23 2c 23 2c f8
       0.008214264 -0.032857057 0.049285583 0.06571411 0.07187481 -0.016428528 0.05749985 -0.039017756 -0.034910623 0.008214264 -0.022589227 0.07187481 0.09035691 0.07187481 0.09035691 -0.016428528
000080 ff 0d 1f fe 23 04 1c f3 29 1a d9 1a 25 ee 06 0d
       -0.002053566 0.026696358 0.06366055 -0.004107132 0.07187481 0.008214264 0.05749985 -0.026696358 0.08419621 0.053392716 -0.08008908 0.053392716 0.075981945 -0.03696419 0.012321396 0.026696358
000090 e3 16 0e 0b fb 21 08 0e e6 27 17 14 27 fc f1 fe
       -0.059553415 0.045178454 0.028749924 0.022589227 -0.01026783 0.06776768 0.016428528 0.028749924 -0.053392716 0.08008908 0.04723202 0.04107132 0.08008908 -0.008214264 -0.03080349 -0.004107132
0000a0 1d 19 27 24 1d 13 fa 07 ef 13 f6 00 ef 10 20 fb
       0.059553415 0.05133915 0.08008908 0.07392838 0.059553415 0.039017756 -0.012321396 0.014374962 -0.034910623 0.039017756 -0.02053566 0.0 -0.034910623 0.032857057 0.06571411 -0.01026783
0000b0 1c fb f3 0a 05 ee 1a 13 0a 1b 06 00 e7 13 17 e5
       0.05749985 -0.01026783 -0.026696358 0.02053566 0.01026783 -0.03696419 0.053392716 0.039017756 0.02053566 0.055446282 0.012321396 0.0 -0.05133915 0.039017756 0.04723202 -0.055446282
0000c0 1f 18 02 07 f1 ff f2 0a 21 16 04 09 ec 15 04 ee
       0.06366055 0.049285583 0.004107132 0.014374962 -0.03080349 -0.002053566 -0.028749924 0.02053566 0.06776768 0.045178454 0.008214264 0.018482095 -0.04107132 0.043124888 0.008214264 -0.03696419
0000d0 ef 1c f6 f2 fb 1a fe 04 fb 05 16 15 ea f7 07 24
       -0.034910623 0.05749985 -0.02053566 -0.028749924 -0.01026783 0.053392716 -0.004107132 0.008214264 -0.01026783 0.01026783 0.045178454 0.043124888 -0.045178454 -0.018482095 0.014374962 0.07392838
0000e0 07 f1 15 ea ee 1d f4 f8 02 19 0e 26 00 04 e2 ee
       0.014374962 -0.03080349 0.043124888 -0.045178454 -0.03696419 0.059553415 -0.024642792 -0.016428528 0.004107132 0.05133915 0.028749924 0.07803551 0.0 0.008214264 -0.06160698 -0.03696419
0000f0 22 17 0e 1b 05 f3 05 f7 e5 e7 e3 0a 22 ea f1 22
       0.069821246 0.04723202 0.028749924 0.055446282 0.01026783 -0.026696358 0.01026783 -0.018482095 -0.055446282 -0.05133915 -0.059553415 0.02053566 0.069821246 -0.045178454 -0.03080349 0.069821246

while/MatMul_11 i1 [128, 32] scale=0.0029482392 zero_point=0
000000 57 ec 41 00 29 1e f3 b2 fc cb c7 43 20 f4 e1 cb
       0.25649682 -0.058964785 0.19163555 0.0 0.12087781 0.088447176 -0.03832711 -0.22996266 -0.011792957 -0.15625668 -0.16804963 0.19753203 0.094343655 -0.03537887 -0.091395415 -0.15625668
000010 1a 36 41 f7 bc ee fc 03 18 db 21 1f f0 11 12 17
       0.07665422 0.15920492 0.19163555 -0.026534153 -0.20048027 -0.053068306 -0.011792957 0.008844717 0.07075774 -0.10908485 0.097291894 0.091395415 -0.047171827 0.050120067 0.053068306 0.0678095
000020 01 e0 d6 1a 1e f8 0a da a3 f6 d5 e0 e9 ff 0a d8
       0.0029482392 -0.094343655 -0.12382605 0.07665422 0.088447176 -0.023585914 0.029482393 -0.11203309 -0.27418625 -0.029482393 -0.12677428 -0.094343655 -0.0678095 -0.0029482392 0.029482393 -0.11792957
000030 15 31 51 27 04 f0 f8 f3 e1 f6 f3 fa ff f8 0a 2f
       0.061913025 0.14446372 0.23880738 0.11498133 0.011792957 -0.047171827 -0.023585914 -0.03832711 -0.091395415 -0.029482393 -0.03832711 -0.017689435 -0.0029482392 -0.023585914 0.029482393 0.13856724
000040 e1 1d fa f8 c1 db b1 cc c9 0c c5 ff 31 cf 32 f0
       -0.091395415 0.08549894 -0.017689435 -0.023585914 -0.18573907 -0.10908485 -0.2329109 -0.15330844 -0.16215315 0.03537887 -0.17394611 -0.0029482392 0.14446372 -0.14446372 0.14741196 -0.047171827
000050 d1 09 fe ff e4 03 e6 ff 41 09 1c eb 0b 21 fe 04
       -0.13856724 0.026534153 -0.0058964784 -0.0029482392 -0.0825507 0.008844717 -0.07665422 -0.0029482392 0.19163555 0.026534153 0.0825507 -0.061913025 0.03243063 0.097291894 -0.0058964784 0.011792957
000060 33 f5 31 20 1d d5 d6 1c 10 09 3c f4 f7 06 f6 1b
       0.1503602 -0.03243063 0.14446372 0.094343655 0.08549894 -0.12677428 -0.12382605 0.0825507 0.047171827 0.026534153 0.17689435 -0.03537887 -0.026534153 0.017689435 -0.029482393 0.07960246
000070 13 da e5 f1 f9 e6 d9 1d c9 06 f0 d6 1a 44 11 f5
       0.056016546 -0.11203309 -0.07960246 -0.044223588 -0.020637674 -0.07665422 -0.11498133 0.08549894 -0.16215315 0.017689435 -0.047171827 -0.12382605 0.07665422 0.20048027 0.050120067 -0.03243063
000080 0a f1 da f5 fe 0c f1 07 22 a9 01 e1 2b 32 f6 e8
       0.029482393 -0.044223588 -0.11203309 -0.03243063 -0.0058964784 0.03537887 -0.044223588 0.020637674 0.10024013 -0.25649682 0.0029482392 -0.091395415 0.12677428 0.14741196 -0.029482393 -0.07075774
000090 fb eb fd e9 ec f5 f5 c5 37 ea 05 fe dd fa db 32
       -0.014741196 -0.061913025 -0.008844717 -0.0678095 -0.058964785 -0.03243063 -0.03243063 -0.17394611 0.16215315 -0.06486126 0.014741196 -0.0058964784 -0.10318837 -0.017689435 -0.10908485 0.14741196
0000a0 32 12 f8 d8 e5 f2 f4 ca e0 68 2f 0d 40 f9 ef 07
       0.14741196 0.053068306 -0.023585914 -0.11792957 -0.07960246 -0.04127535 -0.03537887 -0.15920492 -0.094343655 0.30661687 0.13856724 0.03832711 0.18868731 -0.020637674 -0.050120067 0.020637674
0000b0 22 0e ef 13 cd 13 09 23 1c 09 37 df bb e0 03 2b
       0.10024013 0.04127535 -0.050120067 0.056016546 -0.1503602 0.056016546 0.026534153 0.10318837 0.0825507 0.026534153 0.16215315 -0.097291894 -0.2034285 -0.094343655 0.008844717 0.12677428
0000c0 25 bf 3b 03 e4 23 ec e9 03 17 0c 0c 18 db ff d3
       0.10908485 -0.19163555 0.17394611 0.008844717 -0.0825507 0.10318837 -0.058964785 -0.0678095 0.008844717 0.0678095 0.03537887 0.03537887 0.07075774 -0.10908485 -0.0029482392 -0.13267076
0000d0 f8 34 28 d4 f7 0e 36 1f 4f e2 1e 33 eb 11 0e d6
       -0.023585914 0.15330844 0.11792957 -0.12972252 -0.026534153 0.04127535 0.15920492 0.091395415 0.2329109 -0.088447176 0.088447176 0.1503602 -0.061913025 0.050120067 0.04127535 -0.12382605
0000e0 c0 1c fb ee e5 cf 9e e2 17 fb ed 01 eb 9c 13 21
       -0.18868731 0.0825507 -0.014741196 -0.053068306 -0.07960246 -0.14446372 -0.28892744 -0.088447176 0.0678095 -0.014741196 -0.056016546 0.0029482392 -0.061913025 -0.2948239 0.056016546 0.097291894
0000f0 fe e1 12 06 ca d9 28 16 ef 11 0c f1 e2 ec 41 da
       -0.0058964784 -0.091395415 0.053068306 0.017689435 -0.15920492 -0.11498133 0.11792957 0.06486126 -0.050120067 0.050120067 0.03537887 -0.044223588 -0.088447176 -0.058964785 0.19163555 -0.11203309
