evaluation-code/output/models/tflite/ConvLSTM_one_conv_layer_lstm_32units_framesize_5_20230622-141204.tflite (tflite, 154752 bytes, 5 tensors)

sequential_21/dense_21/MatMul i1 [10, 32] scale=0.004785869 zero_point=0
00000000: 04be 5db5 c9bf e7ae 4a34 dcef ec49 07d2
00000010: 26fe 2826 1e39 ddd5 2159 f627 36b6 4a1b
00000020: bec3 0b33 661d bc12 f7f0 dd6b ab09 f814
00000030: 279c e80f df73 3f60 fad4 567f 5f52 cba7
00000040: edd4 d71b 0e52 3e35 04e0 2d06 e6f0 161c
00000050: 41b9 504a 47d7 030d 12cd dcec 31cb 273a
00000060: 2e0f ff46 dc2d 2b4d 12a8 064c 1624 df0b
00000070: 53f6 45fb d21e ee3b ccfa 25ed 3fbe bb24
00000080: 35e3 13f4 f9c6 46ce b240 02a9 d313 44bb
00000090: ddd2 ee59 ccf0 32e6 083a 4a21 cc4e 42bc
000000a0: e43a f6c7 f816 3e14 c6b0 4f3a f1f9 37c4
000000b0: c5ed 31cb db07 bbfc be20 10fe 1d19 fa1f
000000c0: 11c3 34bc 1fff 0835 5341 dace 3f3d 2bc2
000000d0: f1f4 372d 372c cb29 1457 36d2 cce2 57f0
000000e0: dd4f d142 1437 2206 3024 08b9 f035 379f
000000f0: 19b2 e825 e835 f931 59be 37f2 5f10 4cc9
0.019143475 -0.31586733 0.4450858 -0.35894015 -0.26322278 -0.31108147 -0.11964672 -0.39244124
0.3541543 0.24886517 -0.17229128 -0.08135977 -0.09571738 0.34936842 0.03350108 -0.22014996
0.18186301 -0.009571738 0.19143476 0.18186301 0.14357607 0.2727945 -0.16750541 -0.20579235
0.15793367 0.42594233 -0.04785869 0.18664889 0.25843692 -0.3541543 0.3541543 0.12921846
-0.31586733 -0.291938 0.05264456 0.2440793 0.4881586 0.13879019 -0.32543907 0.08614564
-0.04307282 -0.0765739 -0.16750541 0.51208794 -0.40679884 0.04307282 -0.03828695 0.09571738
0.18664889 -0.47858688 -0.11486085 0.071788035 -0.15793367 0.5503749 0.30150974 0.4594434
-0.028715212 -0.21057823 0.4115847 0.6078053 0.45465752 0.39244124 -0.25365105 -0.42594233
-0.090931505 -0.21057823 -0.19622062 0.12921846 0.06700216 0.39244124 0.29672387 0.25365105
0.019143475 -0.1531478 0.2153641 0.028715212 -0.124432586 -0.0765739 0.10528912 0.13400432
0.31108147 -0.3397967 0.3828695 0.3541543 0.3397967 -0.19622062 0.014357606 0.062216293
0.08614564 -0.2440793 -0.17229128 -0.09571738 0.23450758 -0.25365105 0.18664889 0.27758038
0.22014996 0.071788035 -0.004785869 0.33501083 -0.17229128 0.2153641 0.20579235 0.3685119
0.08614564 -0.42115647 0.028715212 0.36372602 0.10528912 0.17229128 -0.15793367 0.05264456
0.3972271 -0.04785869 0.33022496 -0.023929344 -0.22014996 0.14357607 -0.08614564 0.28236625
-0.24886517 -0.028715212 0.17707714 -0.090931505 0.30150974 -0.31586733 -0.33022496 0.17229128
0.25365105 -0.13879019 0.090931505 -0.057430424 -0.03350108 -0.27758038 0.33501083 -0.23929344
-0.37329778 0.3062956 0.009571738 -0.4163706 -0.2153641 0.090931505 0.32543907 -0.33022496
-0.16750541 -0.22014996 -0.08614564 0.42594233 -0.24886517 -0.0765739 0.23929344 -0.124432586
0.03828695 0.27758038 0.3541543 0.15793367 -0.24886517 0.37329778 0.31586733 -0.32543907
-0.13400432 0.27758038 -0.04785869 -0.2727945 -0.03828695 0.10528912 0.29672387 0.09571738
-0.27758038 -0.3828695 0.37808365 0.27758038 -0.071788035 -0.03350108 0.26322278 -0.28715214
-0.28236625 -0.090931505 0.23450758 -0.25365105 -0.17707714 0.03350108 -0.33022496 -0.019143475
-0.31586733 0.1531478 0.0765739 -0.009571738 0.13879019 0.11964672 -0.028715212 0.14836194
0.08135977 -0.291938 0.24886517 -0.32543907 0.14836194 -0.004785869 0.03828695 0.25365105
0.3972271 0.31108147 -0.18186301 -0.23929344 0.30150974 0.291938 0.20579235 -0.29672387
-0.071788035 -0.057430424 0.26322278 0.2153641 0.26322278 0.21057823 -0.25365105 0.19622062
0.09571738 0.4163706 0.25843692 -0.22014996 -0.24886517 -0.14357607 0.4163706 -0.0765739
-0.16750541 0.37808365 -0.22493583 0.31586733 0.09571738 0.26322278 0.16271953 0.028715212
0.2297217 0.17229128 0.03828695 -0.3397967 -0.0765739 0.25365105 0.26322278 -0.4642293
0.11964672 -0.37329778 -0.11486085 0.17707714 -0.11486085 0.25365105 -0.03350108 0.23450758
0.42594233 -0.31586733 0.26322278 -0.06700216 0.45465752 0.0765739 0.36372602 -0.26322278

sequential_21/time_distributed_64/conv2d_34/Conv2D i1 [128, 2, 2, 1]
00000000: 2e7f 459f 9a7f a700 8c7f 3c5a 813c 9043
00000010: f712 c47f 825c 8110 ed81 b3dd df22 1081
00000020: 8132 408a e781 3cb1 4e7f 0084 087f 1bf5
00000030: 81a0 da91 8147 b6f1 8146 d91e b9d6 2f81
00000040: 7f1f 2ea4 7fbf efc5 81a3 5a1f 488b 7f6e
00000050: 7f9c 17a3 d118 7ff6 7fe1 0581 69a3 487f
00000060: e936 1781 5c81 ac58 8f18 7f16 a53f 816e
00000070: 817c ac3b 7f81 4ea8 01d2 007f 5972 4d81
00000080: e056 e27f 7f01 609b eb26 2e7f 4702 7781
00000090: d681 f4e1 7fcc 6526 3c74 537f 815b 8a7b
000000a0: 3298 7f85 c881 1f33 35cd 7ff4 816b 8a59
000000b0: ca81 f7f9 6ed2 7f31 dbc4 7f36 0b2c 397f
000000c0: acbc 7ffc 181e 0f7f 220e 7f63 bc7f 5eec
000000d0: 4e81 2141 cd7f 002f 8172 8871 947f 4830
000000e0: ac7f 7414 388f 7f9f 81b5 bc22 7fe5 abd5
000000f0: 9a62 8149 b601 c57f cb81 0391 fdca 7fa3
46 127 69 -97 -102 127 -89 0
-116 127 60 90 -127 60 -112 67
-9 18 -60 127 -126 92 -127 16
-19 -127 -77 -35 -33 34 16 -127
-127 50 64 -118 -25 -127 60 -79
78 127 0 -124 8 127 27 -11
-127 -96 -38 -111 -127 71 -74 -15
-127 70 -39 30 -71 -42 47 -127
127 31 46 -92 127 -65 -17 -59
-127 -93 90 31 72 -117 127 110
127 -100 23 -93 -47 24 127 -10
127 -31 5 -127 105 -93 72 127
-23 54 23 -127 92 -127 -84 88
-113 24 127 22 -91 63 -127 110
-127 124 -84 59 127 -127 78 -88
1 -46 0 127 89 114 77 -127
-32 86 -30 127 127 1 96 -101
-21 38 46 127 71 2 119 -127
-42 -127 -12 -31 127 -52 101 38
60 116 83 127 -127 91 -118 123
50 -104 127 -123 -56 -127 31 51
53 -51 127 -12 -127 107 -118 89
-54 -127 -9 -7 110 -46 127 49
-37 -60 127 54 11 44 57 127
-84 -68 127 -4 24 30 15 127
34 14 127 99 -68 127 94 -20
78 -127 33 65 -51 127 0 47
-127 114 -120 113 -108 127 72 48
-84 127 116 20 56 -113 127 -97
-127 -75 -68 34 127 -27 -85 -43
-102 98 -127 73 -74 1 -59 127
-53 -127 3 -111 -3 -54 127 -93

sequential_21/lstm_16/Read_2/ReadVariableOp1 i1 [128] scale=0.0041378783 zero_point=-127
00000000: 8a8a 8385 8583 8682 8385 8386 8a8d 898f
00000010: 8088 8787 8888 8b8a 8484 838d 8686 888c
00000020: 7777 7779 757a 7676 7575 7272 7b7f 7779
00000030: 797a 7375 7978 7775 7674 7176 7879 7575
00000040: 8282 8281 8081 8182 8080 8281 8081 8281
00000050: 8181 8181 8082 8182 8181 8083 8182 8180
00000060: 8888 838c 8887 868a 8587 8689 8a85 8992
00000070: 858f 8887 8f89 868a 858d 8689 8687 8988
0.037240904 0.037240904 0.008275757 0.016551513 0.016551513 0.008275757 0.02068939 0.0041378783
0.008275757 0.016551513 0.008275757 0.02068939 0.037240904 0.04965454 0.033103026 0.0579303
-0.0041378783 0.02896515 0.02482727 0.02482727 0.02896515 0.02896515 0.04137878 0.037240904
0.012413635 0.012413635 0.008275757 0.04965454 0.02068939 0.02068939 0.02896515 0.045516662
1.0179181 1.0179181 1.0179181 1.0261939 1.0096424 1.0303317 1.0137802 1.0137802
1.0096424 1.0096424 0.9972287 0.9972287 1.0344696 1.0510211 1.0179181 1.0261939
1.0261939 1.0303317 1.0013665 1.0096424 1.0261939 1.022056 1.0179181 1.0096424
1.0137802 1.0055044 0.9930908 1.0137802 1.022056 1.0261939 1.0096424 1.0096424
0.0041378783 0.0041378783 0.0041378783 0.0 -0.0041378783 0.0 0.0 0.0041378783
-0.0041378783 -0.0041378783 0.0041378783 0.0 -0.0041378783 0.0 0.0041378783 0.0
0.0 0.0 0.0 0.0 -0.0041378783 0.0041378783 0.0 0.0041378783
0.0 0.0 -0.0041378783 0.008275757 0.0 0.0041378783 0.0 -0.0041378783
0.02896515 0.02896515 0.008275757 0.045516662 0.02896515 0.02482727 0.02068939 0.037240904
0.016551513 0.02482727 0.02068939 0.033103026 0.037240904 0.016551513 0.033103026 0.070343934
0.016551513 0.0579303 0.02896515 0.02482727 0.0579303 0.033103026 0.02068939 0.037240904
0.016551513 0.04965454 0.02068939 0.033103026 0.02068939 0.02482727 0.033103026 0.02896515

while/MatMul i1 [128, 1024] scale=0.0020024474 zero_point=0
00000000: 1548 fd22 0f33 fade f609 2312 e62b 2fe2
00000010: 1b16 0c2c faed e92d 07f2 0c49 29f7 0129
00000020: 2500 2f17 f113 0344 e61f ea3f e008 01fa
00000030: 1d20 0bfa 0d1d 432b 16ea 3213 1b2d 0421
00000040: 0216 2532 2c2c 2a0a 001c 18eb 11f4 281d
00000050: 1403 2816 0515 34f7 0dfe 1af0 f503 ea04
00000060: e80e 1c1d 1a10 0926 e521 df1d 1a3d e5fe
00000070: eef2 142e 050d 1e07 e61c 101f 1d2b 1c1b
00000080: 3412 0f1c f2ee 0221 fd05 090c 1b1b 041c
00000090: f8fb 251f 2ef4 0d2d 2c25 2401 2002 fe20
000000a0: 12f8 1514 1ef7 0128 410c 1023 ed27 f8fd
000000b0: 2f1b 0626 1216 fb26 1e2f 21fd fcf2 111b
000000c0: 04f3 1108 f725 ec08 0804 0805 2422 241c
000000d0: fef9 2eee e71f ec3c f221 e0e0 1713 0af1
000000e0: 371b 20fd 0120 0a05 f814 fc21 1106 e81e
000000f0: 0d39 e2f9 f10b 1924 fcf5 1620 07ea 2f38
0.042051394 0.14417621 -0.006007342 0.06808321 0.03003671 0.10212482 -0.012014684 -0.06808321
-0.020024475 0.018022027 0.07008566 0.036044054 -0.052063633 0.086105235 0.09411503 -0.06007342
0.05406608 0.04405384 0.024029369 0.08810768 -0.012014684 -0.0380465 -0.04605629 0.09011013
0.014017131 -0.028034262 0.024029369 0.14617866 0.08210034 -0.018022027 0.0020024474 0.08210034
0.074090555 0.0 0.09411503 0.04605629 -0.03003671 0.0380465 0.006007342 0.13616642
-0.052063633 0.06207587 -0.04405384 0.12615418 -0.064078316 0.016019579 0.0020024474 -0.012014684
0.058070973 0.064078316 0.02202692 -0.012014684 0.026031816 0.058070973 0.13416398 0.086105235
0.04405384 -0.04405384 0.10012237 0.0380465 0.05406608 0.09011013 0.0080097895 0.066080764
0.0040048948 0.04405384 0.074090555 0.10012237 0.08810768 0.08810768 0.08410279 0.020024475
0.0 0.056068525 0.048058737 -0.042051394 0.034041606 -0.024029369 0.0800979 0.058070973
0.04004895 0.006007342 0.0800979 0.04405384 0.010012237 0.042051394 0.104127266 -0.018022027
0.026031816 -0.0040048948 0.052063633 -0.032039158 -0.02202692 0.006007342 -0.04405384 0.0080097895
-0.048058737 0.028034262 0.056068525 0.058070973 0.052063633 0.032039158 0.018022027 0.076093
-0.05406608 0.066080764 -0.066080764 0.058070973 0.052063633 0.12214929 -0.05406608 -0.0040048948
-0.036044054 -0.028034262 0.04004895 0.09211258 0.010012237 0.026031816 0.06007342 0.014017131
-0.052063633 0.056068525 0.032039158 0.06207587 0.058070973 0.086105235 0.056068525 0.05406608
0.104127266 0.036044054 0.03003671 0.056068525 -0.028034262 -0.036044054 0.0040048948 0.066080764
-0.006007342 0.010012237 0.018022027 0.024029369 0.05406608 0.05406608 0.0080097895 0.056068525
-0.016019579 -0.010012237 0.074090555 0.06207587 0.09211258 -0.024029369 0.026031816 0.09011013
0.08810768 0.074090555 0.07208811 0.0020024474 0.064078316 0.0040048948 -0.0040048948 0.064078316
0.036044054 -0.016019579 0.042051394 0.04004895 0.06007342 -0.018022027 0.0020024474 0.0800979
0.13015908 0.024029369 0.032039158 0.07008566 -0.0380465 0.07809545 -0.016019579 -0.006007342
0.09411503 0.05406608 0.012014684 0.076093 0.036044054 0.04405384 -0.010012237 0.076093
0.06007342 0.09411503 0.066080764 -0.006007342 -0.0080097895 -0.028034262 0.034041606 0.05406608
0.0080097895 -0.026031816 0.034041606 0.016019579 -0.018022027 0.074090555 -0.04004895 0.016019579
0.016019579 0.0080097895 0.016019579 0.010012237 0.07208811 0.06808321 0.07208811 0.056068525
-0.0040048948 -0.014017131 0.09211258 -0.036044054 -0.050061185 0.06207587 -0.04004895 0.12014684
-0.028034262 0.066080764 -0.064078316 -0.064078316 0.04605629 0.0380465 0.020024475 -0.03003671
0.11013461 0.05406608 0.064078316 -0.006007342 0.0020024474 0.064078316 0.020024475 0.010012237
-0.016019579 0.04004895 -0.0080097895 0.066080764 0.034041606 0.012014684 -0.048058737 0.06007342
0.026031816 0.1141395 -0.06007342 -0.014017131 -0.03003671 0.02202692 0.050061185 0.07208811
-0.0080097895 -0.02202692 0.04405384 0.064078316 0.014017131 -0.04405384 0.09411503 0.11213705

while/MatMul_11 i1 [128, 32] scale=0.0025359178 zero_point=0
00000000: e6d6 18cd 0f06 fd18 f446 29ed 15fd 0406
00000010: e51f 0fec 0025 d9e0 100f 1703 07e7 eb30
00000020: f7fc 0614 f8bf 28ed 1a26 e0ee f441 e702
00000030: 114f 19e4 f935 f216 05eb e601 02c7 d110
00000040: f3b0 19eb 0df4 febd fe24 1cee d3f3 ff09
00000050: 0cc8 1104 0607 3723 17f3 f41d d431 d74f
00000060: e0e2 17eb 03d2 1406 d81d db0b 2a02 d83c
00000070: 07c9 3f25 17e7 c5c5 ebe0 29d6 16fb e153
00000080: ef05 1628 2af1 2af4 030b ef21 d5e8 1626
00000090: ebec 16fc e3f1 0640 463b 4130 d9d7 26f4
000000a0: db13 0e05 1c06 f01f c437 0440 e2f8 cd07
000000b0: aec8 ed06 1f0a d506 2b3d 231c fc2d f8f5
000000c0: e8ff bfd8 4209 5718 e7ec fcfe ee17 e3f8
000000d0: b8e0 ea2c c60a 2f06 dcc1 531c 0407 f7d1
000000e0: 2ef4 d4c8 d825 bcf0 f9ec e704 120b f535
000000f0: e51d 1823 f8fc f936 0422 2ce2 aee0 0df0
-0.06593386 -0.106508546 0.060862027 -0.12933181 0.038038768 0.015215507 -0.0076077534 0.060862027
-0.030431014 0.17751424 0.10397263 -0.04818244 0.053254273 -0.0076077534 0.010143671 0.015215507
-0.06846978 0.07861345 0.038038768 -0.050718356 0.0 0.09382896 -0.098900795 -0.08114937
0.040574685 0.038038768 0.05832611 0.0076077534 0.017751426 -0.063397944 -0.053254273 0.121724054
-0.02282326 -0.010143671 0.015215507 0.050718356 -0.020287342 -0.16483466 0.10143671 -0.04818244
0.06593386 0.09636488 -0.08114937 -0.04564652 -0.030431014 0.16483466 -0.063397944 0.0050718356
0.0431106 0.2003375 0.063397944 -0.0710057 -0.017751426 0.13440365 -0.03550285 0.055790193
0.012679589 -0.053254273 -0.06593386 0.0025359178 0.0050718356 -0.14454731 -0.11918814 0.040574685
-0.03296693 -0.20287342 0.063397944 -0.053254273 0.03296693 -0.030431014 -0.0050718356 -0.1699065
-0.0050718356 0.09129304 0.0710057 -0.04564652 -0.1141163 -0.03296693 -0.0025359178 0.02282326
0.030431014 -0.1420114 0.0431106 0.010143671 0.015215507 0.017751426 0.13947548 0.08875712
0.05832611 -0.03296693 -0.030431014 0.07354162 -0.11158039 0.12425997 -0.10397263 0.2003375
-0.08114937 -0.076077536 0.05832611 -0.053254273 0.0076077534 -0.11665222 0.050718356 0.015215507
-0.10143671 0.07354162 -0.09382896 0.027895097 0.106508546 0.0050718356 -0.10143671 0.15215507
0.017751426 -0.13947548 0.15976281 0.09382896 0.05832611 -0.063397944 -0.14961915 -0.14961915
-0.053254273 -0.08114937 0.10397263 -0.106508546 0.055790193 -0.012679589 -0.07861345 0.21048118
-0.0431106 0.012679589 0.055790193 0.10143671 0.106508546 -0.038038768 0.106508546 -0.030431014
0.0076077534 0.027895097 -0.0431106 0.08368529 -0.10904446 -0.060862027 0.055790193 0.09636488
-0.053254273 -0.050718356 0.055790193 -0.010143671 -0.07354162 -0.038038768 0.015215507 0.16229874
0.17751424 0.14961915 0.16483466 0.121724054 -0.098900795 -0.10397263 0.09636488 -0.030431014
-0.09382896 0.04818244 0.03550285 0.012679589 0.0710057 0.015215507 -0.040574685 0.07861345
-0.15215507 0.13947548 0.010143671 0.16229874 -0.076077536 -0.020287342 -0.12933181 0.017751426
-0.20794526 -0.1420114 -0.04818244 0.015215507 0.07861345 0.025359178 -0.10904446 0.015215507
0.10904446 0.15469098 0.08875712 0.0710057 -0.010143671 0.1141163 -0.020287342 -0.027895097
-0.060862027 -0.0025359178 -0.16483466 -0.10143671 0.16737057 0.02282326 0.22062485 0.060862027
-0.063397944 -0.050718356 -0.010143671 -0.0050718356 -0.04564652 0.05832611 -0.07354162 -0.020287342
-0.18258607 -0.08114937 -0.055790193 0.11158039 -0.14708324 0.025359178 0.11918814 0.015215507
-0.09129304 -0.15976281 0.21048118 0.0710057 0.010143671 0.017751426 -0.02282326 -0.11918814
0.11665222 -0.030431014 -0.11158039 -0.1420114 -0.10143671 0.09382896 -0.1724424 -0.040574685
-0.017751426 -0.050718356 -0.063397944 0.010143671 0.04564652 0.027895097 -0.027895097 0.13440365
-0.06846978 0.07354162 0.060862027 0.08875712 -0.020287342 -0.010143671 -0.017751426 0.13693956
0.010143671 0.0862212 0.11158039 -0.076077536 -0.20794526 -0.08114937 0.03296693 -0.040574685
