evaluation-code/output/models/tflite/ConvLSTM_one_conv_layers_horizontal_kernel_lstm_64units_framesize_5_20230622-110221.tflite (tflite, 331192 bytes, 5 tensors)

sequential_13/dense_13/MatMul i1 [10, 64] scale=0.003006655 zero_point=0
000000 00 1f ec 26 00 2e e0 65 d2 b9 53 8d 2f 55 1e 06
       0.0 0.09320631 -0.0601331 0.11425289 0.0 0.13830613 -0.09621296 0.30367216 -0.13830613 -0.2134725 0.24955237 -0.34576532 0.1413128 0.25556567 0.09019965 0.01803993
000010 45 07 cb 13 52 50 bd a1 3e d7 4f ae 38 1e e4 ff
       0.2074592 0.021046584 -0.15935272 0.057126444 0.24654572 0.2405324 -0.20144589 -0.28563222 0.18641262 -0.12327286 0.23752575 -0.24654572 0.16837268 0.09019965 -0.08418634 -0.003006655
000020 30 b5 5e 09 cf 60 49 ba 26 71 37 c8 dd eb 54 e1
       0.14431944 -0.22549912 0.2826256 0.027059896 -0.1473261 0.2886389 0.21948582 -0.21046585 0.11425289 0.33975202 0.16536602 -0.16837268 -0.105232924 -0.06313976 0.25255904 -0.09320631
000030 c1 04 f2 31 b9 f7 a1 31 3c 66 01 5c 58 9e 0e 15
       -0.18941927 0.01202662 -0.04209317 0.1473261 -0.2134725 -0.027059896 -0.28563222 0.1473261 0.1803993 0.3066788 0.003006655 0.27661225 0.26458564 -0.2946522 0.04209317 0.06313976
000040 32 64 06 d3 9f e6 cf ec 7e 49 57 f3 7f 41 2c cf
       0.15033275 0.3006655 0.01803993 -0.13529947 -0.29164553 -0.078173034 -0.1473261 -0.0601331 0.37883854 0.21948582 0.26157898 -0.039086517 0.38184518 0.19543257 0.13229282 -0.1473261
000050 a8 f8 5c 3e 59 9d a5 6c fe d8 7d 18 f4 ef b9 5f
       -0.26458564 -0.02405324 0.27661225 0.18641262 0.2675923 -0.29765886 -0.2736056 0.32471874 -0.00601331 -0.1202662 0.37583187 0.07215972 -0.03607986 -0.051113136 -0.2134725 0.28563222
000060 23 ad c7 45 7d a4 32 1a 37 b1 45 d6 34 43 59 df
       0.105232924 -0.24955237 -0.17137934 0.2074592 0.37583187 -0.27661225 0.15033275 0.078173034 0.16536602 -0.23752575 0.2074592 -0.12627952 0.15634607 0.20144589 0.2675923 -0.09921961
000070 8e dc 8c ec 4c ec 22 52 1f 06 30 d3 d6 0e 3f ee
       -0.3427587 -0.10823958 -0.348772 -0.0601331 0.22850578 -0.0601331 0.10222627 0.24654572 0.09320631 0.01803993 0.14431944 -0.13529947 -0.12627952 0.04209317 0.18941927 -0.05411979
000080 13 bf 16 3c 29 c7 51 f2 a9 14 a7 b3 bc cd a3 ce
       0.057126444 -0.19543257 0.06614641 0.1803993 0.12327286 -0.17137934 0.24353905 -0.04209317 -0.26157898 0.0601331 -0.2675923 -0.23151244 -0.20445254 -0.1533394 -0.27961892 -0.15033275
000090 c4 0b 35 fa 4a c9 b2 42 f6 1c 28 15 44 f8 20 cf
       -0.1803993 0.033073206 0.15935272 -0.01803993 0.22249247 -0.16536602 -0.2345191 0.19843923 -0.03006655 0.08418634 0.1202662 0.06313976 0.20445254 -0.02405324 0.09621296 -0.1473261
0000a0 fa 69 e3 da 20 0c 4c a3 4b db 49 bd 1c f9 0e 3d
       -0.01803993 0.31569877 -0.087193 -0.11425289 0.09621296 0.03607986 0.22850578 -0.27961892 0.22549912 -0.111246236 0.21948582 -0.20144589 0.08418634 -0.021046584 0.04209317 0.18340595
0000b0 dd ed 0f a4 e6 f9 32 ca 38 35 c4 11 17 d7 64 07
       -0.105232924 -0.057126444 0.045099825 -0.27661225 -0.078173034 -0.021046584 0.15033275 -0.16235937 0.16837268 0.15935272 -0.1803993 0.051113136 0.06915306 -0.12327286 0.3006655 0.021046584
0000c0 38 21 ea 04 38 eb df 25 26 41 c7 1d ce a7 e0 96
       0.16837268 0.09921961 -0.06614641 0.01202662 0.16837268 -0.06313976 -0.09921961 0.111246236 0.11425289 0.19543257 -0.17137934 0.087193 -0.15033275 -0.2675923 -0.09621296 -0.31870544
0000d0 58 38 56 46 17 c2 fe 97 10 38 09 0b c2 c1 eb aa
       0.26458564 0.16837268 0.25857234 0.21046585 0.06915306 -0.18641262 -0.00601331 -0.31569877 0.04810648 0.16837268 0.027059896 0.033073206 -0.18641262 -0.18941927 -0.06313976 -0.25857234
0000e0 c7 3e e5 59 c4 b3 1d 2e 96 4c cf 2b ed be 09 cc
       -0.17137934 0.18641262 -0.081179686 0.2675923 -0.1803993 -0.23151244 0.087193 0.13830613 -0.31870544 0.22850578 -0.1473261 0.12928617 -0.057126444 -0.19843923 0.027059896 -0.15634607
0000f0 ec 32 14 0f 0f b3 57 b4 2a b5 23 a0 27 a6 e3 1a
       -0.0601331 0.15033275 0.0601331 0.045099825 0.045099825 -0.23151244 0.26157898 -0.22850578 0.12627952 -0.22549912 0.105232924 -0.2886389 0.11725955 -0.27059895 -0.087193 0.078173034

sequential_13/time_distributed_39/conv2d_20/Conv2D i1 [128, 3, 1, 1]
000000 7a 81 eb 3d a0 7f ea 7f 25 81 30 bd 36 1a 81 e2
       122 -127 -21 61 -96 127 -22 127 37 -127 48 -67 54 26 -127 -30
000010 31 7f 7f 38 fc 56 22 7f ae 99 7f 1e 52 81 81 b6
       49 127 127 56 -4 86 34 127 -82 -103 127 30 82 -127 -127 -74
000020 71 7f e5 38 88 dd 81 85 7f 59 db 81 84 e2 81 0d
       113 127 -27 56 -120 -35 -127 -123 127 89 -37 -127 -124 -30 -127 13
000030 58 d3 81 b4 59 7f 43 d4 7f 7f 38 71 06 a6 7f 81
       88 -45 -127 -76 89 127 67 -44 127 127 56 113 6 -90 127 -127
000040 d8 c3 1b 7f 00 7f 31 48 ca 7f 93 cb 7f ff 7f 79
       -40 -61 27 127 0 127 49 72 -54 127 -109 -53 127 -1 127 121
000050 38 91 7f 9b cb 13 81 5a 7f 28 1d b5 7f 7f b9 75
       56 -111 127 -101 -53 19 -127 90 127 40 29 -75 127 127 -71 117
000060 7f f8 e1 6a 7f de 44 82 81 81 87 c0 ed c6 81 ed
       127 -8 -31 106 127 -34 68 -126 -127 -127 -121 -64 -19 -58 -127 -19
000070 81 41 d8 7c 7f 81 ef df 05 a9 81 7f 3d d0 6f 7f
       -127 65 -40 124 127 -127 -17 -33 5 -87 -127 127 61 -48 111 127
000080 87 7f bd bc 46 19 81 83 af 81 81 e3 90 95 d2 81
       -121 127 -67 -68 70 25 -127 -125 -81 -127 -127 -29 -112 -107 -46 -127
000090 b9 81 15 7f 6a 9b 7f 34 05 7f 4e 2f 64 7f 78 8b
       -71 -127 21 127 106 -101 127 52 5 127 78 47 100 127 120 -117
0000a0 81 8f f9 03 81 7f a5 30 e2 7c 81 9f a6 81 df cd
       -127 -113 -7 3 -127 127 -91 48 -30 124 -127 -97 -90 -127 -33 -51
0000b0 81 d2 94 81 c8 19 7f d1 81 ca 24 7f b7 81 75 5d
       -127 -46 -108 -127 -56 25 127 -47 -127 -54 36 127 -73 -127 117 93
0000c0 d9 7f 16 10 c8 7f 16 67 7f 81 a0 97 a6 8d 7f 47
       -39 127 22 16 -56 127 22 103 127 -127 -96 -105 -90 -115 127 71
0000d0 e7 7f 4f 7f b0 81 02 30 81 1f df 08 81 9a f9 81
       -25 127 79 127 -80 -127 2 48 -127 31 -33 8 -127 -102 -7 -127
0000e0 4d 81 1e bb ab 64 7f 7f 47 5d 7f 78 61 6c 72 81
       77 -127 30 -69 -85 100 127 127 71 93 127 120 97 108 114 -127
0000f0 58 09 81 81 61 e3 fb 4d 7f 81 72 3c 68 7f eb ea
       88 9 -127 -127 97 -29 -5 77 127 -127 114 60 104 127 -21 -22

sequential_13/lstm_8/Read_2/ReadVariableOp1 i1 [256] scale=0.004125513 zero_point=-125
000000 87 8a 86 8a 89 87 92 87 87 86 86 88 86 87 8a 88
       0.016502053 0.028878592 0.012376539 0.028878592 0.024753079 0.016502053 0.061882697 0.016502053 0.016502053 0.012376539 0.012376539 0.020627566 0.012376539 0.016502053 0.028878592 0.020627566
000010 85 86 8a 89 8b 8c 86 88 87 86 83 8b 85 86 82 8a
       0.008251026 0.012376539 0.028878592 0.024753079 0.033004105 0.03712962 0.012376539 0.020627566 0.016502053 0.012376539 0.0 0.033004105 0.008251026 0.012376539 -0.004125513 0.028878592
000020 83 8c 89 88 83 8e 86 8a 8a 89 8b 8c 88 8a 85 85
       0.0 0.03712962 0.024753079 0.020627566 0.0 0.045380645 0.012376539 0.028878592 0.028878592 0.024753079 0.033004105 0.03712962 0.020627566 0.028878592 0.008251026 0.008251026
000030 87 84 8b 86 8c 85 8a 8a 8d 85 8a 8c 88 83 8f 87
       0.016502053 0.004125513 0.033004105 0.012376539 0.03712962 0.008251026 0.028878592 0.028878592 0.04125513 0.008251026 0.028878592 0.03712962 0.020627566 0.0 0.049506158 0.016502053
000040 76 7b 78 7a 78 78 7b 78 79 7d 79 7a 78 7b 7a 78
       1.0024997 1.0231273 1.0107508 1.0190017 1.0107508 1.0107508 1.0231273 1.0107508 1.0148762 1.0313783 1.0148762 1.0190017 1.0107508 1.0231273 1.0190017 1.0107508
000050 7b 76 79 76 77 7b 7a 77 7a 78 76 77 77 76 74 79
       1.0231273 1.0024997 1.0148762 1.0024997 1.0066252 1.0231273 1.0190017 1.0066252 1.0190017 1.0107508 1.0024997 1.0066252 1.0066252 1.0024997 0.9942487 1.0148762
000060 78 78 76 78 77 76 77 7b 7a 7c 7c 7a 78 7b 78 78
       1.0107508 1.0107508 1.0024997 1.0107508 1.0066252 1.0024997 1.0066252 1.0231273 1.0190017 1.0272528 1.0272528 1.0190017 1.0107508 1.0231273 1.0107508 1.0107508
000070 7a 78 7f 75 79 78 77 78 7b 75 78 78 78 78 7a 7a
       1.0190017 1.0107508 1.0396293 0.99837416 1.0148762 1.0107508 1.0066252 1.0107508 1.0231273 0.99837416 1.0107508 1.0107508 1.0107508 1.0107508 1.0190017 1.0190017
000080 82 82 82 82 80 83 82 82 82 85 84 83 83 82 81 84
       -0.004125513 -0.004125513 -0.004125513 -0.004125513 -0.012376539 0.0 -0.004125513 -0.004125513 -0.004125513 0.008251026 0.004125513 0.0 0.0 -0.004125513 -0.008251026 0.004125513
000090 84 84 83 84 83 83 83 83 85 80 82 83 82 83 83 83
       0.004125513 0.004125513 0.0 0.004125513 0.0 0.0 0.0 0.0 0.008251026 -0.012376539 -0.004125513 0.0 -0.004125513 0.0 0.0 0.0
0000a0 83 82 82 83 84 82 83 84 85 81 83 83 83 83 84 84
       0.0 -0.004125513 -0.004125513 0.0 0.004125513 -0.004125513 0.0 0.004125513 0.008251026 -0.008251026 0.0 0.0 0.0 0.0 0.004125513 0.004125513
0000b0 81 83 83 84 84 82 84 83 84 84 83 81 80 84 85 82
       -0.008251026 0.0 0.0 0.004125513 0.004125513 -0.004125513 0.004125513 0.0 0.004125513 0.004125513 0.0 -0.008251026 -0.012376539 0.004125513 0.008251026 -0.004125513
0000c0 88 8b 87 8a 8a 86 8d 88 8a 8d 88 88 89 89 88 8a
       0.020627566 0.033004105 0.016502053 0.028878592 0.028878592 0.012376539 0.04125513 0.020627566 0.028878592 0.04125513 0.020627566 0.020627566 0.024753079 0.024753079 0.020627566 0.028878592
0000d0 8a 87 88 8b 8a 91 88 89 88 88 84 8e 86 87 83 89
       0.028878592 0.016502053 0.020627566 0.033004105 0.028878592 0.057757184 0.020627566 0.024753079 0.020627566 0.020627566 0.004125513 0.045380645 0.012376539 0.016502053 0.0 0.024753079
0000e0 83 8e 89 8d 87 91 83 8a 8b 89 8e 8b 8e 89 86 89
       0.0 0.045380645 0.024753079 0.04125513 0.016502053 0.057757184 0.0 0.028878592 0.033004105 0.024753079 0.045380645 0.033004105 0.045380645 0.024753079 0.012376539 0.024753079
0000f0 8a 87 89 88 88 87 88 8a 8d 85 88 8a 8a 86 8b 87
       0.028878592 0.016502053 0.024753079 0.020627566 0.020627566 0.016502053 0.020627566 0.028878592 0.04125513 0.008251026 0.020627566 0.028878592 0.028878592 0.012376539 0.033004105 0.016502053

while/MatMul i1 [256, 1152] scale=0.0019670527 zero_point=0
000000 1c 25 05 ea 19 19 f7 0a d8 14 fe 26 e6 14 0f 17
       0.055077475 0.07278095 0.009835264 -0.04327516 0.049176317 0.049176317 -0.017703474 0.019670527 -0.07868211 0.039341055 -0.0039341054 0.074748 -0.05114337 0.039341055 0.029505791 0.045242213
000010 17 14 27 fa 0e 09 fa 28 1f 1e 1f 00 ee fa ea 04
       0.045242213 0.039341055 0.07671505 -0.011802316 0.027538737 0.017703474 -0.011802316 0.07868211 0.060978632 0.059011582 0.060978632 0.0 -0.035406947 -0.011802316 -0.04327516 0.007868211
000020 15 14 0a e1 e1 f3 02 f1 1b f2 25 32 04 e7 e1 20
       0.041308105 0.039341055 0.019670527 -0.060978632 -0.060978632 -0.025571685 0.0039341054 -0.029505791 0.053110424 -0.027538737 0.07278095 0.09835263 0.007868211 -0.049176317 -0.060978632 0.06294569
000030 07 ed 02 22 fe fd 0d 23 31 07 f4 fa ee 0b 0b fa
       0.013769369 -0.037374 0.0039341054 0.066879794 -0.0039341054 -0.005901158 0.025571685 0.068846844 0.09638558 0.013769369 -0.023604631 -0.011802316 -0.035406947 0.02163758 0.02163758 -0.011802316
000040 1a ea 05 05 0b f7 f3 d8 ee ef e6 ee 09 26 f2 fc
       0.05114337 -0.04327516 0.009835264 0.009835264 0.02163758 -0.017703474 -0.025571685 -0.07868211 -0.035406947 -0.033439897 -0.05114337 -0.035406947 0.017703474 0.074748 -0.027538737 -0.007868211
000050 14 0d f1 25 29 f4 0f e3 f8 fa 35 09 f8 f2 1c 17
       0.039341055 0.025571685 -0.029505791 0.07278095 0.08064916 -0.023604631 0.029505791 -0.05704453 -0.015736422 -0.011802316 0.10425379 0.017703474 -0.015736422 -0.027538737 0.055077475 0.045242213
000060 f2 20 15 e7 fa 3f 2e 0f 0f e6 f0 0f fc 15 f3 ef
       -0.027538737 0.06294569 0.041308105 -0.049176317 -0.011802316 0.12392432 0.090484425 0.029505791 0.029505791 -0.05114337 -0.031472843 0.029505791 -0.007868211 0.041308105 -0.025571685 -0.033439897
000070 fd 25 eb 31 ec f6 fd 1d f9 2c 0f 06 1b e1 0a e7
       -0.005901158 0.07278095 -0.041308105 0.09638558 -0.039341055 -0.019670527 -0.005901158 0.05704453 -0.013769369 0.08655032 0.029505791 0.011802316 0.053110424 -0.060978632 0.019670527 -0.049176317
000080 2a f6 13 13 29 0b f9 e7 23 1b ff f1 04 e6 f7 09
       0.08261621 -0.019670527 0.037374 0.037374 0.08064916 0.02163758 -0.013769369 -0.049176317 0.068846844 0.053110424 -0.0019670527 -0.029505791 0.007868211 -0.05114337 -0.017703474 0.017703474
000090 10 e1 14 db 18 e4 08 17 2f fb e4 29 f5 f6 0e f0
       0.031472843 -0.060978632 0.039341055 -0.07278095 0.047209263 -0.055077475 0.015736422 0.045242213 0.092451476 -0.009835264 -0.055077475 0.08064916 -0.02163758 -0.019670527 0.027538737 -0.031472843
0000a0 04 0d 1b fa ff 1d ed 05 f3 df 13 09 1a 1b 07 19
       0.007868211 0.025571685 0.053110424 -0.011802316 -0.0019670527 0.05704453 -0.037374 0.009835264 -0.025571685 -0.06491274 0.037374 0.017703474 0.05114337 0.053110424 0.013769369 0.049176317
0000b0 f1 df 16 ea 09 0b e8 0d fc f8 05 1c 0a 04 e0 15
       -0.029505791 -0.06491274 0.04327516 -0.04327516 0.017703474 0.02163758 -0.047209263 0.025571685 -0.007868211 -0.015736422 0.009835264 0.055077475 0.019670527 0.007868211 -0.06294569 0.041308105
0000c0 db 13 e8 f9 32 dc f9 31 0c e8 0b f2 18 eb d9 10
       -0.07278095 0.037374 -0.047209263 -0.013769369 0.09835263 -0.070813894 -0.013769369 0.09638558 0.023604631 -0.047209263 0.02163758 -0.027538737 0.047209263 -0.041308105 -0.07671505 0.031472843
0000d0 34 11 e4 04 17 21 fa 13 03 19 11 39 20 26 de f9
       0.10228674 0.033439897 -0.055077475 0.007868211 0.045242213 0.06491274 -0.011802316 0.037374 0.005901158 0.049176317 0.033439897 0.11212201 0.06294569 0.074748 -0.066879794 -0.013769369
0000e0 f9 e7 fb de e5 3a 0e 0c 0d 3c 12 21 28 0c ee 04
       -0.013769369 -0.049176317 -0.009835264 -0.066879794 -0.053110424 0.11408906 0.027538737 0.023604631 0.025571685 0.118023165 0.035406947 0.06491274 0.07868211 0.023604631 -0.035406947 0.007868211
0000f0 ed f2 17 f9 fb 00 e5 f9 e2 e9 26 07 01 f8 20 1c
       -0.037374 -0.027538737 0.045242213 -0.013769369 -0.009835264 0.0 -0.053110424 -0.013769369 -0.059011582 -0.045242213 0.074748 0.013769369 0.0019670527 -0.015736422 0.06294569 0.055077475

while/MatMul_11 i1 [256, 64] scale=0.0022233648 zero_point=0
000000 19 48 fc 1c f0 0e e6 3e f9 fa 0f 1e d9 02 17 f5
       0.055584118 0.16008227 -0.008893459 0.062254213 -0.035573836 0.031127106 -0.057807483 0.13784862 -0.015563553 -0.013340188 0.03335047 0.06670094 -0.08671123 0.0044467296 0.05113739 -0.024457013
000010 52 0c f9 ea e7 ee 06 07 16 ed db df 2a fb 01 ee
       0.18231592 0.026680376 -0.015563553 -0.048914026 -0.055584118 -0.040020566 0.013340188 0.015563553 0.048914026 -0.04224393 -0.0822645 -0.07337104 0.09338132 -0.011116824 0.0022233648 -0.040020566
000020 00 d9 0c f4 e4 f9 27 1e ee df 21 bf ea e2 db e3
       0.0 -0.08671123 0.026680376 -0.026680376 -0.062254213 -0.015563553 0.08671123 0.06670094 -0.040020566 -0.07337104 0.07337104 -0.1445187 -0.048914026 -0.06670094 -0.0822645 -0.06447758
000030 f4 ee 0e de f0 aa cc fe 06 ee c3 1e 20 f4 10 37
       -0.026680376 -0.040020566 0.031127106 -0.0755944 -0.035573836 -0.19120938 -0.115614966 -0.0044467296 0.013340188 -0.040020566 -0.13562526 0.06670094 0.07114767 -0.026680376 0.035573836 0.12228506
000040 ff 08 32 ef fa ef 0d 1e e8 d7 f0 0b e9 f7 1c 08
       -0.0022233648 0.017786918 0.111168236 -0.0377972 -0.013340188 -0.0377972 0.028903741 0.06670094 -0.053360753 -0.09115796 -0.035573836 0.024457013 -0.05113739 -0.020010283 0.062254213 0.017786918
000050 4b 0e df ec 4b f2 0a 23 db 27 1d 1f 0c dc f1 f5
       0.16675235 0.031127106 -0.07337104 -0.044467296 0.16675235 -0.031127106 0.022233648 0.07781777 -0.0822645 0.08671123 0.06447758 0.06892431 0.026680376 -0.08004113 -0.03335047 -0.024457013
000060 25 d3 0b e8 3e 2c f1 ec 07 01 20 d5 fe d4 00 1e
       0.0822645 -0.10005142 0.024457013 -0.053360753 0.13784862 0.09782805 -0.03335047 -0.044467296 0.015563553 0.0022233648 0.07114767 -0.09560469 -0.0044467296 -0.09782805 0.0 0.06670094
000070 ff e7 0c cf e5 05 0a f9 13 ff 0f 41 22 18 ef 03
       -0.0022233648 -0.055584118 0.026680376 -0.10894487 -0.060030848 0.011116824 0.022233648 -0.015563553 0.04224393 -0.0022233648 0.03335047 0.1445187 0.0755944 0.053360753 -0.0377972 0.006670094
000080 e7 fc f5 1a a6 05 07 16 5c f2 d7 0d ed e6 26 ff
       -0.055584118 -0.008893459 -0.024457013 0.057807483 -0.20010284 0.011116824 0.015563553 0.048914026 0.20454957 -0.031127106 -0.09115796 0.028903741 -0.04224393 -0.057807483 0.08448786 -0.0022233648
000090 ce 2a df e3 0f 08 0f ef f1 01 20 14 f7 db f6 03
       -0.111168236 0.09338132 -0.07337104 -0.06447758 0.03335047 0.017786918 0.03335047 -0.0377972 -0.03335047 0.0022233648 0.07114767 0.044467296 -0.020010283 -0.0822645 -0.022233648 0.006670094
0000a0 19 e7 ef 02 fd 12 0a f4 1c 5d 13 e5 ec 08 d3 ff
       0.055584118 -0.055584118 -0.0377972 0.0044467296 -0.006670094 0.040020566 0.022233648 -0.026680376 0.062254213 0.20677292 0.04224393 -0.060030848 -0.044467296 0.017786918 -0.10005142 -0.0022233648
0000b0 05 ea 1c f0 ca f3 1b fd 11 20 f4 12 1a e6 11 1f
       0.011116824 -0.048914026 0.062254213 -0.035573836 -0.120061696 -0.028903741 0.060030848 -0.006670094 0.0377972 0.07114767 -0.026680376 0.040020566 0.057807483 -0.057807483 0.0377972 0.06892431
0000c0 0f d7 fa c9 1f f9 01 e6 0a 11 23 2c 3c f1 ca e5
       0.03335047 -0.09115796 -0.013340188 -0.12228506 0.06892431 -0.015563553 0.0022233648 -0.057807483 0.022233648 0.0377972 0.07781777 0.09782805 0.13340189 -0.03335047 -0.120061696 -0.060030848
0000d0 27 fc fc dc ee 03 f2 14 1e 1e 09 00 2c 0d 1f 21
       0.08671123 -0.008893459 -0.008893459 -0.08004113 -0.040020566 0.006670094 -0.031127106 0.044467296 0.06670094 0.06670094 0.020010283 0.0 0.09782805 0.028903741 0.06892431 0.07337104
0000e0 fe f2 22 08 18 fd 20 e7 f5 06 26 00 10 d0 0b 1e
       -0.0044467296 -0.031127106 0.0755944 0.017786918 0.053360753 -0.006670094 0.07114767 -0.055584118 -0.024457013 0.013340188 0.08448786 0.0 0.035573836 -0.106721506 0.024457013 0.06670094
0000f0 06 37 ec de f9 ca ee ff 10 d5 d9 0f 0f 14 19 17
       0.013340188 0.12228506 -0.044467296 -0.0755944 -0.015563553 -0.120061696 -0.040020566 -0.0022233648 0.035573836 -0.09560469 -0.08671123 0.03335047 0.03335047 0.044467296 0.055584118 0.05113739
