evaluation-code/output/models/tflite/expr_2_ConvLSTM_complex_horizontal_kernel_lstm_128units_framesize_5_20230622-113536.tflite (tflite, 222696 bytes, 6 tensors)

sequential_20/dense_20/MatMul i1 [10, 128] scale=0.0022473268 zero_point=0
00000000: 2a24 2536 a0f8 9c54 d9f2 41b3 6511 08db
00000010: b004 3730 b4c7 3ef5 dd45 cfc5 bf0d 4df6
00000020: ac60 ac34 fdd8 ddc6 1bac 353a 1dc8 f059
00000030: a2ef 62e4 e71b d622 c5b1 22fa f62d 2f0a
00000040: ed28 47d1 0bac fde4 1459 a4d7 4a0a c409
00000050: f32d 044b ce25 34de b164 d835 e4be a3ee
00000060: 3b48 4415 c1f8 500f 3555 4ccb 449d 3c0c
00000070: 5bac b005 0cbd c24b fbc0 21f6 3aa8 172c
00000080: c114 186a fe0c 49eb 66f4 5527 e3a0 bd1d
00000090: afd3 fbc6 4232 b49d 4402 aa56 a24f c0a3
000000a0: 0b57 fb84 b1cb 2aee b832 bc2c 6bd2 39d9
000000b0: 0f96 e059 59ea be10 3a12 feba dc9a b9c6
000000c0: ddbb ab12 c40f 3fb2 3e69 d489 dc4b 8eee
000000d0: f0e6 7a01 aaba 1660 f11a edde 9a63 24ee
000000e0: 6347 afed 39f9 0bd8 d745 3781 f768 6910
000000f0: d44b eca7 1417 5fba 0c1d b1a5 a3bc 7013
0.094387725 0.08090376 0.08315109 0.121355645 -0.21574336 -0.017978614 -0.22473268 0.18877545
-0.08764575 -0.031462576 0.14607625 -0.17304416 0.22698 0.038204554 0.017978614 -0.08315109
-0.17978615 0.008989307 0.12360297 0.10787168 -0.17079684 -0.12809762 0.13933426 -0.024720594
-0.078656435 0.15506555 -0.110119015 -0.13259228 -0.14607625 0.029215248 0.17304416 -0.022473268
-0.18877545 0.21574336 -0.18877545 0.11686099 -0.00674198 -0.08989307 -0.078656435 -0.13034496
0.060677823 -0.18877545 0.11910832 0.13034496 0.06517248 -0.1258503 -0.03595723 0.20001209
-0.21124871 -0.038204554 0.22023803 -0.06292515 -0.05618317 0.060677823 -0.094387725 0.07640911
-0.13259228 -0.17753881 0.07640911 -0.01348396 -0.022473268 0.1011297 0.105624355 0.022473268
-0.04269921 0.08989307 0.1595602 -0.105624355 0.024720594 -0.18877545 -0.00674198 -0.06292515
0.044946536 0.20001209 -0.20675406 -0.0921404 0.16630217 0.022473268 -0.13483961 0.02022594
-0.029215248 0.1011297 0.008989307 0.16854951 -0.11236634 0.08315109 0.11686099 -0.07640911
-0.17753881 0.22473268 -0.08989307 0.11910832 -0.06292515 -0.14832357 -0.20900139 -0.04045188
0.13259228 0.16180752 0.15281822 0.047193862 -0.14158158 -0.017978614 0.17978615 0.033709902
0.11910832 0.19102277 0.17079684 -0.11910832 0.15281822 -0.22248535 0.13483961 0.02696792
0.20450674 -0.18877545 -0.17978615 0.011236634 0.02696792 -0.1505709 -0.13933426 0.16854951
-0.011236634 -0.14382891 0.07416178 -0.022473268 0.13034496 -0.19776475 0.051688515 0.09888238
-0.14158158 0.044946536 0.05393584 0.23821664 -0.0044946535 0.02696792 0.16405486 -0.047193862
0.22922733 -0.02696792 0.19102277 0.08764575 -0.06517248 -0.21574336 -0.1505709 0.06517248
-0.18203346 -0.1011297 -0.011236634 -0.13034496 0.14832357 0.11236634 -0.17079684 -0.22248535
0.15281822 0.0044946535 -0.1932701 0.1932701 -0.21124871 0.17753881 -0.14382891 -0.20900139
0.024720594 0.19551744 -0.011236634 -0.27866852 -0.17753881 -0.11910832 0.094387725 -0.04045188
-0.16180752 0.11236634 -0.15281822 0.09888238 0.24046397 -0.10337703 0.12809762 -0.08764575
0.033709902 -0.23821664 -0.07191446 0.20001209 0.20001209 -0.04944119 -0.14832357 0.03595723
0.13034496 0.04045188 -0.0044946535 -0.15731287 -0.08090376 -0.22922733 -0.1595602 -0.13034496
-0.078656435 -0.15506555 -0.19102277 0.04045188 -0.13483961 0.033709902 0.14158158 -0.1752915
0.13933426 0.2359693 -0.09888238 -0.26743189 -0.08090376 0.16854951 -0.25619525 -0.04045188
-0.03595723 -0.058430497 0.27417386 0.0022473268 -0.1932701 -0.15731287 0.04944119 0.21574336
-0.033709902 0.058430497 -0.04269921 -0.07640911 -0.22922733 0.22248535 0.08090376 -0.04045188
0.22248535 0.1595602 -0.18203346 -0.04269921 0.12809762 -0.015731288 0.024720594 -0.08989307
-0.0921404 0.15506555 0.12360297 -0.2854105 -0.02022594 0.23372199 0.2359693 0.03595723
-0.09888238 0.16854951 -0.044946536 -0.20001209 0.044946536 0.051688515 0.21349604 -0.15731287
0.02696792 0.06517248 -0.17753881 -0.20450674 -0.20900139 -0.15281822 0.2517006 0.04269921

sequential_20/time_distributed_61/conv2d_33/Conv2D i1 [128, 2, 2, 128]
00000000: bde9 c22d 0435 1705 dbd5 152e 1bc6 d709
00000010: 4cf1 252e 4ae7 491f 4413 fb2d fe08 b152
00000020: 3e96 f40f 4807 e013 f141 cd2d baf1 fad6
00000030: f8bf 4fc6 d9d7 f845 fcd2 39e2 42dd 0631
00000040: 3dff 382d cd37 4b30 e1f6 d9d4 17ce f208
00000050: ba02 fb15 fffc 33c3 ef2e f4c7 efc2 f8e6
00000060: e32a e7ed 34d7 fb02 bad8 393c 40e1 f43b
00000070: f6dd d5ee 05f2 f330 f326 16e4 c8b4 f1b5
00000080: e7cf f411 36cb 50eb c81a 09f4 2ed0 37f8
00000090: d51d 41f0 2f05 ebd5 d7be da42 653a 35f1
000000a0: e1e4 d8dc 1fec 2f54 08c9 6ae7 372f 35f6
000000b0: 2ecf c216 4eac cd0d b2d5 34b2 c850 1c21
000000c0: 3c12 0f09 da2b 2df2 e43e 322b 01ee 16f8
000000d0: 1809 14bc e13f 3abe ddde e046 1123 acf9
000000e0: e763 03fc 3cdd fac8 49d3 21ad c517 6f4b
000000f0: b7dc 0206 0a35 f2f0 eb05 50c5 e404 f707
-67 -23 -62 45 4 53 23 5
-37 -43 21 46 27 -58 -41 9
76 -15 37 46 74 -25 73 31
68 19 -5 45 -2 8 -79 82
62 -106 -12 15 72 7 -32 19
-15 65 -51 45 -70 -15 -6 -42
-8 -65 79 -58 -39 -41 -8 69
-4 -46 57 -30 66 -35 6 49
61 -1 56 45 -51 55 75 48
-31 -10 -39 -44 23 -50 -14 8
-70 2 -5 21 -1 -4 51 -61
-17 46 -12 -57 -17 -62 -8 -26
-29 42 -25 -19 52 -41 -5 2
-70 -40 57 60 64 -31 -12 59
-10 -35 -43 -18 5 -14 -13 48
-13 38 22 -28 -56 -76 -15 -75
-25 -49 -12 17 54 -53 80 -21
-56 26 9 -12 46 -48 55 -8
-43 29 65 -16 47 5 -21 -43
-41 -66 -38 66 101 58 53 -15
-31 -28 -40 -36 31 -20 47 84
8 -55 106 -25 55 47 53 -10
46 -49 -62 22 78 -84 -51 13
-78 -43 52 -78 -56 80 28 33
60 18 15 9 -38 43 45 -14
-28 62 50 43 1 -18 22 -8
24 9 20 -68 -31 63 58 -66
-35 -34 -32 70 17 35 -84 -7
-25 99 3 -4 60 -35 -6 -56
73 -45 33 -83 -59 23 111 75
-73 -36 2 6 10 53 -14 -16
-21 5 80 -59 -28 4 -9 7

sequential_20/time_distributed_60/conv2d_32/Conv2D i1 [128, 3, 1, 1]
00000000: 814d ed7f 489b 81b2 8481 ddb3 7f61 6481
00000010: a0ca d981 7b81 df56 7fff 5287 f381 fca1
00000020: 816a 997f 63c5 8181 41e6 81e1 d47f 56df
00000030: 814e c57f 2a33 7fe4 d87f 0c7a 8109 056d
00000040: 7f62 7f37 9cae 6981 1da6 7faf 337f 810d
00000050: 3c91 8185 81fc 4440 7fd2 db63 8103 7f1f
00000060: 7f70 e9d0 8129 b87f c035 7f50 267f 1ca0
00000070: 337f 8196 8a5f ec81 a37f 88a4 3c7f 7fbc
00000080: c281 d381 487f 5c1d 7f29 7f71 00df 7f6d
00000090: 0081 bf7f 013e 3c7f 7000 4e81 2c81 295b
000000a0: 7fcf 6d7f e5ff 81f8 7f3e 23b5 337f e7e1
000000b0: 817f 5b04 7f3e cb93 db7f 487f 4dc4 df81
000000c0: 81f5 74e1 7f56 cd6c 7f7f 3e87 b765 8198
000000d0: 81ee 9a7f 265f 7f0b 81d7 7a9c ff81 89b2
000000e0: 7f7f 13f6 8151 8f47 7f0d fa15 817f ed27
000000f0: 8141 95d5 7fdf 8148 2181 17f6 7f08 ae7a
-127 77 -19 127 72 -101 -127 -78
-124 -127 -35 -77 127 97 100 -127
-96 -54 -39 -127 123 -127 -33 86
127 -1 82 -121 -13 -127 -4 -95
-127 106 -103 127 99 -59 -127 -127
65 -26 -127 -31 -44 127 86 -33
-127 78 -59 127 42 51 127 -28
-40 127 12 122 -127 9 5 109
127 98 127 55 -100 -82 105 -127
29 -90 127 -81 51 127 -127 13
60 -111 -127 -123 -127 -4 68 64
127 -46 -37 99 -127 3 127 31
127 112 -23 -48 -127 41 -72 127
-64 53 127 80 38 127 28 -96
51 127 -127 -106 -118 95 -20 -127
-93 127 -120 -92 60 127 127 -68
-62 -127 -45 -127 72 127 92 29
127 41 127 113 0 -33 127 109
0 -127 -65 127 1 62 60 127
112 0 78 -127 44 -127 41 91
127 -49 109 127 -27 -1 -127 -8
127 62 35 -75 51 127 -25 -31
-127 127 91 4 127 62 -53 -109
-37 127 72 127 77 -60 -33 -127
-127 -11 116 -31 127 86 -51 108
127 127 62 -121 -73 101 -127 -104
-127 -18 -102 127 38 95 127 11
-127 -41 122 -100 -1 -127 -119 -78
127 127 19 -10 -127 81 -113 71
127 13 -6 21 -127 127 -19 39
-127 65 -107 -43 127 -33 -127 72
33 -127 23 -10 127 8 -82 122

sequential_20/lstm_15/Read_2/ReadVariableOp1 i1 [512] scale=0.004136623 zero_point=-124
00000000: 8488 8f8b 8a89 8688 868d 8688 8a87 848d
00000010: 868b 8b87 8689 8888 878d 868e 8f8d 8a8e
00000020: 8888 8f88 898b 878b 888a 8588 888b 8a8b
00000030: 8a8b 8c88 8c88 8986 878b 8888 868a 9188
00000040: 8c89 8f8a 8a87 8689 8d85 8385 8b89 888a
00000050: 8489 8589 8989 8488 8b8a 8686 8b8c 8a86
00000060: 8a89 878c 8a8a 888c 8b8d 8886 8e8a 8990
00000070: 8889 8889 888a 878d 8b86 8c88 8d89 878b
00000080: 767a 7a79 7c7c 757d 787a 7678 7579 787c
00000090: 787d 7d7b 757b 7977 797b 767f 7c7b 7a7b
000000a0: 777b 7e78 7679 7b77 7a7d 7878 787a 777b
000000b0: 7a7a 7a78 7b78 7877 777b 777a 747b 7d7b
000000c0: 7978 7d7b 7b78 777b 7b77 7770 7b7d 7b7b
000000d0: 757a 777f 787a 7778 7c7b 7a76 797e 7b79
000000e0: 7f78 7b78 7d7b 7778 7c7e 7977 7c7c 7c7d
000000f0: 777b 787a 7a78 787a 7a7a 7c7a 7f7a 777e
0.0 0.016546492 0.045502853 0.028956361 0.024819737 0.020683113 0.008273246 0.016546492
0.008273246 0.037229605 0.008273246 0.016546492 0.024819737 0.012409869 0.0 0.037229605
0.008273246 0.028956361 0.028956361 0.012409869 0.008273246 0.020683113 0.016546492 0.016546492
0.012409869 0.037229605 0.008273246 0.041366227 0.045502853 0.037229605 0.024819737 0.041366227
0.016546492 0.016546492 0.045502853 0.016546492 0.020683113 0.028956361 0.012409869 0.028956361
0.016546492 0.024819737 0.004136623 0.016546492 0.016546492 0.028956361 0.024819737 0.028956361
0.024819737 0.028956361 0.033092983 0.016546492 0.033092983 0.016546492 0.020683113 0.008273246
0.012409869 0.028956361 0.016546492 0.016546492 0.008273246 0.024819737 0.053776097 0.016546492
0.033092983 0.020683113 0.045502853 0.024819737 0.024819737 0.012409869 0.008273246 0.020683113
0.037229605 0.004136623 -0.004136623 0.004136623 0.028956361 0.020683113 0.016546492 0.024819737
0.0 0.020683113 0.004136623 0.020683113 0.020683113 0.020683113 0.0 0.016546492
0.028956361 0.024819737 0.008273246 0.008273246 0.028956361 0.033092983 0.024819737 0.008273246
0.024819737 0.020683113 0.012409869 0.033092983 0.024819737 0.024819737 0.016546492 0.033092983
0.028956361 0.037229605 0.016546492 0.008273246 0.041366227 0.024819737 0.020683113 0.049639475
0.016546492 0.020683113 0.016546492 0.020683113 0.016546492 0.024819737 0.012409869 0.037229605
0.028956361 0.008273246 0.033092983 0.016546492 0.037229605 0.020683113 0.012409869 0.028956361
1.0010628 1.0176092 1.0176092 1.0134726 1.0258825 1.0258825 0.9969261 1.030019
1.009336 1.0176092 1.0010628 1.009336 0.9969261 1.0134726 1.009336 1.0258825
1.009336 1.030019 1.030019 1.0217458 0.9969261 1.0217458 1.0134726 1.0051993
1.0134726 1.0217458 1.0010628 1.0382923 1.0258825 1.0217458 1.0176092 1.0217458
1.0051993 1.0217458 1.0341557 1.009336 1.0010628 1.0134726 1.0217458 1.0051993
1.0176092 1.030019 1.009336 1.009336 1.009336 1.0176092 1.0051993 1.0217458
1.0176092 1.0176092 1.0176092 1.009336 1.0217458 1.009336 1.009336 1.0051993
1.0051993 1.0217458 1.0051993 1.0176092 0.9927895 1.0217458 1.030019 1.0217458
1.0134726 1.009336 1.030019 1.0217458 1.0217458 1.009336 1.0051993 1.0217458
1.0217458 1.0051993 1.0051993 0.976243 1.0217458 1.030019 1.0217458 1.0217458
0.9969261 1.0176092 1.0051993 1.0382923 1.009336 1.0176092 1.0051993 1.009336
1.0258825 1.0217458 1.0176092 1.0010628 1.0134726 1.0341557 1.0217458 1.0134726
1.0382923 1.009336 1.0217458 1.009336 1.030019 1.0217458 1.0051993 1.009336
1.0258825 1.0341557 1.0134726 1.0051993 1.0258825 1.0258825 1.0258825 1.030019
1.0051993 1.0217458 1.009336 1.0176092 1.0176092 1.009336 1.009336 1.0176092
1.0176092 1.0176092 1.0258825 1.0176092 1.0382923 1.0176092 1.0051993 1.0341557

while/MatMul i1 [512, 128] scale=0.0018072055 zero_point=0
00000000: 0a2b d738 d734 edfd 3a02 3d14 01e6 1f32
00000010: 0de5 2b2a 0eea 3412 2b41 1719 0906 e0e8
00000020: de13 d704 3718 2807 4d04 2ffd 1419 e604
00000030: 2914 d4da 1120 cae4 2ce9 15de 38d5 e8e4
00000040: c907 1b14 ec30 2cd6 d607 0311 f725 2f14
00000050: f2fc ce21 e30f 1f38 1f4c 1d29 1723 f42c
00000060: f7db e11b cc03 e52b 370c e300 fdd5 d4fc
00000070: 100b 271f 1935 cd22 e534 f2d0 1d1c 2b1a
00000080: 10f2 e4fe 321c 33ea ce1b dde9 21fb 170c
00000090: e809 2bf5 d634 002c fafb e119 f833 eddd
000000a0: df02 2f18 fa09 2830 2adc 31fe 370f 37df
000000b0: f21d 1dfb f817 ee00 e407 1337 240a f6fa
000000c0: 263a 32d3 0627 2230 39f0 f036 d93c 1d0f
000000d0: 2af9 ed15 f2d5 392e 2a2a 2616 d427 db2d
000000e0: edf9 efcd 2036 0b16 eb07 2614 e8d8 2b2d
000000f0: 150e 23e3 033b 2700 e4d9 19f6 d7d9 dd20
0.018072056 0.07770984 -0.07409543 0.10120351 -0.07409543 0.09397469 -0.034336906 -0.0054216166
0.10481792 0.003614411 0.110239536 0.03614411 0.0018072055 -0.046987344 0.05602337 0.09036028
0.023493672 -0.04879455 0.07770984 0.07590263 0.025300877 -0.039758522 0.09397469 0.0325297
0.07770984 0.11746836 0.041565727 0.04518014 0.01626485 0.010843233 -0.057830576 -0.043372933
-0.061444987 0.034336906 -0.07409543 0.007228822 0.0993963 0.043372933 0.07228822 0.012650439
0.13915482 0.007228822 0.08493866 -0.0054216166 0.03614411 0.04518014 -0.046987344 0.007228822
0.07409543 0.03614411 -0.079517044 -0.06867381 0.030722493 0.057830576 -0.0975891 -0.050601754
0.079517044 -0.041565727 0.037951317 -0.061444987 0.10120351 -0.07770984 -0.043372933 -0.050601754
-0.0993963 0.012650439 0.04879455 0.03614411 -0.03614411 0.086745866 0.079517044 -0.07590263
-0.07590263 0.012650439 0.0054216166 0.030722493 -0.01626485 0.06686661 0.08493866 0.03614411
-0.025300877 -0.007228822 -0.09036028 0.05963778 -0.05240896 0.027108083 0.05602337 0.10120351
0.05602337 0.13734762 0.05240896 0.07409543 0.041565727 0.063252196 -0.021686466 0.079517044
-0.01626485 -0.06686661 -0.05602337 0.04879455 -0.09397469 0.0054216166 -0.04879455 0.07770984
0.0993963 0.021686466 -0.05240896 0.0 -0.0054216166 -0.07770984 -0.079517044 -0.007228822
0.028915288 0.019879261 0.07048102 0.05602337 0.04518014 0.09578189 -0.09216748 0.061444987
-0.04879455 0.09397469 -0.025300877 -0.086745866 0.05240896 0.050601754 0.07770984 0.046987344
0.028915288 -0.025300877 -0.050601754 -0.003614411 0.09036028 0.050601754 0.09216748 -0.039758522
-0.09036028 0.04879455 -0.063252196 -0.041565727 0.05963778 -0.009036028 0.041565727 0.021686466
-0.043372933 0.01626485 0.07770984 -0.019879261 -0.07590263 0.09397469 0.0 0.079517044
-0.010843233 -0.009036028 -0.05602337 0.04518014 -0.014457644 0.09216748 -0.034336906 -0.063252196
-0.05963778 0.003614411 0.08493866 0.043372933 -0.010843233 0.01626485 0.07228822 0.086745866
0.07590263 -0.0650594 0.08855307 -0.003614411 0.0993963 0.027108083 0.0993963 -0.05963778
-0.025300877 0.05240896 0.05240896 -0.009036028 -0.014457644 0.041565727 -0.0325297 0.0
-0.050601754 0.012650439 0.034336906 0.0993963 0.0650594 0.018072056 -0.018072056 -0.010843233
0.06867381 0.10481792 0.09036028 -0.08132425 0.010843233 0.07048102 0.061444987 0.086745866
0.103010714 -0.028915288 -0.028915288 0.0975891 -0.07048102 0.10843233 0.05240896 0.027108083
0.07590263 -0.012650439 -0.034336906 0.037951317 -0.025300877 -0.07770984 0.103010714 0.083131455
0.07590263 0.07590263 0.06867381 0.039758522 -0.079517044 0.07048102 -0.06686661 0.08132425
-0.034336906 -0.012650439 -0.030722493 -0.09216748 0.057830576 0.0975891 0.019879261 0.039758522
-0.037951317 0.012650439 0.06867381 0.03614411 -0.043372933 -0.07228822 0.07770984 0.08132425
0.037951317 0.025300877 0.063252196 -0.05240896 0.0054216166 0.106625125 0.07048102 0.0
-0.050601754 -0.07048102 0.04518014 -0.018072056 -0.07409543 -0.07048102 -0.063252196 0.057830576

while/MatMul_11 i1 [512, 128] scale=0.0016699078 zero_point=0
00000000: eaf4 f129 3ed0 fe10 f007 0d2a 0305 fe01
00000010: bf00 0ae2 0338 c607 1f29 ee18 f8ee e4d2
00000020: 1411 d4ec cef1 1822 4b16 13f2 25d0 09be
00000030: 1809 0cd4 1bf6 d40c f608 15cb f712 f719
00000040: 08ff 0df8 0bc5 1327 ea1b c6cb 05ef 32f0
00000050: 03de 15ff 10bc e7fa e9e4 08fd f61c fd10
00000060: d514 1205 0f1c 0115 f2eb 0ef9 11fe 04ef
00000070: 1419 1f1a 2b23 05e4 0827 f5ea f421 e303
00000080: 16fd fde0 1ff4 1a0f 0cf4 120a fc27 11e3
00000090: fffb 0ffc 1e0f 30f6 12df 03f4 23fd 122e
000000a0: e9e8 ecf7 180d e921 2809 0bf1 1d13 f822
000000b0: 11fb 0ae4 d4ff 12cd fe25 d701 2d22 0429
000000c0: fedd 0611 fa33 13f8 e3ec 1b26 07cc e7f2
000000d0: 160b e3ec 23e9 29f4 1528 0d0d 0b12 1530
000000e0: 0edc 1010 d2fb cc34 0b06 19fa 14f5 f130
000000f0: fbd7 1711 2fd9 0bc7 0ff2 1927 1c22 ecdf
-0.03673797 -0.020038893 -0.025048617 0.068466224 0.10353429 -0.080155574 -0.0033398157 0.026718525
-0.026718525 0.011689355 0.021708801 0.07013613 0.0050097234 0.008349539 -0.0033398157 0.0016699078
-0.10854401 0.0 0.016699078 -0.050097235 0.0050097234 0.09351484 -0.09685466 0.011689355
0.051767144 0.068466224 -0.030058341 0.040077787 -0.013359263 -0.030058341 -0.04675742 -0.07681576
0.033398155 0.028388433 -0.07347594 -0.033398155 -0.08349539 -0.025048617 0.040077787 0.056776866
0.12524308 0.03673797 0.03172825 -0.02337871 0.06178659 -0.080155574 0.015029171 -0.11021391
0.040077787 0.015029171 0.020038893 -0.07347594 0.045087513 -0.016699078 -0.07347594 0.020038893
-0.016699078 0.013359263 0.035068065 -0.08850511 -0.015029171 0.030058341 -0.015029171 0.041747697
0.013359263 -0.0016699078 0.021708801 -0.013359263 0.018368986 -0.09852456 0.03172825 0.065126404
-0.03673797 0.045087513 -0.09685466 -0.08850511 0.008349539 -0.028388433 0.08349539 -0.026718525
0.0050097234 -0.056776866 0.035068065 -0.0016699078 0.026718525 -0.11355373 -0.041747697 -0.010019447
-0.03840788 -0.04675742 0.013359263 -0.0050097234 -0.016699078 0.04675742 -0.0050097234 0.026718525
-0.071806036 0.033398155 0.030058341 0.008349539 0.025048617 0.04675742 0.0016699078 0.035068065
-0.02337871 -0.035068065 0.02337871 -0.011689355 0.028388433 -0.0033398157 0.0066796313 -0.028388433
0.033398155 0.041747697 0.051767144 0.043417603 0.071806036 0.058446772 0.008349539 -0.04675742
0.013359263 0.065126404 -0.018368986 -0.03673797 -0.020038893 0.055106957 -0.04842733 0.0050097234
0.03673797 -0.0050097234 -0.0050097234 -0.05343705 0.051767144 -0.020038893 0.043417603 0.025048617
0.020038893 -0.020038893 0.030058341 0.016699078 -0.0066796313 0.065126404 0.028388433 -0.04842733
-0.0016699078 -0.008349539 0.025048617 -0.0066796313 0.050097235 0.025048617 0.080155574 -0.016699078
0.030058341 -0.055106957 0.0050097234 -0.020038893 0.058446772 -0.0050097234 0.030058341 0.07681576
-0.03840788 -0.040077787 -0.033398155 -0.015029171 0.040077787 0.021708801 -0.03840788 0.055106957
0.06679631 0.015029171 0.018368986 -0.025048617 0.04842733 0.03172825 -0.013359263 0.056776866
0.028388433 -0.008349539 0.016699078 -0.04675742 -0.07347594 -0.0016699078 0.030058341 -0.0851653
-0.0033398157 0.06178659 -0.068466224 0.0016699078 0.075145856 0.056776866 0.0066796313 0.068466224
-0.0033398157 -0.058446772 0.010019447 0.028388433 -0.010019447 0.0851653 0.03172825 -0.013359263
-0.04842733 -0.033398155 0.045087513 0.0634565 0.011689355 -0.086835206 -0.041747697 -0.02337871
0.03673797 0.018368986 -0.04842733 -0.033398155 0.058446772 -0.03840788 0.068466224 -0.020038893
0.035068065 0.06679631 0.021708801 0.021708801 0.018368986 0.030058341 0.035068065 0.080155574
0.02337871 -0.060116682 0.026718525 0.026718525 -0.07681576 -0.008349539 -0.086835206 0.086835206
0.018368986 0.010019447 0.041747697 -0.010019447 0.033398155 -0.018368986 -0.025048617 0.080155574
-0.008349539 -0.068466224 0.03840788 0.028388433 0.07848567 -0.065126404 0.018368986 -0.09518474
0.025048617 -0.02337871 0.041747697 0.065126404 0.04675742 0.056776866 -0.033398155 -0.055106957
