evaluation-code/output/models/tflite/expr_2_ConvLSTM_complex_horizontal_kernel_lstm_32units_framesize_5_20230622-112409.tflite (tflite, 110864 bytes, 6 tensors)

sequential_18/dense_18/MatMul i1 [10, 32] scale=0.0037019914 zero_point=0
-0.15178165 0.32207325 -0.31096727 0.1295697 0.08144381 0.07774182 -0.33317924 0.33317924
0.2591394 -0.07774182 0.044423897 0.0851458 0.35539117 0.10735775 -0.21101351 0.436835
-0.06663585 -0.22582148 -0.037019916 -0.23322546 0.1739936 -0.15548363 0.040721904 0.22952347
0.23692745 0.3405832 -0.12216572 -0.19990754 -0.092549786 0.011105974 -0.22211948 0.092549786
-0.35539117 0.1739936 0.40351707 0.31466928 0.14807966 0.2924573 0.31837127 0.14437766
-0.425729 -0.1739936 0.41092104 -0.429431 0.051827878 -0.20731151 0.3442852 -0.07774182
0.037019916 -0.2628414 0.4701529 0.118463725 -0.025913939 -0.31466928 0.29615933 -0.44423896
0.15918563 -0.425729 -0.3479872 -0.41832504 0.39981508 -0.11105974 0.37019914 0.31466928
-0.018509958 -0.08884779 0.15918563 0.12586771 0.037019916 -0.23322546 -0.32207325 0.037019916
0.3479872 0.18139757 -0.103655756 0.25173542 -0.011105974 -0.31466928 0.007403983 0.31466928
-0.27024537 -0.15178165 -0.23322546 0.040721904 0.092549786 -0.14807966 0.2924573 0.27024537
-0.118463725 -0.23322546 -0.2184175 0.16658962 -0.022211948 0.08884779 0.16658962 -0.21101351
-0.037019916 -0.15178165 -0.059231862 -0.32207325 -0.09995377 0.28505334 -0.35909316 -0.18139757
-0.18509957 -0.011105974 -0.1295697 -0.24803342 -0.33688122 0.28135136 0.31837127 -0.007403983
-0.31096727 -0.092549786 -0.1702916 -0.044423897 0.33688122 -0.15918563 -0.18509957 -0.05552987
0.18509957 0.16288762 -0.118463725 0.007403983 -0.21101351 0.1739936 0.040721904 -0.23322546
-0.22952347 -0.23692745 -0.31096727 -0.11476173 -0.37019914 0.3405832 -0.092549786 -0.103655756
-0.051827878 -0.30726528 -0.2554374 -0.19250356 -0.28875533 0.118463725 -0.018509958 -0.32577524
-0.32577524 0.044423897 -0.12586771 -0.040721904 -0.20731151 -0.0037019914 0.09625178 0.033317924
-0.14437766 -0.31837127 0.17769559 -0.20360953 -0.13697368 0.3479872 -0.29615933 0.35909316
-0.07403983 0.018509958 0.07403983 -0.011105974 -0.09625178 0.1295697 -0.22582148 -0.051827878
0.1295697 -0.18139757 -0.092549786 0.11476173 0.103655756 0.31096727 0.24433143 0.10735775
-0.35539117 0.2554374 -0.24803342 0.118463725 0.1295697 0.1332717 -0.118463725 -0.25173542
-0.16658962 0.08144381 0.19250356 -0.2591394 -0.14067568 -0.16658962 -0.3035633 -0.1739936
-0.1295697 0.27024537 -0.39611307 -0.18139757 0.14807966 0.18509957 -0.16288762 0.14807966
-0.1332717 0.46274891 -0.28135136 -0.22211948 0.1332717 -0.27394736 0.15548363 -0.15918563
-0.15178165 0.3405832 -0.011105974 0.062933855 -0.3442852 0.0 -0.22952347 0.1295697
0.3850071 0.06663585 -0.23692745 0.3442852 -0.2554374 -0.24062943 -0.014807966 -0.018509958
-0.30726528 0.23322546 0.092549786 -0.3479872 -0.11105974 0.12586771 -0.13697368 0.17769559
-0.05552987 -0.09625178 0.21101351 0.11105974 -0.06663585 -0.14067568 0.32207325 0.14807966
-0.3479872 -0.10735775 -0.0851458 -0.029615931 -0.39241108 -0.29615933 -0.18139757 0.08144381
-0.36649716 -0.31466928 -0.3776031 -0.19250356 0.21101351 -0.31837127 0.3850071 0.10735775
00000000: d757 ac23 1615 a65a 46eb 0c17 601d c776
00000010: eec3 f6c1 2fd6 0b3e 405c dfca e703 c419
00000020: a02f 6d55 284f 5627 8dd1 6f8c 0ec8 5deb
00000030: 0ab9 7f20 f9ab 5088 2b8d a28f 6ce2 6455
00000040: fbe8 2b22 0ac1 a90a 5e31 e444 fdab 0255
00000050: b7d7 c10b 19d8 4f49 e0c1 c52d fa18 2dc7
00000060: f6d7 f0a9 e54d 9fcf cefd ddbd a54c 56fe
00000070: ace7 d2f4 5bd5 cef1 322c e002 c72f 0bc1
00000080: c2c0 ace1 9c5c e7e4 f2ad bbcc b220 fba8
00000090: a80c def5 c8ff 1a09 d9aa 30c9 db5e b061
000000a0: ec05 14fd e623 c3f2 23cf e71f 1c54 421d
000000b0: a045 bd20 2324 e0bc d316 34ba dad3 aed1
000000c0: dd49 95cf 2832 d428 dc7d b4c4 24b6 2ad5
000000d0: d75c fd11 a300 c223 6812 c05d bbbf fcfb
000000e0: ad3f 19a2 e222 db30 f1e6 391e eeda 5728
000000f0: a2e3 e9f8 96b0 cf16 9dab 9acc 39aa 681d

sequential_18/time_distributed_53/conv2d_29/Conv2D i1 [128, 2, 2, 128]
31 -49 -51 20 -58 -20 47 9
-49 -70 -50 41 -12 -6 -5 30
55 -38 55 38 -37 18 -53 35
18 6 -24 -82 56 20 28 34
0 -11 -17 -59 2 -54 -36 -43
27 -17 28 -33 27 2 -5 -22
-35 43 32 10 6 35 -47 -36
55 -63 55 -56 11 53 -52 -88
23 16 -30 -20 42 -58 34 -2
58 -15 -31 -51 48 -28 -47 32
35 54 -16 -16 -50 5 -49 35
-12 -53 -5 -1 2 -23 -27 31
-42 -13 -37 -32 31 34 -37 -54
32 -5 28 63 -6 42 -54 -52
57 39 -28 17 -53 -1 -17 -22
49 -25 -63 -35 38 -13 -30 27
1 -45 -56 -20 26 25 47 25
23 -2 -42 54 -33 -29 -57 -51
-40 58 -47 20 38 -13 -46 -16
56 41 -26 -76 -11 10 21 20
47 11 -43 22 -15 24 67 59
59 36 -5 23 -3 -8 -28 65
56 -26 12 -82 -21 -35 22 33
32 -19 45 -66 -55 -58 -55 -122
-18 -16 20 6 51 -41 32 55
-29 61 -59 25 -57 -3 -40 -44
-8 49 29 -46 -36 0 65 -2
-77 29 -27 -84 -24 -8 -50 -103
-48 -27 -93 62 -29 13 -59 -2
24 -27 -24 20 -40 13 -6 62
13 -13 -57 -75 27 45 -47 -27
-7 26 -60 61 -114 -28 20 19
00000000: 1fcf cd14 c6ec 2f09 cfba ce29 f4fa fb1e
00000010: 37da 3726 db12 cb23 1206 e8ae 3814 1c22
00000020: 00f5 efc5 02ca dcd5 1bef 1cdf 1b02 fbea
00000030: dd2b 200a 0623 d1dc 37c1 37c8 0b35 cca8
00000040: 1710 e2ec 2ac6 22fe 3af1 e1cd 30e4 d120
00000050: 2336 f0f0 ce05 cf23 f4cb fbff 02e9 e51f
00000060: d6f3 dbe0 1f22 dbca 20fb 1c3f fa2a cacc
00000070: 3927 e411 cbff efea 31e7 c1dd 26f3 e21b
00000080: 01d3 c8ec 1a19 2f19 17fe d636 dfe3 c7cd
00000090: d83a d114 26f3 d2f0 3829 e6b4 f50a 1514
000000a0: 2f0b d516 f118 433b 3b24 fb17 fdf8 e441
000000b0: 38e6 0cae ebdd 1621 20ed 2dbe c9c6 c986
000000c0: eef0 1406 33d7 2037 e33d c519 c7fd d8d4
000000d0: f831 1dd2 dc00 41fe b31d e5ac e8f8 ce99
000000e0: d0e5 a33e e30d c5fe 18e5 e814 d80d fa3e
000000f0: 0df3 c7b5 1b2d d1e5 f91a c43d 8ee4 1413

sequential_18/time_distributed_52/conv2d_28/Conv2D i1 [128, 3, 1, 1]
23 127 49 -53 127 -88 91 31
-127 75 127 -39 -112 82 -127 -123
-44 -127 19 127 115 16 -87 -127
-8 127 -84 127 -89 -106 -102 -74
127 127 52 -16 4 127 126 75
2 -127 127 -8 -121 90 -27 -127
-127 -50 -107 -97 -127 2 -105 127
65 26 127 -39 -109 50 127 -127
36 -29 -9 -127 79 127 40 20
127 48 -32 127 113 -113 -29 127
43 109 -127 -70 -69 127 93 -78
127 20 19 12 127 -13 -16 -127
-18 -116 -127 25 -57 127 39 -18
127 -68 -127 -123 125 127 56 11
97 127 127 5 6 -63 127 95
31 -85 127 -104 -60 -127 -127 26
-96 -127 -56 11 82 46 127 60
127 -99 -92 127 -11 -68 9 127
109 127 -38 21 127 -91 127 104
116 -125 -90 127 -1 127 84 127
88 94 -74 -127 -37 127 -82 -47
-127 74 -119 127 -36 -124 -127 -23
-41 -127 -18 93 101 -127 -37 -127
72 -32 -103 122 -127 -47 -127 115
-127 13 68 113 127 -37 125 -127
16 67 16 -127 -109 -127 -31 -81
127 88 122 127 -83 -22 2 -127
-126 -127 -30 -127 96 -63 -126 127
-53 -127 102 111 14 -127 83 -117
-127 -118 127 78 71 125 -127 -62
120 127 -50 -127 -80 -84 -115 -127
0 127 -14 127 12 112 127 90
00000000: 177f 31cb 7fa8 5b1f 814b 7fd9 9052 8185
00000010: d481 137f 7310 a981 f87f ac7f a796 9ab6
00000020: 7f7f 34f0 047f 7e4b 0281 7ff8 875a e581
00000030: 81ce 959f 8102 977f 411a 7fd9 9332 7f81
00000040: 24e3 f781 4f7f 2814 7f30 e07f 718f e37f
00000050: 2b6d 81ba bb7f 5db2 7f14 130c 7ff3 f081
00000060: ee8c 8119 c77f 27ee 7fbc 8185 7d7f 380b
00000070: 617f 7f05 06c1 7f5f 1fab 7f98 c481 811a
00000080: a081 c80b 522e 7f3c 7f9d a47f f5bc 097f
00000090: 6d7f da15 7fa5 7f68 7483 a67f ff7f 547f
000000a0: 585e b681 db7f aed1 814a 897f dc84 81e9
000000b0: d781 ee5d 6581 db81 48e0 997a 81d1 8173
000000c0: 810d 4471 7fdb 7d81 1043 1081 9381 e1af
000000d0: 7f58 7a7f adea 0281 8281 e281 60c1 827f
000000e0: cb81 666f 0e81 538b 818a 7f4e 477d 81c2
000000f0: 787f ce81 b0ac 8d81 007f f27f 0c70 7f5a

sequential_18/lstm_13/Read_2/ReadVariableOp1 i1 [128] scale=0.0041999514 zero_point=-125
0.037799563 0.0041999514 0.016799806 0.016799806 0.012599854 0.016799806 0.03359961 0.037799563
0.03359961 0.054599367 0.037799563 0.03359961 0.008399903 0.037799563 0.02939966 0.037799563
0.0041999514 -0.0041999514 0.054599367 0.008399903 0.025199708 0.05879932 0.016799806 0.025199708
0.03359961 0.02939966 0.020999758 0.016799806 0.03359961 0.0 0.050399415 0.020999758
1.0499879 1.037388 1.0079883 1.0205882 1.041588 1.0121883 1.037388 1.0205882
1.0079883 1.0289881 1.0079883 1.0499879 1.0121883 1.037388 1.0205882 1.037388
1.0121883 1.0037884 1.0541878 1.037388 1.037388 1.0583878 1.037388 1.0205882
1.0163883 1.0457879 1.0583878 1.0205882 1.0247881 1.0205882 1.037388 1.0121883
-0.0041999514 0.0 0.0 0.0 0.0 0.0041999514 0.008399903 0.0041999514
-0.0041999514 0.0 -0.0041999514 0.0 0.0 -0.012599854 0.0 0.0041999514
0.0 0.0041999514 0.0041999514 -0.008399903 0.0 0.008399903 0.0 -0.0041999514
-0.008399903 0.0 0.0041999514 0.0 0.008399903 -0.0041999514 0.0041999514 0.0
0.071399175 0.016799806 0.037799563 0.0041999514 0.054599367 0.041999515 0.041999515 0.020999758
0.037799563 0.054599367 0.02939966 0.05879932 0.012599854 0.037799563 0.041999515 0.03359961
0.008399903 -0.0041999514 0.10499878 0.020999758 0.046199467 0.071399175 0.041999515 0.046199467
0.05879932 0.06299927 0.025199708 0.020999758 0.06299927 0.012599854 0.06299927 0.050399415
00000000: 8c84 8787 8687 8b8c 8b90 8c8b 858c 8a8c
00000010: 8482 9085 8991 8789 8b8a 8887 8b83 8f88
00000020: 7d7a 7376 7b74 7a76 7378 737d 747a 767a
00000030: 7472 7e7a 7a7f 7a76 757c 7f76 7776 7a74
00000040: 8283 8383 8384 8584 8283 8283 8380 8384
00000050: 8384 8481 8385 8382 8183 8483 8582 8483
00000060: 9487 8c84 908d 8d88 8c90 8a91 868c 8d8b
00000070: 8582 9c88 8e94 8d8e 9192 8988 9286 928f

while/MatMul i1 [128, 128] scale=0.0020357582 zero_point=0
0.07939457 -0.07939457 0.09568064 0.185254 0.19339703 0.10382367 -0.018321823 0.018321823
0.14250308 0.10585943 0.09364488 -0.1119667 -0.0061072744 0.09364488 0.16489641 -0.10585943
0.18118249 -0.038679406 0.0 0.17914672 0.0 0.0 -0.06514426 0.11807398
0.05903699 0.04682244 0.18728976 0.08550184 0.014250307 -0.0040715165 0.10178791 0.20561159
0.028500615 0.12418125 0.0040715165 0.0875376 -0.050893955 -0.07328729 0.12621701 -0.11807398
0.06107275 -0.048858196 0.0875376 0.16286066 0.15675338 0.13232428 -0.016286066 0.12010974
0.13436005 0.1608249 0.06107275 0.024429098 -0.06107275 0.11603822 -0.036643647 0.063108504
-0.040715165 0.20154007 -0.04478668 -0.040715165 0.08346609 0.0040715165 0.04478668 0.09975215
0.18932551 0.07735881 -0.040715165 -0.06718002 0.17914672 0.010178791 0.06514426 -0.0040715165
0.15471762 0.1506461 0.13843156 -0.010178791 0.04275092 -0.11603822 0.16489641 -0.0061072744
0.07939457 0.17303945 -0.05903699 0.09364488 0.08550184 0.08143033 0.06921578 -0.12825277
0.11603822 0.1506461 0.063108504 0.020357583 -0.036643647 0.1221455 0.09568064 0.063108504
0.14657459 0.13843156 0.07125154 -0.05903699 0.12418125 -0.11603822 0.020357583 0.13843156
-0.1119667 -0.11603822 0.12621701 0.16286066 0.06514426 0.0 -0.08550184 0.12010974
0.10178791 0.13843156 0.10382367 0.08346609 -0.010178791 -0.014250307 -0.08143033 0.048858196
0.11807398 0.09975215 0.14657459 0.1221455 0.07328729 -0.018321823 0.018321823 0.16693218
-0.07328729 0.10585943 -0.12010974 0.010178791 0.048858196 0.054965474 -0.14657459 0.024429098
-0.08957336 0.030536374 0.020357583 -0.12825277 0.08143033 0.012214549 0.0875376 -0.06718002
0.10585943 0.054965474 0.04478668 0.04275092 0.054965474 -0.12418125 -0.12418125 -0.024429098
-0.0020357582 -0.12621701 0.04682244 0.16489641 -0.0020357582 -0.09160912 0.08550184 0.016286066
-0.050893955 0.04478668 0.06514426 -0.07532305 0.1608249 0.07328729 0.14250308 0.0
0.08143033 0.10789519 0.10993095 0.06107275 0.04682244 -0.08550184 0.15268187 -0.11807398
-0.050893955 0.14250308 0.07939457 -0.14453883 -0.10382367 0.06921578 0.06107275 0.010178791
-0.07328729 0.050893955 0.0061072744 -0.024429098 -0.0061072744 0.028500615 0.08550184 -0.13232428
-0.018321823 0.10178791 -0.1119667 0.12010974 -0.010178791 0.04682244 0.05903699 -0.09160912
-0.0061072744 0.07939457 -0.016286066 -0.040715165 -0.07939457 0.1119667 -0.024429098 0.07532305
-0.09975215 -0.03257213 -0.052929714 0.0040715165 -0.09160912 0.09568064 0.12418125 -0.11807398
-0.06107275 0.0875376 0.054965474 -0.09160912 0.050893955 0.09975215 0.0061072744 0.13028853
0.10585943 -0.08143033 -0.020357583 0.11400246 -0.10178791 -0.030536374 0.10178791 0.0
0.12418125 -0.06514426 0.1221455 -0.012214549 0.14657459 -0.11400246 -0.06921578 0.010178791
-0.02239334 -0.09975215 -0.08957336 0.012214549 -0.12418125 -0.04478668 -0.024429098 0.0
-0.13232428 0.016286066 0.10178791 -0.14453883 -0.04478668 -0.0040715165 0.02239334 -0.016286066
00000000: 27d9 2f5b 5f33 f709 4634 2ec9 fd2e 51cc
00000010: 59ed 0058 0000 e03a 1d17 5c2a 07fe 3265
00000020: 0e3d 022b e7dc 3ec6 1ee8 2b50 4d41 f83b
00000030: 424f 1e0c e239 ee1f ec63 eaec 2902 1631
00000040: 5d26 ecdf 5805 20fe 4c4a 44fb 15c7 51fd
00000050: 2755 e32e 2a28 22c1 394a 1f0a ee3c 2f1f
00000060: 4844 23e3 3dc7 0a44 c9c7 3e50 2000 d63b
00000070: 3244 3329 fbf9 d818 3a31 483c 24f7 0952
00000080: dc34 c505 181b b80c d40f 0ac1 2806 2bdf
00000090: 341b 1615 1bc3 c3f4 ffc2 1751 ffd3 2a08
000000a0: e716 20db 4f24 4600 2835 361e 17d6 4bc6
000000b0: e746 27b9 cd22 1e05 dc19 03f4 fd0e 2abf
000000c0: f732 c93b fb17 1dd3 fd27 f8ec d937 f425
000000d0: cff0 e602 d32f 3dc6 e22b 1bd3 1931 0340
000000e0: 34d8 f638 cef1 3200 3de0 3cfa 48c8 de05
000000f0: f5cf d406 c3ea f400 bf08 32b9 eafe 0bf8

while/MatMul_11 i1 [128, 32] scale=0.0027884073 zero_point=0
-0.0780754 0.0027884073 0.20076533 0.12268992 -0.027884074 -0.1143247 0.21749577 0.022307258
0.052979738 -0.0027884073 -0.17288125 -0.07249859 -0.0027884073 0.016730443 -0.033460885 0.14499718
0.09201744 0.05019133 -0.075287 -0.05019133 0.103171065 -0.150574 -0.055768147 0.03067248
-0.075287 -0.013942037 0.055768147 -0.09759425 0.07249859 -0.01951885 -0.022307258 -0.18403488
0.103171065 -0.07249859 0.013942037 0.013942037 0.25932187 0.033460885 -0.0055768145 0.111536294
-0.09201744 -0.008365221 0.052979738 -0.011153629 0.025095666 -0.1561508 -0.058556553 0.03067248
0.09759425 -0.008365221 0.0390377 0.011153629 -0.13105515 0.08365222 -0.1924001 -0.01951885
0.016730443 -0.0027884073 0.0055768145 -0.016730443 0.13384354 -0.1561508 0.0390377 0.075287
-0.16172762 0.150574 -0.025095666 -0.052979738 0.17288125 0.052979738 0.013942037 0.10038266
0.07249859 0.17288125 0.09759425 0.01951885 0.0027884073 -0.2704755 0.09759425 -0.16451603
-0.117113106 -0.1143247 0.06692177 0.08086381 -0.105959475 -0.119901516 -0.1143247 -0.1533624
-0.16451603 -0.013942037 -0.18403488 0.0055768145 0.06692177 -0.103171065 0.06971018 0.21749577
-0.036249295 -0.17845806 -0.008365221 0.25932187 0.027884074 -0.08365222 0.103171065 0.011153629
-0.047402922 0.01951885 0.10038266 0.052979738 -0.111536294 0.022307258 0.08365222 -0.058556553
-0.013942037 0.0055768145 0.111536294 -0.06692177 0.04182611 -0.01951885 -0.10038266 -0.2704755
0.13384354 0.108747885 -0.05019133 -0.022307258 0.058556553 0.044614516 0.011153629 -0.0027884073
-0.103171065 0.008365221 0.15893921 0.27605233 0.06692177 0.08644062 -0.18403488 -0.04182611
-0.07249859 -0.150574 -0.1143247 -0.1951885 -0.027884074 0.22028418 -0.011153629 -0.17566966
0.103171065 0.075287 -0.008365221 0.058556553 -0.21470736 0.013942037 -0.008365221 -0.08365222
0.013942037 -0.055768147 0.05019133 -0.13942036 0.13942036 0.10038266 0.06413337 0.105959475
-0.04182611 -0.04182611 0.16451603 -0.14220877 0.10038266 -0.008365221 0.1143247 -0.13105515
0.055768147 -0.011153629 -0.06692177 -0.07249859 0.10038266 0.1561508 0.06692177 0.036249295
0.027884074 -0.055768147 0.08922903 0.094805844 0.117113106 0.0780754 -0.011153629 -0.016730443
0.011153629 0.105959475 0.0390377 0.06692177 -0.06692177 0.033460885 0.011153629 0.022307258
-0.05019133 0.09759425 -0.016730443 -0.0027884073 -0.027884074 -0.011153629 0.0780754 -0.06134496
0.08644062 0.06134496 -0.105959475 0.0 -0.016730443 0.1533624 0.04182611 -0.13663195
-0.08644062 0.19797692 -0.12268992 -0.0390377 -0.103171065 -0.036249295 -0.0055768145 0.033460885
0.06971018 -0.19797692 0.025095666 -0.0780754 0.058556553 0.03067248 0.1924001 0.06692177
-0.011153629 -0.06971018 -0.075287 0.04182611 0.108747885 0.0027884073 -0.055768147 0.05019133
0.025095666 0.016730443 -0.09201744 -0.13663195 -0.111536294 0.044614516 0.2648987 -0.06134496
0.105959475 0.027884074 0.036249295 0.0055768145 -0.0027884073 -0.14220877 -0.06692177 0.1561508
-0.027884074 0.03067248 0.047402922 0.01951885 -0.117113106 -0.0780754 -0.05019133 -0.08086381
00000000: e401 482c f6d7 4e08 13ff c2e6 ff06 f434
00000010: 2112 e5ee 25ca ec0b e5fb 14dd 1af9 f8be
00000020: 25e6 0505 5d0c fe28 dffd 13fc 09c8 eb0b
00000030: 23fd 0e04 d11e bbf9 06ff 02fa 30c8 0e1b
00000040: c636 f7ed 3e13 0524 1a3e 2307 019f 23c5
00000050: d6d7 181d dad5 d7c9 c5fb be02 18db 194e
00000060: f3c0 fd5d 0ae2 2504 ef07 2413 d808 1eeb
00000070: fb02 28e8 0ff9 dc9f 3027 eef8 1510 04ff
00000080: db03 3963 181f bef1 e6ca d7ba f64f fcc1
00000090: 251b fd15 b305 fde2 05ec 12ce 3224 1726
000000a0: f1f1 3bcd 24fd 29d1 14fc e8e6 2438 180d
000000b0: 0aec 2022 2a1c fcfa 0426 0e18 e80c 0408
000000c0: ee23 faff f6fc 1cea 1f16 da00 fa37 0fcf
000000d0: e147 d4f2 dbf3 fe0c 19b9 09e4 150b 4518
000000e0: fce7 e50f 2701 ec12 0906 dfcf d810 5fea
000000f0: 260a 0d02 ffcd e838 f60b 1107 d6e4 eee3
