evaluation-code/output/models/tflite/GRU_128units_framesize_5_20230624-131620.tflite (tflite, 71992 bytes, 3 tensors)

sequential_5/dense_5/MatMul i1 [10, 128] scale=0.0028558346 zero_point=0
0	0xaf	-0.2313226
1	0x3c	0.17135008
2	0x32	0.14279173
3	0x4d	0.21989927
4	0xa2	-0.26844844
5	0x21	0.09424254
6	0xf9	-0.019990843
7	0xf2	-0.039981686
8	0xe5	-0.077107534
9	0x59	0.2541693
10	0x0c	0.034270015
11	0xe6	-0.0742517
12	0xe2	-0.08567504
13	0xcc	-0.1485034
14	0xd9	-0.111377545
15	0x16	0.06282836
16	0x25	0.10566588
17	0x26	0.108521715
18	0x2a	0.11994505
19	0xe7	-0.07139587
20	0x38	0.15992674
21	0xf6	-0.028558346
22	0x24	0.10281004
23	0x10	0.045693353
24	0xd5	-0.12280089
25	0xf0	-0.045693353
26	0x16	0.06282836
27	0xe4	-0.07996337
28	0x07	0.019990843
29	0xf3	-0.03712585
30	0x21	0.09424254
31	0xe6	-0.0742517
32	0x21	0.09424254
33	0x0b	0.03141418
34	0x0e	0.039981686
35	0xfd	-0.008567504
36	0x21	0.09424254
37	0xce	-0.14279173
38	0x16	0.06282836
39	0xd2	-0.13136838
40	0xd3	-0.12851256
41	0xac	-0.2398901
42	0x1b	0.077107534
43	0x0d	0.03712585
44	0x36	0.15421507
45	0x24	0.10281004
46	0xe6	-0.0742517
47	0x0c	0.034270015
48	0xef	-0.048549186
49	0x06	0.017135007
50	0x35	0.15135923
51	0xd7	-0.11708922
52	0xd7	-0.11708922
53	0x44	0.19419675
54	0xc8	-0.15992674
55	0x2b	0.12280089
56	0xc8	-0.15992674
57	0x49	0.20847592
58	0xf9	-0.019990843
59	0x08	0.022846676
60	0x43	0.19134091
61	0x23	0.09995421
62	0xf3	-0.03712585
63	0x2c	0.12565672
64	0x1f	0.08853087
65	0xe2	-0.08567504
66	0xdf	-0.09424254
67	0xe9	-0.06568419
68	0xe1	-0.08853087
69	0x1f	0.08853087
70	0xfa	-0.017135007
71	0x32	0.14279173
72	0x3e	0.17706174
73	0xe3	-0.0828192
74	0x04	0.011423338
75	0x26	0.108521715
76	0x0d	0.03712585
77	0xba	-0.19990842
78	0x60	0.27416012
79	0xc4	-0.17135008
80	0xe3	-0.0828192
81	0x06	0.017135007
82	0x43	0.19134091
83	0xaf	-0.2313226
84	0xb0	-0.22846676
85	0xb6	-0.21133175
86	0x23	0.09995421
87	0x05	0.014279173
88	0xf2	-0.039981686
89	0x1c	0.07996337
90	0xe4	-0.07996337
91	0xcb	-0.15135923
92	0x2e	0.13136838
93	0x2d	0.12851256
94	0xe2	-0.08567504
95	0xbe	-0.18848509
96	0xf0	-0.045693353
97	0xd3	-0.12851256
98	0xbf	-0.18562925
99	0xc6	-0.1656384
100	0x2c	0.12565672
101	0x04	0.011423338
102	0xcf	-0.1399359
103	0x34	0.1485034
104	0x1f	0.08853087
105	0xf1	-0.04283752
106	0xf8	-0.022846676
107	0x28	0.11423338
108	0xc0	-0.18277341
109	0xd3	-0.12851256
110	0xc2	-0.17706174
111	0xeb	-0.059972525
112	0x3a	0.1656384
113	0x1b	0.077107534
114	0x18	0.06854003
115	0xd5	-0.12280089
116	0x3b	0.16849424
117	0x2b	0.12280089
118	0x33	0.14564756
119	0x04	0.011423338
120	0x0e	0.039981686
121	0x3a	0.1656384
122	0x26	0.108521715
123	0x0a	0.028558346
124	0xf2	-0.039981686
125	0xed	-0.054260857
126	0x3c	0.17135008
127	0xd0	-0.13708006
128	0x13	0.054260857
129	0x28	0.11423338
130	0xd1	-0.13422422
131	0x99	-0.29415095
132	0xd1	-0.13422422
133	0xa5	-0.25988093
134	0x32	0.14279173
135	0xfc	-0.011423338
136	0x1f	0.08853087
137	0x01	0.0028558346
138	0x17	0.06568419
139	0xea	-0.06282836
140	0x4f	0.22561093
141	0x28	0.11423338
142	0xfe	-0.005711669
143	0xae	-0.23417844
144	0xcf	-0.1399359
145	0xf9	-0.019990843
146	0x2c	0.12565672
147	0x00	0.0
148	0xa1	-0.27130428
149	0xe9	-0.06568419
150	0xd1	-0.13422422
151	0x13	0.054260857
152	0xb1	-0.22561093
153	0x4e	0.22275509
154	0x15	0.059972525
155	0xda	-0.108521715
156	0x15	0.059972525
157	0x4f	0.22561093
158	0x06	0.017135007
159	0x14	0.05711669
160	0xab	-0.24274594
161	0xe8	-0.06854003
162	0xe3	-0.0828192
163	0xbf	-0.18562925
164	0xef	-0.048549186
165	0xca	-0.15421507
166	0xb5	-0.21418759
167	0x02	0.005711669
168	0xe9	-0.06568419
169	0xd3	-0.12851256
170	0x31	0.1399359
171	0x52	0.23417844
172	0xf7	-0.02570251
173	0x07	0.019990843
174	0x60	0.27416012
175	0x27	0.111377545
176	0xaf	-0.2313226
177	0x25	0.10566588
178	0xae	-0.23417844
179	0xe9	-0.06568419
180	0x46	0.19990842
181	0xf9	-0.019990843
182	0xe0	-0.091386706
183	0xab	-0.24274594
184	0x26	0.108521715
185	0xe1	-0.08853087
186	0x3f	0.17991757
187	0xf8	-0.022846676
188	0x05	0.014279173
189	0x72	0.32556513
190	0xd4	-0.12565672
191	0xa8	-0.25131345
192	0x1d	0.0828192
193	0xda	-0.108521715
194	0x7f	0.362691
195	0x1d	0.0828192
196	0xe7	-0.07139587
197	0xdf	-0.09424254
198	0xfe	-0.005711669
199	0x1b	0.077107534
200	0x3a	0.1656384
201	0x4c	0.21704343
202	0xeb	-0.059972525
203	0xd1	-0.13422422
204	0x2b	0.12280089
205	0xf3	-0.03712585
206	0xcf	-0.1399359
207	0x25	0.10566588
208	0x37	0.1570709
209	0xe2	-0.08567504
210	0xd8	-0.11423338
211	0xd3	-0.12851256
212	0x42	0.18848509
213	0x38	0.15992674
214	0x1b	0.077107534
215	0x50	0.22846676
216	0x73	0.32842097
217	0xc2	-0.17706174
218	0xa0	-0.27416012
219	0x9a	-0.2912951
220	0x44	0.19419675
221	0x98	-0.2970068
222	0x4c	0.21704343
223	0x42	0.18848509
224	0x02	0.005711669
225	0xcf	-0.1399359
226	0x78	0.34270015
227	0x25	0.10566588
228	0xd4	-0.12565672
229	0x32	0.14279173
230	0xd5	-0.12280089
231	0xf5	-0.03141418
232	0xbe	-0.18848509
233	0x38	0.15992674
234	0x1e	0.08567504
235	0x4a	0.21133175
236	0xb1	-0.22561093
237	0xd5	-0.12280089
238	0x43	0.19134091
239	0xec	-0.05711669
240	0x0a	0.028558346
241	0xc7	-0.16278256
242	0xdf	-0.09424254
243	0x8f	-0.3227093
244	0x9c	-0.28558347
245	0xd9	-0.111377545
246	0x5e	0.26844844
247	0xe4	-0.07996337
248	0xc9	-0.1570709
249	0x2a	0.11994505
250	0xb0	-0.22846676
251	0xbe	-0.18848509
252	0x9f	-0.27701595
253	0xc9	-0.1570709
254	0xec	-0.05711669
255	0x06	0.017135007

while/MatMul i1 [384, 15] scale=0.001902286 zero_point=0
0	0x34	0.09891887
1	0x58	0.16740116
2	0x25	0.07038458
3	0xe3	-0.055166293
4	0x4b	0.14267145
5	0xf2	-0.026632003
6	0x01	0.001902286
7	0x24	0.068482295
8	0x32	0.0951143
9	0xe6	-0.049459435
10	0x43	0.12745316
11	0xdc	-0.068482295
12	0xee	-0.034241147
13	0x13	0.036143433
14	0x0e	0.026632003
15	0xc5	-0.112234876
16	0x0a	0.01902286
17	0xe9	-0.043752577
18	0xc9	-0.10462573
19	0x2f	0.089407444
20	0x2f	0.089407444
21	0x0a	0.01902286
22	0x2c	0.08370058
23	0x3e	0.11794173
24	0x34	0.09891887
25	0x22	0.06467772
26	0x0e	0.026632003
27	0xf7	-0.017120574
28	0xf2	-0.026632003
29	0x04	0.007609144
30	0x00	0.0
31	0xe3	-0.055166293
32	0x37	0.10462573
33	0x1e	0.05706858
34	0xee	-0.034241147
35	0x0c	0.022827432
36	0xed	-0.036143433
37	0x0b	0.020925146
38	0xfa	-0.011413716
39	0x48	0.13696459
40	0x30	0.091309726
41	0x0e	0.026632003
42	0xe5	-0.05136172
43	0x1a	0.049459435
44	0x28	0.07609144
45	0xd2	-0.087505154
46	0xf2	-0.026632003
47	0x15	0.039948005
48	0x07	0.013316002
49	0x30	0.091309726
50	0x24	0.068482295
51	0x1d	0.055166293
52	0xd6	-0.07989601
53	0xe0	-0.06087315
54	0xca	-0.10272344
55	0xfe	-0.003804572
56	0xed	-0.036143433
57	0xbf	-0.123648584
58	0xdd	-0.06658001
59	0x0a	0.01902286
60	0xbb	-0.13125773
61	0x3e	0.11794173
62	0xe1	-0.058970865
63	0x30	0.091309726
64	0xd8	-0.07609144
65	0xd4	-0.08370058
66	0x1a	0.049459435
67	0xcb	-0.10082115
68	0xb8	-0.13696459
69	0x0e	0.026632003
70	0x48	0.13696459
71	0x25	0.07038458
72	0x38	0.106528014
73	0xf8	-0.015218288
74	0xe3	-0.055166293
75	0x4c	0.14457373
76	0x2f	0.089407444
77	0xe9	-0.043752577
78	0x1f	0.058970865
79	0x49	0.13886687
80	0x05	0.00951143
81	0x3f	0.11984402
82	0x2a	0.07989601
83	0x2b	0.0817983
84	0x51	0.15408516
85	0xf1	-0.02853429
86	0x60	0.18261945
87	0xea	-0.04185029
88	0x53	0.15788974
89	0xec	-0.03804572
90	0xc1	-0.11984402
91	0x18	0.045654863
92	0xe8	-0.045654863
93	0xb9	-0.1350623
94	0x12	0.034241147
95	0xee	-0.034241147
96	0x2c	0.08370058
97	0xee	-0.034241147
98	0xdc	-0.068482295
99	0x28	0.07609144
100	0xc7	-0.108430296
101	0xec	-0.03804572
102	0xbc	-0.12935545
103	0xef	-0.03233886
104	0xfe	-0.003804572
105	0xac	-0.15979202
106	0xef	-0.03233886
107	0xa5	-0.17310803
108	0x14	0.03804572
109	0xd1	-0.089407444
110	0x1e	0.05706858
111	0xc6	-0.110332586
112	0xcb	-0.10082115
113	0xee	-0.034241147
114	0xb7	-0.13886687
115	0x2e	0.087505154
116	0xf9	-0.013316002
117	0xc9	-0.10462573
118	0xe4	-0.053264007
119	0x01	0.001902286
120	0xde	-0.06467772
121	0xeb	-0.039948005
122	0xfd	-0.005706858
123	0xfe	-0.003804572
124	0x04	0.007609144
125	0xe5	-0.05136172
126	0x14	0.03804572
127	0x30	0.091309726
128	0xf4	-0.022827432
129	0x37	0.10462573
130	0x0c	0.022827432
131	0xc5	-0.112234876
132	0x3e	0.11794173
133	0xdf	-0.06277543
134	0x2d	0.085602865
135	0xf9	-0.013316002
136	0x39	0.108430296
137	0x07	0.013316002
138	0xf8	-0.015218288
139	0x0d	0.024729718
140	0x10	0.030436575
141	0xc9	-0.10462573
142	0x44	0.12935545
143	0xf2	-0.026632003
144	0xf1	-0.02853429
145	0x02	0.003804572
146	0xa9	-0.16549888
147	0xe0	-0.06087315
148	0xda	-0.07228687
149	0xac	-0.15979202
150	0xdd	-0.06658001
151	0xe4	-0.053264007
152	0xd5	-0.0817983
153	0x28	0.07609144
154	0xde	-0.06467772
155	0x40	0.1217463
156	0xe5	-0.05136172
157	0x1f	0.058970865
158	0x30	0.091309726
159	0xc3	-0.11603944
160	0xdb	-0.07038458
161	0x17	0.043752577
162	0x08	0.015218288
163	0x41	0.123648584
164	0x11	0.03233886
165	0xd7	-0.07799372
166	0xf3	-0.024729718
167	0xe4	-0.053264007
168	0x0d	0.024729718
169	0x06	0.011413716
170	0x1a	0.049459435
171	0x14	0.03804572
172	0x4e	0.14837831
173	0xc7	-0.108430296
174	0x27	0.07418916
175	0x0e	0.026632003
176	0xea	-0.04185029
177	0xec	-0.03804572
178	0xe6	-0.049459435
179	0x1c	0.053264007
180	0x2b	0.0817983
181	0x04	0.007609144
182	0x02	0.003804572
183	0x0d	0.024729718
184	0x6c	0.20544688
185	0xaf	-0.15408516
186	0xf8	-0.015218288
187	0x0d	0.024729718
188	0xd8	-0.07609144
189	0x35	0.10082115
190	0x2c	0.08370058
191	0xae	-0.15598744
192	0x46	0.13316002
193	0x23	0.06658001
194	0x1d	0.055166293
195	0x43	0.12745316
196	0x1e	0.05706858
197	0x40	0.1217463
198	0x33	0.09701659
199	0x27	0.07418916
200	0xd9	-0.07418916
201	0x2c	0.08370058
202	0xd8	-0.07609144
203	0x0d	0.024729718
204	0x02	0.003804572
205	0x41	0.123648584
206	0xf2	-0.026632003
207	0xd1	-0.089407444
208	0x1c	0.053264007
209	0x1f	0.058970865
210	0x34	0.09891887
211	0x3a	0.110332586
212	0x1f	0.058970865
213	0x59	0.16930345
214	0x64	0.1902286
215	0x14	0.03804572
216	0x64	0.1902286
217	0xfb	-0.00951143
218	0x47	0.1350623
219	0x06	0.011413716
220	0x3d	0.11603944
221	0xf2	-0.026632003
222	0x26	0.07228687
223	0xec	-0.03804572
224	0x51	0.15408516
225	0xc0	-0.1217463
226	0xda	-0.07228687
227	0xe0	-0.06087315
228	0xfa	-0.011413716
229	0xd5	-0.0817983
230	0x16	0.04185029
231	0xca	-0.10272344
232	0x14	0.03804572
233	0xdd	-0.06658001
234	0xbe	-0.12555087
235	0xcd	-0.09701659
236	0xf8	-0.015218288
237	0x2c	0.08370058
238	0x2c	0.08370058
239	0xe5	-0.05136172
240	0xe1	-0.058970865
241	0xe4	-0.053264007
242	0x4f	0.1502806
243	0x0d	0.024729718
244	0xf5	-0.020925146
245	0x3c	0.11413716
246	0x41	0.123648584
247	0xe5	-0.05136172
248	0x55	0.1616943
249	0x22	0.06467772
250	0xe7	-0.04755715
251	0x1a	0.049459435
252	0xee	-0.034241147
253	0x40	0.1217463
254	0xf7	-0.017120574
255	0x27	0.07418916

while/MatMul_1 i1 [384, 128] scale=0.0024577263 zero_point=0
0	0x18	0.05898543
1	0x1b	0.06635861
2	0x1d	0.071274064
3	0x39	0.14009039
4	0x00	0.0
5	0x06	0.014746358
6	0xec	-0.049154527
7	0x03	0.007373179
8	0x0c	0.029492715
9	0x07	0.017204084
10	0xe6	-0.06390088
11	0x05	0.012288632
12	0xd2	-0.11305541
13	0x06	0.014746358
14	0xe5	-0.06635861
15	0xf5	-0.027034989
16	0x28	0.098309055
17	0xf7	-0.022119537
18	0xf1	-0.036865894
19	0x14	0.049154527
20	0x3f	0.15483676
21	0xb8	-0.1769563
22	0x17	0.056527704
23	0xee	-0.044239074
24	0x04	0.009830905
25	0xb8	-0.1769563
26	0xeb	-0.05161225
27	0xed	-0.0466968
28	0xe2	-0.07373179
29	0xdd	-0.08602042
30	0xbb	-0.16958311
31	0x19	0.061443157
32	0x23	0.08602042
33	0x32	0.122886315
34	0x04	0.009830905
35	0xd0	-0.11797086
36	0xb4	-0.1867872
37	0x3f	0.15483676
38	0xf5	-0.027034989
39	0x06	0.014746358
40	0x04	0.009830905
41	0x2e	0.11305541
42	0x24	0.08847815
43	0xf1	-0.036865894
44	0xda	-0.0933936
45	0xff	-0.0024577263
46	0xd7	-0.10076678
47	0xf1	-0.036865894
48	0x30	0.11797086
49	0x01	0.0024577263
50	0x0b	0.027034989
51	0xa2	-0.23102628
52	0xff	-0.0024577263
53	0xee	-0.044239074
54	0x20	0.07864724
55	0x25	0.09093587
56	0x1f	0.07618952
57	0xf8	-0.01966181
58	0x09	0.022119537
59	0x22	0.083562694
60	0x00	0.0
61	0xfc	-0.009830905
62	0x03	0.007373179
63	0x0e	0.034408167
64	0x01	0.0024577263
65	0x11	0.041781347
66	0xdf	-0.081104964
67	0xe1	-0.07618952
68	0x12	0.044239074
69	0x02	0.0049154526
70	0xe7	-0.061443157
71	0x21	0.081104964
72	0xd6	-0.1032245
73	0xe5	-0.06635861
74	0x22	0.083562694
75	0xda	-0.0933936
76	0xdd	-0.08602042
77	0x07	0.017204084
78	0x22	0.083562694
79	0xc0	-0.15729448
80	0x0b	0.027034989
81	0x1a	0.06390088
82	0x21	0.081104964
83	0x07	0.017204084
84	0x03	0.007373179
85	0xed	-0.0466968
86	0xbf	-0.1597522
87	0xf1	-0.036865894
88	0xe3	-0.071274064
89	0x03	0.007373179
90	0x4f	0.19416037
91	0x25	0.09093587
92	0x02	0.0049154526
93	0x33	0.12534404
94	0xf0	-0.03932362
95	0xe8	-0.05898543
96	0x27	0.095851324
97	0x21	0.081104964
98	0xe1	-0.07618952
99	0xc9	-0.13517494
100	0xf5	-0.027034989
101	0xdd	-0.08602042
102	0x23	0.08602042
103	0x10	0.03932362
104	0x2f	0.11551314
105	0x01	0.0024577263
106	0x32	0.122886315
107	0xdf	-0.081104964
108	0x10	0.03932362
109	0xcc	-0.12780176
110	0x19	0.061443157
111	0xfb	-0.012288632
112	0xc1	-0.15483676
113	0x07	0.017204084
114	0xf3	-0.03195044
115	0x3e	0.15237904
116	0x35	0.1302595
117	0x0f	0.036865894
118	0xd1	-0.11551314
119	0xfd	-0.007373179
120	0x0f	0.036865894
121	0xfc	-0.009830905
122	0x37	0.13517494
123	0x37	0.13517494
124	0x19	0.061443157
125	0xd9	-0.095851324
126	0xe8	-0.05898543
127	0x30	0.11797086
128	0xe0	-0.07864724
129	0x24	0.08847815
130	0x00	0.0
131	0x0b	0.027034989
132	0xf7	-0.022119537
133	0x0e	0.034408167
134	0xe1	-0.07618952
135	0xdf	-0.081104964
136	0xf2	-0.034408167
137	0x3d	0.1499213
138	0x3c	0.14746358
139	0xed	-0.0466968
140	0xfe	-0.0049154526
141	0xed	-0.0466968
142	0x0b	0.027034989
143	0x35	0.1302595
144	0xf7	-0.022119537
145	0x3f	0.15483676
146	0xf1	-0.036865894
147	0xc2	-0.15237904
148	0x23	0.08602042
149	0x2e	0.11305541
150	0x25	0.09093587
151	0x45	0.16958311
152	0xed	-0.0466968
153	0xe7	-0.061443157
154	0xf1	-0.036865894
155	0x45	0.16958311
156	0xe5	-0.06635861
157	0x0c	0.029492715
158	0x1f	0.07618952
159	0xa3	-0.22856854
160	0x3b	0.14500585
161	0x1b	0.06635861
162	0xfc	-0.009830905
163	0x17	0.056527704
164	0xbb	-0.16958311
165	0x1e	0.07373179
166	0x21	0.081104964
167	0xfe	-0.0049154526
168	0xc9	-0.13517494
169	0x0c	0.029492715
170	0xbb	-0.16958311
171	0xd7	-0.10076678
172	0xe8	-0.05898543
173	0x00	0.0
174	0xe9	-0.056527704
175	0x15	0.05161225
176	0x39	0.14009039
177	0xe8	-0.05898543
178	0x05	0.012288632
179	0x14	0.049154527
180	0xf6	-0.024577264
181	0xd5	-0.10568223
182	0xa8	-0.21627991
183	0x3a	0.14254813
184	0xda	-0.0933936
185	0x25	0.09093587
186	0xfa	-0.014746358
187	0xfb	-0.012288632
188	0xf1	-0.036865894
189	0xf8	-0.01966181
190	0x04	0.009830905
191	0x15	0.05161225
192	0x06	0.014746358
193	0x19	0.061443157
194	0xdb	-0.09093587
195	0xf4	-0.029492715
196	0x08	0.01966181
197	0xf2	-0.034408167
198	0x27	0.095851324
199	0xde	-0.083562694
200	0xc6	-0.14254813
201	0xdd	-0.08602042
202	0x05	0.012288632
203	0x2f	0.11551314
204	0x14	0.049154527
205	0xcd	-0.12534404
206	0x1e	0.07373179
207	0xb2	-0.19170265
208	0xeb	-0.05161225
209	0x16	0.054069977
210	0x31	0.120428585
211	0xff	-0.0024577263
212	0xd8	-0.098309055
213	0xbb	-0.16958311
214	0x19	0.061443157
215	0xc8	-0.13763267
216	0xf4	-0.029492715
217	0x42	0.16220993
218	0x1b	0.06635861
219	0xea	-0.054069977
220	0xec	-0.049154527
221	0x1f	0.07618952
222	0xdd	-0.08602042
223	0xff	-0.0024577263
224	0xfa	-0.014746358
225	0xba	-0.17204084
226	0xbb	-0.16958311
227	0xf4	-0.029492715
228	0x22	0.083562694
229	0xfb	-0.012288632
230	0x44	0.16712539
231	0x18	0.05898543
232	0x10	0.03932362
233	0x13	0.0466968
234	0x19	0.061443157
235	0xda	-0.0933936
236	0x0f	0.036865894
237	0x18	0.05898543
238	0x1c	0.068816334
239	0xd5	-0.10568223
240	0xee	-0.044239074
241	0x2b	0.10568223
242	0x15	0.05161225
243	0x18	0.05898543
244	0x02	0.0049154526
245	0x1e	0.07373179
246	0xc9	-0.13517494
247	0x25	0.09093587
248	0x1c	0.068816334
249	0x33	0.12534404
250	0x12	0.044239074
251	0x10	0.03932362
252	0xfd	-0.007373179
253	0x16	0.054069977
254	0x00	0.0
255	0x0e	0.034408167
