evaluation-code/output/models/tflite/GRU_64units_framesize_5_20230624-131338.tflite (tflite, 30072 bytes, 3 tensors)

sequential_4/dense_4/MatMul i1 [10, 64] scale=0.0034208961 zero_point=0
0	0x4c	0.2599881
1	0xbf	-0.22235824
2	0x54	0.28735527
3	0xf1	-0.05131344
4	0x1c	0.09578509
5	0xd4	-0.15051943
6	0x1d	0.099205986
7	0x02	0.0068417923
8	0x04	0.0136835845
9	0x12	0.06157613
10	0x1e	0.10262688
11	0x4e	0.2668299
12	0xd2	-0.15736122
13	0x3f	0.21551646
14	0x4a	0.25314632
15	0x2d	0.15394032
16	0xf6	-0.03420896
17	0xcb	-0.1813075
18	0x0b	0.037629858
19	0x26	0.12999405
20	0xfc	-0.0136835845
21	0x22	0.11631047
22	0x30	0.16420302
23	0x04	0.0136835845
24	0xd2	-0.15736122
25	0x11	0.058155235
26	0x49	0.24972542
27	0xf2	-0.047892544
28	0x2a	0.14367764
29	0x1c	0.09578509
30	0x01	0.0034208961
31	0x1d	0.099205986
32	0xe0	-0.109468676
33	0x26	0.12999405
34	0x2a	0.14367764
35	0xb5	-0.2565672
36	0x04	0.0136835845
37	0xca	-0.18472838
38	0x5b	0.31130156
39	0xdc	-0.12315226
40	0x2b	0.14709853
41	0x03	0.010262689
42	0x3f	0.21551646
43	0xf8	-0.027367169
44	0xf9	-0.023946272
45	0xc4	-0.20525376
46	0x01	0.0034208961
47	0x2c	0.15051943
48	0x00	0.0
49	0xb9	-0.24288362
50	0xef	-0.058155235
51	0xb9	-0.24288362
52	0x25	0.12657316
53	0x17	0.07868061
54	0x48	0.24630453
55	0xe9	-0.07868061
56	0xd3	-0.15394032
57	0xd3	-0.15394032
58	0xf9	-0.023946272
59	0x2c	0.15051943
60	0x52	0.2805135
61	0x9b	-0.3455105
62	0xc7	-0.19499108
63	0xbb	-0.23604183
64	0x0f	0.05131344
65	0x4e	0.2668299
66	0x93	-0.3728777
67	0xfe	-0.0068417923
68	0xa3	-0.31814334
69	0xca	-0.18472838
70	0xc8	-0.19157018
71	0x10	0.054734338
72	0x02	0.0068417923
73	0x41	0.22235824
74	0x19	0.085522406
75	0xe1	-0.10604778
76	0xa8	-0.30103886
77	0xb5	-0.2565672
78	0xf6	-0.03420896
79	0xbc	-0.23262094
80	0x6b	0.36603588
81	0x3c	0.20525376
82	0x04	0.0136835845
83	0xd7	-0.14025675
84	0xc1	-0.21551646
85	0xe2	-0.10262688
86	0xa9	-0.29761797
87	0xb8	-0.24630453
88	0x26	0.12999405
89	0x16	0.075259715
90	0xfd	-0.010262689
91	0xe1	-0.10604778
92	0x01	0.0034208961
93	0xf9	-0.023946272
94	0x41	0.22235824
95	0x03	0.010262689
96	0xb2	-0.2668299
97	0xcc	-0.1778866
98	0x4f	0.2702508
99	0xf9	-0.023946272
100	0xd8	-0.13683584
101	0xe0	-0.109468676
102	0xc7	-0.19499108
103	0xbf	-0.22235824
104	0x6b	0.36603588
105	0x00	0.0
106	0x09	0.030788066
107	0x20	0.109468676
108	0xb5	-0.2565672
109	0x00	0.0
110	0xe4	-0.09578509
111	0x0b	0.037629858
112	0x49	0.24972542
113	0x25	0.12657316
114	0x3c	0.20525376
115	0x2b	0.14709853
116	0xd0	-0.16420302
117	0xf4	-0.041050754
118	0x03	0.010262689
119	0xca	-0.18472838
120	0xfb	-0.01710448
121	0xd7	-0.14025675
122	0x4d	0.263409
123	0x81	-0.43445382
124	0x8e	-0.38998216
125	0xd6	-0.14367764
126	0x8a	-0.40366575
127	0xb1	-0.2702508
128	0x35	0.1813075
129	0xc5	-0.20183288
130	0x52	0.2805135
131	0x63	0.3386687
132	0x0d	0.04447165
133	0xfb	-0.01710448
134	0xe4	-0.09578509
135	0xed	-0.064997025
136	0xfc	-0.0136835845
137	0xe4	-0.09578509
138	0x2a	0.14367764
139	0xec	-0.06841792
140	0x47	0.24288362
141	0x0e	0.047892544
142	0x45	0.23604183
143	0x64	0.34208962
144	0xcd	-0.1744657
145	0x2a	0.14367764
146	0xac	-0.28735527
147	0xea	-0.075259715
148	0x3b	0.20183288
149	0x10	0.054734338
150	0xca	-0.18472838
151	0xb5	-0.2565672
152	0xe3	-0.099205986
153	0xc3	-0.20867467
154	0xd9	-0.13341495
155	0x31	0.1676239
156	0xc9	-0.18814929
157	0x43	0.22920004
158	0x41	0.22235824
159	0x16	0.075259715
160	0x2b	0.14709853
161	0xe0	-0.109468676
162	0xb4	-0.2599881
163	0x16	0.075259715
164	0x2c	0.15051943
165	0xfb	-0.01710448
166	0x1d	0.099205986
167	0xe5	-0.09236419
168	0x29	0.14025675
169	0x12	0.06157613
170	0x3b	0.20183288
171	0x28	0.13683584
172	0x39	0.19499108
173	0x40	0.21893735
174	0xb4	-0.2599881
175	0x14	0.06841792
176	0xd0	-0.16420302
177	0xcc	-0.1778866
178	0x51	0.27709258
179	0xae	-0.2805135
180	0x19	0.085522406
181	0x20	0.109468676
182	0x5f	0.32498515
183	0x12	0.06157613
184	0xc0	-0.21893735
185	0x1f	0.10604778
186	0x10	0.054734338
187	0x3d	0.20867467
188	0x1d	0.099205986
189	0x9f	-0.33182693
190	0x3a	0.19841197
191	0x32	0.17104481
192	0x3f	0.21551646
193	0xf3	-0.04447165
194	0x32	0.17104481
195	0x08	0.027367169
196	0xf2	-0.047892544
197	0xbc	-0.23262094
198	0xe3	-0.099205986
199	0xc7	-0.19499108
200	0xc6	-0.19841197
201	0x4e	0.2668299
202	0x09	0.030788066
203	0x35	0.1813075
204	0x45	0.23604183
205	0x16	0.075259715
206	0x3b	0.20183288
207	0x34	0.1778866
208	0xb1	-0.2702508
209	0x0e	0.047892544
210	0x28	0.13683584
211	0x0d	0.04447165
212	0xff	-0.0034208961
213	0x47	0.24288362
214	0x17	0.07868061
215	0x2a	0.14367764
216	0x11	0.058155235
217	0x53	0.28393438
218	0x15	0.07183882
219	0xe4	-0.09578509
220	0xb9	-0.24288362
221	0xb5	-0.2565672
222	0xa9	-0.29761797
223	0xe5	-0.09236419
224	0xc6	-0.19841197
225	0x2a	0.14367764
226	0x3e	0.21209556
227	0xcd	-0.1744657
228	0xf8	-0.027367169
229	0x43	0.22920004
230	0xfd	-0.010262689
231	0xf0	-0.054734338
232	0x34	0.1778866
233	0x51	0.27709258
234	0x2f	0.16078211
235	0x15	0.07183882
236	0xda	-0.12999405
237	0xc5	-0.20183288
238	0x4c	0.2599881
239	0x0f	0.05131344
240	0x33	0.1744657
241	0xcb	-0.1813075
242	0xdb	-0.12657316
243	0xf9	-0.023946272
244	0x1f	0.10604778
245	0xd7	-0.14025675
246	0x05	0.01710448
247	0x24	0.12315226
248	0x41	0.22235824
249	0x32	0.17104481
250	0xc2	-0.21209556
251	0x38	0.19157018
252	0x47	0.24288362
253	0xfd	-0.010262689
254	0x06	0.020525377
255	0xbb	-0.23604183

while/MatMul i1 [192, 15] scale=0.0032951962 zero_point=0
0	0x36	0.17794059
1	0x18	0.07908471
2	0x25	0.12192226
3	0xf0	-0.05272314
4	0xf8	-0.02636157
5	0x30	0.15816942
6	0x3d	0.20100696
7	0xed	-0.06260873
8	0xef	-0.056018338
9	0x2f	0.15487422
10	0x15	0.06919912
11	0x09	0.029656766
12	0x27	0.12851265
13	0xf1	-0.04942794
14	0x1f	0.10215108
15	0xfd	-0.009885589
16	0xf7	-0.029656766
17	0x20	0.10544628
18	0xd7	-0.13510305
19	0x1b	0.088970296
20	0xf7	-0.029656766
21	0xc9	-0.18123579
22	0x0e	0.046132747
23	0x13	0.06260873
24	0xe5	-0.088970296
25	0xf7	-0.029656766
26	0x15	0.06919912
27	0x17	0.07578951
28	0xd5	-0.14169344
29	0x07	0.023066374
30	0xd2	-0.15157902
31	0xf8	-0.02636157
32	0x16	0.07249431
33	0xd4	-0.14498863
34	0xe5	-0.088970296
35	0x0e	0.046132747
36	0xef	-0.056018338
37	0xf9	-0.023066374
38	0xf6	-0.032951962
39	0x2d	0.14828382
40	0xf3	-0.042837553
41	0xd6	-0.13839824
42	0x33	0.16805501
43	0x03	0.009885589
44	0xd9	-0.12851265
45	0x13	0.06260873
46	0x07	0.023066374
47	0x4c	0.2504349
48	0x18	0.07908471
49	0x40	0.21089256
50	0x14	0.065903924
51	0x07	0.023066374
52	0x48	0.23725413
53	0x27	0.12851265
54	0x3f	0.20759736
55	0x4f	0.2603205
56	0x1e	0.09885588
57	0xeb	-0.06919912
58	0x18	0.07908471
59	0xfc	-0.013180785
60	0x3e	0.20430216
61	0x2f	0.15487422
62	0x34	0.17135021
63	0x0d	0.042837553
64	0x3d	0.20100696
65	0x1b	0.088970296
66	0x03	0.009885589
67	0x1d	0.09556069
68	0xe0	-0.10544628
69	0x14	0.065903924
70	0xf5	-0.036247157
71	0x02	0.0065903924
72	0x20	0.10544628
73	0xe2	-0.09885588
74	0xef	-0.056018338
75	0xff	-0.0032951962
76	0x00	0.0
77	0x08	0.02636157
78	0xf0	-0.05272314
79	0xf3	-0.042837553
80	0x46	0.23066373
81	0x15	0.06919912
82	0x28	0.13180785
83	0x45	0.22736853
84	0x26	0.12521745
85	0x11	0.056018338
86	0x30	0.15816942
87	0x06	0.019771177
88	0x3d	0.20100696
89	0x38	0.18453099
90	0xb3	-0.25373012
91	0xcb	-0.1746454
92	0xf9	-0.023066374
93	0xce	-0.16475981
94	0xe5	-0.088970296
95	0xec	-0.065903924
96	0x0e	0.046132747
97	0xd7	-0.13510305
98	0xb3	-0.25373012
99	0xf2	-0.046132747
100	0xe7	-0.08237991
101	0xd0	-0.15816942
102	0xd6	-0.13839824
103	0xc0	-0.21089256
104	0xbd	-0.22077815
105	0xcd	-0.16805501
106	0xc5	-0.19441658
107	0x01	0.0032951962
108	0xf5	-0.036247157
109	0x22	0.112036675
110	0xf8	-0.02636157
111	0x0d	0.042837553
112	0x0b	0.036247157
113	0xfd	-0.009885589
114	0xde	-0.112036675
115	0xea	-0.07249431
116	0xfd	-0.009885589
117	0xe6	-0.085675105
118	0xd5	-0.14169344
119	0x09	0.029656766
120	0xf9	-0.023066374
121	0xe5	-0.088970296
122	0xec	-0.065903924
123	0xf9	-0.023066374
124	0x20	0.10544628
125	0xd9	-0.12851265
126	0xd9	-0.12851265
127	0x07	0.023066374
128	0x0b	0.036247157
129	0x00	0.0
130	0x0d	0.042837553
131	0x1c	0.092265494
132	0x1c	0.092265494
133	0xd7	-0.13510305
134	0xff	-0.0032951962
135	0x0f	0.04942794
136	0x41	0.21418776
137	0x3c	0.19771177
138	0x16	0.07249431
139	0x3d	0.20100696
140	0x11	0.056018338
141	0xe3	-0.09556069
142	0x26	0.12521745
143	0x38	0.18453099
144	0x32	0.16475981
145	0x49	0.24054933
146	0x34	0.17135021
147	0x40	0.21089256
148	0xf5	-0.036247157
149	0xf0	-0.05272314
150	0x15	0.06919912
151	0x25	0.12192226
152	0x0b	0.036247157
153	0xfb	-0.016475981
154	0x14	0.065903924
155	0x10	0.05272314
156	0x30	0.15816942
157	0xf4	-0.039542355
158	0x1d	0.09556069
159	0xf9	-0.023066374
160	0x2c	0.14498863
161	0x05	0.016475981
162	0xf8	-0.02636157
163	0xf3	-0.042837553
164	0xf5	-0.036247157
165	0xdb	-0.12192226
166	0x09	0.029656766
167	0x08	0.02636157
168	0xd4	-0.14498863
169	0xc5	-0.19441658
170	0xf6	-0.032951962
171	0xe4	-0.092265494
172	0x2b	0.14169344
173	0x08	0.02636157
174	0x00	0.0
175	0xcc	-0.17135021
176	0xde	-0.112036675
177	0xd6	-0.13839824
178	0xf5	-0.036247157
179	0x1e	0.09885588
180	0xf3	-0.042837553
181	0xe5	-0.088970296
182	0xd2	-0.15157902
183	0x29	0.13510305
184	0x03	0.009885589
185	0xeb	-0.06919912
186	0xf2	-0.046132747
187	0x44	0.22407335
188	0x3c	0.19771177
189	0x32	0.16475981
190	0x35	0.1746454
191	0x12	0.059313532
192	0xdb	-0.12192226
193	0x2e	0.15157902
194	0x32	0.16475981
195	0xd7	-0.13510305
196	0xd1	-0.15487422
197	0x97	-0.3459956
198	0xeb	-0.06919912
199	0xe0	-0.10544628
200	0xa5	-0.29986286
201	0xb3	-0.25373012
202	0xdd	-0.115331866
203	0xd7	-0.13510305
204	0x14	0.065903924
205	0xb0	-0.2636157
206	0xef	-0.056018338
207	0xc2	-0.20430216
208	0xc7	-0.18782619
209	0xc0	-0.21089256
210	0xf3	-0.042837553
211	0xb7	-0.24054933
212	0xc4	-0.19771177
213	0xfc	-0.013180785
214	0xee	-0.059313532
215	0x24	0.118627064
216	0xc8	-0.18453099
217	0xb2	-0.2570253
218	0xf9	-0.023066374
219	0xaf	-0.26691088
220	0xd8	-0.13180785
221	0xff	-0.0032951962
222	0xdf	-0.10874148
223	0xce	-0.16475981
224	0xf9	-0.023066374
225	0xfa	-0.019771177
226	0x50	0.2636157
227	0x09	0.029656766
228	0x0d	0.042837553
229	0x15	0.06919912
230	0x32	0.16475981
231	0xe8	-0.07908471
232	0x0b	0.036247157
233	0x04	0.013180785
234	0x05	0.016475981
235	0x13	0.06260873
236	0x2d	0.14828382
237	0x2f	0.15487422
238	0x33	0.16805501
239	0x4f	0.2603205
240	0xd8	-0.13180785
241	0xe9	-0.07578951
242	0x04	0.013180785
243	0x06	0.019771177
244	0x25	0.12192226
245	0x08	0.02636157
246	0xcf	-0.16146462
247	0x3d	0.20100696
248	0x36	0.17794059
249	0x28	0.13180785
250	0x14	0.065903924
251	0x15	0.06919912
252	0x28	0.13180785
253	0x05	0.016475981
254	0x2a	0.13839824
255	0xca	-0.17794059

while/MatMul_1 i1 [192, 64] scale=0.002864394 zero_point=0
0	0xf4	-0.03437273
1	0xcf	-0.1403553
2	0x19	0.071609855
3	0xea	-0.06301667
4	0x02	0.005728788
5	0x48	0.20623638
6	0xea	-0.06301667
7	0xe7	-0.071609855
8	0xf4	-0.03437273
9	0xa4	-0.26352426
10	0xfa	-0.017186364
11	0x1a	0.074474245
12	0xbf	-0.18618561
13	0x24	0.10311819
14	0x53	0.2377447
15	0xf8	-0.022915153
16	0xe4	-0.080203034
17	0x02	0.005728788
18	0xe8	-0.06874546
19	0x31	0.1403553
20	0x28	0.114575766
21	0xf1	-0.04296591
22	0x56	0.24633789
23	0x12	0.051559094
24	0x1d	0.08306743
25	0xa5	-0.26065987
26	0x22	0.0973894
27	0xbd	-0.19191441
28	0x1f	0.08879622
29	0xf6	-0.028643942
30	0xc6	-0.16613486
31	0x33	0.1460841
32	0x1d	0.08306743
33	0xcf	-0.1403553
34	0xe2	-0.08593182
35	0xf3	-0.037237123
36	0x3a	0.16613486
37	0xfc	-0.011457576
38	0x02	0.005728788
39	0x1b	0.07733864
40	0xfb	-0.014321971
41	0x27	0.11171137
42	0xd0	-0.13749091
43	0xf5	-0.031508334
44	0x28	0.114575766
45	0x2b	0.123168945
46	0x1c	0.080203034
47	0xee	-0.051559094
48	0xd6	-0.120304555
49	0xd8	-0.114575766
50	0xe8	-0.06874546
51	0xe5	-0.07733864
52	0xdd	-0.10025379
53	0x06	0.017186364
54	0x2e	0.13176213
55	0xfc	-0.011457576
56	0x15	0.060152277
57	0x73	0.3294053
58	0xea	-0.06301667
59	0x55	0.2434735
60	0x49	0.20910077
61	0x34	0.14894849
62	0x44	0.1947788
63	0x2c	0.12603334
64	0x03	0.008593182
65	0x02	0.005728788
66	0x25	0.10598258
67	0x42	0.18905
68	0x34	0.14894849
69	0x18	0.06874546
70	0x35	0.15181288
71	0xba	-0.20050758
72	0x07	0.020050758
73	0xf2	-0.040101517
74	0xf2	-0.040101517
75	0x3e	0.17759244
76	0xed	-0.05442349
77	0x11	0.0486947
78	0x42	0.18905
79	0x05	0.014321971
80	0xff	-0.002864394
81	0xce	-0.14321971
82	0xea	-0.06301667
83	0xf9	-0.020050758
84	0xfe	-0.005728788
85	0x09	0.025779547
86	0x1e	0.08593182
87	0x31	0.1403553
88	0xec	-0.057287883
89	0x28	0.114575766
90	0xf9	-0.020050758
91	0xe4	-0.080203034
92	0x05	0.014321971
93	0xfe	-0.005728788
94	0xeb	-0.060152277
95	0xec	-0.057287883
96	0xfc	-0.011457576
97	0xe2	-0.08593182
98	0xc7	-0.16327046
99	0xff	-0.002864394
100	0x03	0.008593182
101	0xf9	-0.020050758
102	0x16	0.06301667
103	0xea	-0.06301667
104	0xe8	-0.06874546
105	0x03	0.008593182
106	0x08	0.022915153
107	0x1a	0.074474245
108	0x16	0.06301667
109	0xd4	-0.12603334
110	0x33	0.1460841
111	0xf1	-0.04296591
112	0xbf	-0.18618561
113	0xf3	-0.037237123
114	0x23	0.10025379
115	0x06	0.017186364
116	0x21	0.094525
117	0xc4	-0.17186365
118	0xe4	-0.080203034
119	0x29	0.11744016
120	0xf5	-0.031508334
121	0xec	-0.057287883
122	0xd5	-0.123168945
123	0x38	0.16040607
124	0x1e	0.08593182
125	0xe2	-0.08593182
126	0x00	0.0
127	0x34	0.14894849
128	0xd9	-0.11171137
129	0xfe	-0.005728788
130	0xf1	-0.04296591
131	0xec	-0.057287883
132	0x0d	0.037237123
133	0x17	0.065881066
134	0xfb	-0.014321971
135	0x2d	0.12889774
136	0xee	-0.051559094
137	0x06	0.017186364
138	0xd0	-0.13749091
139	0xbe	-0.18905
140	0xf9	-0.020050758
141	0xe0	-0.09166061
142	0xee	-0.051559094
143	0xc7	-0.16327046
144	0xe7	-0.071609855
145	0xe9	-0.065881066
146	0x2f	0.13462652
147	0x18	0.06874546
148	0xc7	-0.16327046
149	0x1e	0.08593182
150	0xf7	-0.025779547
151	0x15	0.060152277
152	0x1a	0.074474245
153	0x02	0.005728788
154	0xd5	-0.123168945
155	0x1a	0.074474245
156	0xb8	-0.20623638
157	0xe9	-0.065881066
158	0x1b	0.07733864
159	0x03	0.008593182
160	0xfd	-0.008593182
161	0x43	0.19191441
162	0xf0	-0.045830306
163	0xeb	-0.060152277
164	0xee	-0.051559094
165	0xf1	-0.04296591
166	0xfc	-0.011457576
167	0xf4	-0.03437273
168	0x1a	0.074474245
169	0xbb	-0.19764319
170	0xf6	-0.028643942
171	0x28	0.114575766
172	0xc7	-0.16327046
173	0x0d	0.037237123
174	0x35	0.15181288
175	0x03	0.008593182
176	0xea	-0.06301667
177	0x24	0.10311819
178	0x05	0.014321971
179	0x4b	0.21482956
180	0xde	-0.0973894
181	0x08	0.022915153
182	0xe9	-0.065881066
183	0x0f	0.04296591
184	0xfb	-0.014321971
185	0xeb	-0.060152277
186	0xe2	-0.08593182
187	0x24	0.10311819
188	0xff	-0.002864394
189	0x01	0.002864394
190	0x46	0.20050758
191	0xff	-0.002864394
192	0x18	0.06874546
193	0xfd	-0.008593182
194	0xfe	-0.005728788
195	0x0c	0.03437273
196	0xda	-0.10884698
197	0x12	0.051559094
198	0xcc	-0.14894849
199	0xf8	-0.022915153
200	0x25	0.10598258
201	0x0a	0.028643942
202	0x01	0.002864394
203	0x59	0.25493106
204	0x38	0.16040607
205	0xed	-0.05442349
206	0x22	0.0973894
207	0xc8	-0.16040607
208	0x06	0.017186364
209	0x2b	0.123168945
210	0xf2	-0.040101517
211	0x28	0.114575766
212	0x0c	0.03437273
213	0xe8	-0.06874546
214	0x0b	0.031508334
215	0xfa	-0.017186364
216	0xfa	-0.017186364
217	0xd9	-0.11171137
218	0xda	-0.10884698
219	0xf2	-0.040101517
220	0x43	0.19191441
221	0xdf	-0.094525
222	0xef	-0.0486947
223	0x25	0.10598258
224	0x32	0.14321971
225	0xf0	-0.045830306
226	0x2b	0.123168945
227	0xe5	-0.07733864
228	0x3d	0.17472804
229	0x2a	0.120304555
230	0xd6	-0.120304555
231	0xe8	-0.06874546
232	0xd5	-0.123168945
233	0x2e	0.13176213
234	0xe2	-0.08593182
235	0xcb	-0.15181288
236	0x1d	0.08306743
237	0x30	0.13749091
238	0x12	0.051559094
239	0xec	-0.057287883
240	0x1d	0.08306743
241	0xc7	-0.16327046
242	0xca	-0.15467729
243	0xf9	-0.020050758
244	0x2a	0.120304555
245	0x08	0.022915153
246	0xd5	-0.123168945
247	0x1f	0.08879622
248	0x00	0.0
249	0x19	0.071609855
250	0xdd	-0.10025379
251	0x12	0.051559094
252	0xe8	-0.06874546
253	0x51	0.23201592
254	0x0e	0.040101517
255	0xf2	-0.040101517
