evaluation-code/output/models/tflite/LSTM_64units_framesize_5_20230624-144724.tflite (tflite, 33888 bytes, 4 tensors)

sequential_7/dense_7/MatMul i1 [10, 64] scale=0.0035358719 zero_point=0
0	0xed	-0.067181565
1	0x48	0.25458276
2	0xd2	-0.16265011
3	0x1c	0.09900441
4	0xc2	-0.21922405
5	0xee	-0.06364569
6	0x34	0.18386534
7	0x10	0.05657395
8	0xda	-0.13436313
9	0x16	0.07778918
10	0xba	-0.24751103
11	0x13	0.067181565
12	0xf6	-0.03535872
13	0xf6	-0.03535872
14	0x1f	0.109612025
15	0x28	0.14143488
16	0x43	0.23690341
17	0xdb	-0.13082726
18	0xaf	-0.28640562
19	0x2f	0.16618598
20	0x30	0.16972184
21	0xc8	-0.19800882
22	0x32	0.17679359
23	0xcb	-0.1874012
24	0x0a	0.03535872
25	0xe4	-0.09900441
26	0x1f	0.109612025
27	0x01	0.0035358719
28	0xb6	-0.26165453
29	0x2d	0.15911423
30	0x12	0.06364569
31	0xe2	-0.10607616
32	0xd4	-0.15557836
33	0xf4	-0.04243046
34	0x24	0.12729138
35	0xd0	-0.16972184
36	0x54	0.29701322
37	0xb6	-0.26165453
38	0x1c	0.09900441
39	0xba	-0.24751103
40	0xe3	-0.102540284
41	0xd5	-0.1520425
42	0x4d	0.27226213
43	0x25	0.13082726
44	0x27	0.137899
45	0x9f	-0.34297958
46	0xb7	-0.25811866
47	0x13	0.067181565
48	0x39	0.2015447
49	0xf2	-0.049502205
50	0xe6	-0.09193267
51	0xca	-0.19093709
52	0xac	-0.29701322
53	0xea	-0.07778918
54	0xda	-0.13436313
55	0xd5	-0.1520425
56	0x56	0.304085
57	0x1c	0.09900441
58	0x0b	0.03889459
59	0x1b	0.09546854
60	0x54	0.29701322
61	0x38	0.19800882
62	0x02	0.0070717437
63	0x37	0.19447295
64	0xdb	-0.13082726
65	0xdd	-0.123755515
66	0x74	0.41016114
67	0xd9	-0.137899
68	0xfd	-0.010607615
69	0xd2	-0.16265011
70	0x9e	-0.34651545
71	0x7b	0.43491223
72	0x0e	0.049502205
73	0x52	0.2899415
74	0x36	0.19093709
75	0xb6	-0.26165453
76	0xbc	-0.24043928
77	0xc3	-0.21568818
78	0x3a	0.20508057
79	0xce	-0.17679359
80	0x16	0.07778918
81	0x91	-0.39248177
82	0xcc	-0.18386534
83	0x0e	0.049502205
84	0x13	0.067181565
85	0x35	0.1874012
86	0x91	-0.39248177
87	0xea	-0.07778918
88	0x4a	0.26165453
89	0xb4	-0.26872626
90	0x0b	0.03889459
91	0xab	-0.30054912
92	0x4d	0.27226213
93	0x23	0.123755515
94	0xe3	-0.102540284
95	0x5c	0.32530022
96	0xca	-0.19093709
97	0x61	0.34297958
98	0xfa	-0.02121523
99	0xab	-0.30054912
100	0xdb	-0.13082726
101	0x31	0.17325772
102	0x7f	0.44905573
103	0xd1	-0.16618598
104	0x06	0.02121523
105	0x1e	0.10607616
106	0xef	-0.06010982
107	0x9e	-0.34651545
108	0x2b	0.1520425
109	0x5f	0.33590782
110	0x03	0.010607615
111	0xdf	-0.11668377
112	0x99	-0.3641948
113	0x3a	0.20508057
114	0xd4	-0.15557836
115	0x19	0.088396795
116	0xdb	-0.13082726
117	0xc2	-0.21922405
118	0xc1	-0.22275993
119	0x69	0.37126654
120	0xdf	-0.11668377
121	0x30	0.16972184
122	0x99	-0.3641948
123	0xf2	-0.049502205
124	0x21	0.11668377
125	0x3d	0.21568818
126	0xf9	-0.024751103
127	0xdc	-0.12729138
128	0x9d	-0.3500513
129	0xe6	-0.09193267
130	0xeb	-0.074253306
131	0x61	0.34297958
132	0x12	0.06364569
133	0x44	0.24043928
134	0x28	0.14143488
135	0x23	0.123755515
136	0xaf	-0.28640562
137	0x03	0.010607615
138	0x38	0.19800882
139	0x05	0.01767936
140	0x18	0.08486092
141	0xe7	-0.088396795
142	0xbd	-0.23690341
143	0xc9	-0.19447295
144	0x40	0.2262958
145	0xee	-0.06364569
146	0x3e	0.21922405
147	0x56	0.304085
148	0xf4	-0.04243046
149	0xc6	-0.20508057
150	0xf2	-0.049502205
151	0x23	0.123755515
152	0xd1	-0.16618598
153	0x2e	0.16265011
154	0xec	-0.07071744
155	0x00	0.0
156	0xe0	-0.1131479
157	0xab	-0.30054912
158	0xfc	-0.014143487
159	0xc1	-0.22275993
160	0x2d	0.15911423
161	0x0c	0.04243046
162	0xe4	-0.09900441
163	0xc7	-0.2015447
164	0xbc	-0.24043928
165	0xd8	-0.14143488
166	0x25	0.13082726
167	0x2a	0.14850661
168	0x13	0.067181565
169	0xf1	-0.05303808
170	0x19	0.088396795
171	0xbc	-0.24043928
172	0x36	0.19093709
173	0xa2	-0.33237195
174	0xf0	-0.05657395
175	0x1c	0.09900441
176	0x23	0.123755515
177	0x2b	0.1520425
178	0xcd	-0.18032947
179	0xe6	-0.09193267
180	0xc3	-0.21568818
181	0x14	0.07071744
182	0x16	0.07778918
183	0xc6	-0.20508057
184	0x33	0.18032947
185	0xdd	-0.123755515
186	0xe5	-0.09546854
187	0x27	0.137899
188	0x3e	0.21922405
189	0x42	0.23336755
190	0xf8	-0.028286975
191	0xec	-0.07071744
192	0xce	-0.17679359
193	0x01	0.0035358719
194	0xb9	-0.2510469
195	0xec	-0.07071744
196	0xfd	-0.010607615
197	0x12	0.06364569
198	0x1d	0.102540284
199	0xe8	-0.08486092
200	0x14	0.07071744
201	0xd0	-0.16972184
202	0x0a	0.03535872
203	0xf8	-0.028286975
204	0x3f	0.22275993
205	0xf3	-0.045966335
206	0x43	0.23690341
207	0x00	0.0
208	0xaf	-0.28640562
209	0x2a	0.14850661
210	0xd0	-0.16972184
211	0xca	-0.19093709
212	0xfd	-0.010607615
213	0x11	0.06010982
214	0x31	0.17325772
215	0x2b	0.1520425
216	0xca	-0.19093709
217	0xd4	-0.15557836
218	0xbf	-0.22983167
219	0xf1	-0.05303808
220	0xe4	-0.09900441
221	0xb7	-0.25811866
222	0x1d	0.102540284
223	0xbb	-0.24397516
224	0xbb	-0.24397516
225	0xce	-0.17679359
226	0x04	0.014143487
227	0x1c	0.09900441
228	0xb1	-0.2793339
229	0xb9	-0.2510469
230	0xf7	-0.031822845
231	0x49	0.25811866
232	0x2d	0.15911423
233	0xb8	-0.25458276
234	0x36	0.19093709
235	0xca	-0.19093709
236	0x21	0.11668377
237	0xf5	-0.03889459
238	0xd9	-0.137899
239	0xc7	-0.2015447
240	0xeb	-0.074253306
241	0x36	0.19093709
242	0xfb	-0.01767936
243	0xeb	-0.074253306
244	0x04	0.014143487
245	0x09	0.031822845
246	0xda	-0.13436313
247	0xed	-0.067181565
248	0x41	0.22983167
249	0xe6	-0.09193267
250	0x0d	0.045966335
251	0xfd	-0.010607615
252	0xeb	-0.074253306
253	0xfa	-0.02121523
254	0x10	0.05657395
255	0x49	0.25811866

sequential_7/lstm_1/Read_2/ReadVariableOp1 i1 [256] scale=0.0043643625 zero_point=-120
0	0x91	0.039279263
1	0x88	0.0
2	0x99	0.07419416
3	0x90	0.0349149
4	0x86	-0.008728725
5	0x8e	0.026186176
6	0x8b	0.013093088
7	0x91	0.039279263
8	0x8f	0.030550538
9	0x88	0.0
10	0x8e	0.026186176
11	0x93	0.048007987
12	0x8b	0.013093088
13	0x8c	0.01745745
14	0x8c	0.01745745
15	0x91	0.039279263
16	0x95	0.05673671
17	0x8f	0.030550538
18	0x8e	0.026186176
19	0x8a	0.008728725
20	0x8a	0.008728725
21	0x96	0.061101075
22	0x90	0.0349149
23	0x8c	0.01745745
24	0x96	0.061101075
25	0x97	0.065465435
26	0x88	0.0
27	0x8e	0.026186176
28	0x91	0.039279263
29	0x8f	0.030550538
30	0x88	0.0
31	0x88	0.0
32	0x89	0.0043643625
33	0x8a	0.008728725
34	0x8c	0.01745745
35	0x96	0.061101075
36	0x8a	0.008728725
37	0x8e	0.026186176
38	0x8d	0.021821812
39	0x8c	0.01745745
40	0x8c	0.01745745
41	0x8d	0.021821812
42	0x8c	0.01745745
43	0x94	0.05237235
44	0x8d	0.021821812
45	0x90	0.0349149
46	0x91	0.039279263
47	0x8f	0.030550538
48	0x8e	0.026186176
49	0x95	0.05673671
50	0x8b	0.013093088
51	0x91	0.039279263
52	0x8d	0.021821812
53	0x94	0.05237235
54	0x8e	0.026186176
55	0x8b	0.013093088
56	0x8a	0.008728725
57	0x94	0.05237235
58	0x90	0.0349149
59	0x8d	0.021821812
60	0x8d	0.021821812
61	0x93	0.048007987
62	0x8e	0.026186176
63	0x8c	0.01745745
64	0x77	1.0430826
65	0x6d	0.999439
66	0x77	1.0430826
67	0x75	1.0343539
68	0x6c	0.9950746
69	0x74	1.0299895
70	0x70	1.0125321
71	0x74	1.0299895
72	0x73	1.0256252
73	0x6c	0.9950746
74	0x75	1.0343539
75	0x74	1.0299895
76	0x71	1.0168965
77	0x6f	1.0081677
78	0x71	1.0168965
79	0x72	1.0212609
80	0x74	1.0299895
81	0x73	1.0256252
82	0x74	1.0299895
83	0x6e	1.0038034
84	0x70	1.0125321
85	0x7f	1.0779976
86	0x74	1.0299895
87	0x6d	0.999439
88	0x74	1.0299895
89	0x76	1.0387182
90	0x6e	1.0038034
91	0x70	1.0125321
92	0x70	1.0125321
93	0x74	1.0299895
94	0x71	1.0168965
95	0x6a	0.9863459
96	0x6f	1.0081677
97	0x71	1.0168965
98	0x72	1.0212609
99	0x73	1.0256252
100	0x6e	1.0038034
101	0x73	1.0256252
102	0x6e	1.0038034
103	0x71	1.0168965
104	0x71	1.0168965
105	0x71	1.0168965
106	0x70	1.0125321
107	0x75	1.0343539
108	0x71	1.0168965
109	0x71	1.0168965
110	0x76	1.0387182
111	0x73	1.0256252
112	0x73	1.0256252
113	0x76	1.0387182
114	0x70	1.0125321
115	0x71	1.0168965
116	0x71	1.0168965
117	0x78	1.047447
118	0x71	1.0168965
119	0x6d	0.999439
120	0x6e	1.0038034
121	0x77	1.0430826
122	0x71	1.0168965
123	0x71	1.0168965
124	0x71	1.0168965
125	0x71	1.0168965
126	0x72	1.0212609
127	0x73	1.0256252
128	0x8d	0.021821812
129	0x88	0.0
130	0x87	-0.0043643625
131	0x89	0.0043643625
132	0x8a	0.008728725
133	0x89	0.0043643625
134	0x89	0.0043643625
135	0x89	0.0043643625
136	0x82	-0.026186176
137	0x8f	0.030550538
138	0x81	-0.030550538
139	0x84	-0.01745745
140	0x82	-0.026186176
141	0x8e	0.026186176
142	0x8d	0.021821812
143	0x80	-0.0349149
144	0x89	0.0043643625
145	0x8d	0.021821812
146	0x88	0.0
147	0x87	-0.0043643625
148	0x82	-0.026186176
149	0x86	-0.008728725
150	0x85	-0.013093088
151	0x8b	0.013093088
152	0x87	-0.0043643625
153	0x88	0.0
154	0x8b	0.013093088
155	0x88	0.0
156	0x85	-0.013093088
157	0x89	0.0043643625
158	0x87	-0.0043643625
159	0x80	-0.0349149
160	0x86	-0.008728725
161	0x87	-0.0043643625
162	0x88	0.0
163	0x87	-0.0043643625
164	0x8c	0.01745745
165	0x8a	0.008728725
166	0x89	0.0043643625
167	0x8d	0.021821812
168	0x86	-0.008728725
169	0x87	-0.0043643625
170	0x8b	0.013093088
171	0x85	-0.013093088
172	0x81	-0.030550538
173	0x85	-0.013093088
174	0x86	-0.008728725
175	0x8a	0.008728725
176	0x88	0.0
177	0x84	-0.01745745
178	0x85	-0.013093088
179	0x88	0.0
180	0x8a	0.008728725
181	0x86	-0.008728725
182	0x89	0.0043643625
183	0x8a	0.008728725
184	0x8b	0.013093088
185	0x85	-0.013093088
186	0x89	0.0043643625
187	0x8b	0.013093088
188	0x8c	0.01745745
189	0x8d	0.021821812
190	0x8a	0.008728725
191	0x84	-0.01745745
192	0x8f	0.030550538
193	0x8a	0.008728725
194	0x9a	0.07855853
195	0x91	0.039279263
196	0x86	-0.008728725
197	0x8d	0.021821812
198	0x8f	0.030550538
199	0x93	0.048007987
200	0x90	0.0349149
201	0x8a	0.008728725
202	0x90	0.0349149
203	0x94	0.05237235
204	0x8e	0.026186176
205	0x8f	0.030550538
206	0x8e	0.026186176
207	0x97	0.065465435
208	0x94	0.05237235
209	0x92	0.043643624
210	0x8f	0.030550538
211	0x8b	0.013093088
212	0x8b	0.013093088
213	0x9e	0.096015975
214	0x94	0.05237235
215	0x8a	0.008728725
216	0x9b	0.08292288
217	0x9f	0.10038034
218	0x88	0.0
219	0x8e	0.026186176
220	0x93	0.048007987
221	0x8d	0.021821812
222	0x8b	0.013093088
223	0x8f	0.030550538
224	0x89	0.0043643625
225	0x90	0.0349149
226	0x8d	0.021821812
227	0x94	0.05237235
228	0x8b	0.013093088
229	0x91	0.039279263
230	0x8d	0.021821812
231	0x8e	0.026186176
232	0x8c	0.01745745
233	0x8d	0.021821812
234	0x8c	0.01745745
235	0x9a	0.07855853
236	0x8e	0.026186176
237	0x94	0.05237235
238	0x93	0.048007987
239	0x93	0.048007987
240	0x90	0.0349149
241	0x9a	0.07855853
242	0x8a	0.008728725
243	0x95	0.05673671
244	0x8f	0.030550538
245	0x95	0.05673671
246	0x8f	0.030550538
247	0x8c	0.01745745
248	0x8b	0.013093088
249	0x92	0.043643624
250	0x91	0.039279263
251	0x8d	0.021821812
252	0x8e	0.026186176
253	0x95	0.05673671
254	0x90	0.0349149
255	0x8d	0.021821812

while/MatMul i1 [256, 15] scale=0.002022684 zero_point=0
0	0x18	0.048544418
1	0xf2	-0.028317578
2	0x11	0.03438563
3	0x3b	0.11933836
4	0x0d	0.026294893
5	0x59	0.18001889
6	0xfa	-0.0121361045
7	0x0a	0.02022684
8	0x38	0.11327031
9	0x3d	0.12338373
10	0x2a	0.084952734
11	0x13	0.038430996
12	0x31	0.09911152
13	0x26	0.07686199
14	0xdb	-0.07483931
15	0xca	-0.10922494
16	0xf3	-0.026294893
17	0xb9	-0.14361057
18	0xf1	-0.030340262
19	0x3b	0.11933836
20	0x1f	0.06270321
21	0x3f	0.1274291
22	0x0d	0.026294893
23	0xf9	-0.014158789
24	0x30	0.097088836
25	0xc3	-0.12338373
26	0x1c	0.056635156
27	0xe8	-0.048544418
28	0xe5	-0.05461247
29	0xfd	-0.0060680523
30	0xef	-0.03438563
31	0x68	0.21035914
32	0xfe	-0.004045368
33	0xfb	-0.01011342
34	0x0f	0.030340262
35	0xf7	-0.018204156
36	0x23	0.07079394
37	0xe3	-0.05865784
38	0xfc	-0.008090736
39	0x53	0.16788279
40	0xfb	-0.01011342
41	0x57	0.17597352
42	0x38	0.11327031
43	0x60	0.19417767
44	0x61	0.19620036
45	0xd9	-0.078884676
46	0xe9	-0.046521734
47	0x0d	0.026294893
48	0x1b	0.05461247
49	0x3e	0.12540641
50	0xdc	-0.072816625
51	0x1a	0.052589785
52	0xd6	-0.084952734
53	0xe9	-0.046521734
54	0xf2	-0.028317578
55	0x46	0.14158788
56	0x20	0.06472589
57	0xf2	-0.028317578
58	0x2c	0.0889981
59	0xf0	-0.032362945
60	0xc9	-0.11124762
61	0x3d	0.12338373
62	0x2c	0.0889981
63	0x33	0.10315689
64	0xfa	-0.0121361045
65	0xb8	-0.14563325
66	0x14	0.04045368
67	0xfb	-0.01011342
68	0x11	0.03438563
69	0x3c	0.12136105
70	0xeb	-0.042476367
71	0xe9	-0.046521734
72	0xe1	-0.06270321
73	0x1f	0.06270321
74	0x0c	0.024272209
75	0xe3	-0.05865784
76	0xc4	-0.12136105
77	0x20	0.06472589
78	0xfa	-0.0121361045
79	0x4d	0.15574667
80	0x14	0.04045368
81	0xd2	-0.09304347
82	0xc4	-0.12136105
83	0xe0	-0.06472589
84	0x0f	0.030340262
85	0xf2	-0.028317578
86	0x18	0.048544418
87	0xf3	-0.026294893
88	0x3c	0.12136105
89	0xe1	-0.06270321
90	0xd4	-0.0889981
91	0xc5	-0.11933836
92	0x10	0.032362945
93	0x26	0.07686199
94	0xbe	-0.13349715
95	0x0d	0.026294893
96	0x4b	0.1517013
97	0xd4	-0.0889981
98	0x20	0.06472589
99	0xfe	-0.004045368
100	0x38	0.11327031
101	0x1e	0.060680524
102	0x48	0.14563325
103	0xe5	-0.05461247
104	0x2d	0.091020785
105	0xe0	-0.06472589
106	0xdf	-0.066748574
107	0x2e	0.09304347
108	0x57	0.17597352
109	0x4f	0.15979204
110	0xf0	-0.032362945
111	0xfd	-0.0060680523
112	0x25	0.07483931
113	0xc2	-0.12540641
114	0x1d	0.05865784
115	0x38	0.11327031
116	0x2e	0.09304347
117	0x16	0.04449905
118	0xe3	-0.05865784
119	0xc1	-0.1274291
120	0x33	0.10315689
121	0x37	0.11124762
122	0x05	0.01011342
123	0x2a	0.084952734
124	0xef	-0.03438563
125	0x42	0.13349715
126	0x52	0.1658601
127	0x04	0.008090736
128	0xe7	-0.0505671
129	0x0a	0.02022684
130	0x1f	0.06270321
131	0x08	0.016181473
132	0x24	0.072816625
133	0x43	0.13551983
134	0xe4	-0.056635156
135	0xcd	-0.10315689
136	0xbf	-0.13147447
137	0x21	0.066748574
138	0xc7	-0.115292996
139	0xbe	-0.13349715
140	0xe7	-0.0505671
141	0xfb	-0.01011342
142	0xcd	-0.10315689
143	0xca	-0.10922494
144	0x45	0.1395652
145	0xdf	-0.066748574
146	0xea	-0.04449905
147	0x2e	0.09304347
148	0xb8	-0.14563325
149	0xf7	-0.018204156
150	0xc0	-0.12945178
151	0x15	0.042476367
152	0xd3	-0.091020785
153	0xc3	-0.12338373
154	0x2e	0.09304347
155	0x3d	0.12338373
156	0x36	0.10922494
157	0x1b	0.05461247
158	0x34	0.10517957
159	0x36	0.10922494
160	0x2e	0.09304347
161	0x3a	0.11731568
162	0xc6	-0.11731568
163	0xec	-0.04045368
164	0x04	0.008090736
165	0x28	0.08090736
166	0x4f	0.15979204
167	0x32	0.1011342
168	0xff	-0.002022684
169	0x0e	0.028317578
170	0x25	0.07483931
171	0x2e	0.09304347
172	0x10	0.032362945
173	0x10	0.032362945
174	0xe7	-0.0505671
175	0x2e	0.09304347
176	0xd8	-0.08090736
177	0xfc	-0.008090736
178	0xe8	-0.048544418
179	0x5d	0.18810962
180	0x11	0.03438563
181	0x46	0.14158788
182	0x12	0.036408313
183	0x43	0.13551983
184	0x08	0.016181473
185	0xe9	-0.046521734
186	0x33	0.10315689
187	0xf7	-0.018204156
188	0x3e	0.12540641
189	0xf3	-0.026294893
190	0xfb	-0.01011342
191	0xcf	-0.09911152
192	0xd2	-0.09304347
193	0xef	-0.03438563
194	0xdf	-0.066748574
195	0x35	0.107202254
196	0x08	0.016181473
197	0x4e	0.15776935
198	0x28	0.08090736
199	0x42	0.13349715
200	0x10	0.032362945
201	0x4f	0.15979204
202	0x2c	0.0889981
203	0xdd	-0.07079394
204	0xf8	-0.016181473
205	0x12	0.036408313
206	0xc4	-0.12136105
207	0xe5	-0.05461247
208	0xf2	-0.028317578
209	0xe2	-0.060680524
210	0xf2	-0.028317578
211	0x26	0.07686199
212	0x54	0.16990547
213	0x1f	0.06270321
214	0xe3	-0.05865784
215	0x07	0.014158789
216	0xdc	-0.072816625
217	0x56	0.17395084
218	0x0c	0.024272209
219	0xcd	-0.10315689
220	0x4c	0.15372398
221	0x44	0.13754252
222	0x58	0.1779962
223	0x34	0.10517957
224	0x51	0.16383742
225	0x09	0.018204156
226	0xd5	-0.08697542
227	0x4a	0.14967862
228	0x55	0.17192815
229	0x1a	0.052589785
230	0xdc	-0.072816625
231	0xdc	-0.072816625
232	0x53	0.16788279
233	0x4b	0.1517013
234	0xdd	-0.07079394
235	0x2a	0.084952734
236	0x1d	0.05865784
237	0x32	0.1011342
238	0xe7	-0.0505671
239	0x0e	0.028317578
240	0x4a	0.14967862
241	0x34	0.10517957
242	0x27	0.078884676
243	0xfa	-0.0121361045
244	0xe2	-0.060680524
245	0xda	-0.07686199
246	0x06	0.0121361045
247	0x1c	0.056635156
248	0x35	0.107202254
249	0xe8	-0.048544418
250	0x11	0.03438563
251	0xf7	-0.018204156
252	0x49	0.14765593
253	0x12	0.036408313
254	0xfb	-0.01011342
255	0x54	0.16990547

while/MatMul_11 i1 [256, 64] scale=0.0022615541 zero_point=0
0	0x1b	0.06106196
1	0xf5	-0.024877096
2	0x1b	0.06106196
3	0xfa	-0.013569325
4	0x10	0.036184866
5	0x1b	0.06106196
6	0x0d	0.029400203
7	0x1a	0.058800407
8	0xe2	-0.067846626
9	0x04	0.0090462165
10	0x0c	0.02713865
11	0x0d	0.029400203
12	0x17	0.052015744
13	0xd8	-0.09046216
14	0xf7	-0.020353988
15	0x06	0.013569325
16	0xff	-0.0022615541
17	0xc0	-0.14473946
18	0xe3	-0.06558507
19	0x17	0.052015744
20	0xf1	-0.033923313
21	0x07	0.015830878
22	0x02	0.0045231082
23	0x0b	0.024877096
24	0xfa	-0.013569325
25	0x01	0.0022615541
26	0xf3	-0.029400203
27	0xe7	-0.056538854
28	0xf2	-0.031661756
29	0x49	0.16509345
30	0x21	0.07463129
31	0x11	0.03844642
32	0xe3	-0.06558507
33	0x2e	0.10403149
34	0x15	0.04749264
35	0xea	-0.04975419
36	0x03	0.0067846626
37	0xfe	-0.0045231082
38	0xfb	-0.01130777
39	0xe2	-0.067846626
40	0x2d	0.10176994
41	0x0f	0.033923313
42	0x07	0.015830878
43	0xf1	-0.033923313
44	0x3b	0.13343169
45	0x1b	0.06106196
46	0x10	0.036184866
47	0x89	-0.26912495
48	0x20	0.07236973
49	0xee	-0.040707976
50	0x02	0.0045231082
51	0xfd	-0.0067846626
52	0x09	0.020353988
53	0x10	0.036184866
54	0x1c	0.06332351
55	0xec	-0.04523108
56	0x9f	-0.21937075
57	0x09	0.020353988
58	0xc3	-0.1379548
59	0x04	0.0090462165
60	0xf9	-0.015830878
61	0xde	-0.07689284
62	0xd3	-0.10176994
63	0x3f	0.14247791
64	0x0c	0.02713865
65	0x1d	0.06558507
66	0x01	0.0022615541
67	0xf5	-0.024877096
68	0x19	0.056538854
69	0x22	0.07689284
70	0x42	0.14926258
71	0x20	0.07236973
72	0x10	0.036184866
73	0xd9	-0.088200614
74	0xe4	-0.06332351
75	0xe7	-0.056538854
76	0x11	0.03844642
77	0x10	0.036184866
78	0xf6	-0.02261554
79	0xf4	-0.02713865
80	0xf8	-0.018092433
81	0x06	0.013569325
82	0x06	0.013569325
83	0x23	0.079154395
84	0xdd	-0.079154395
85	0xce	-0.11307771
86	0x3c	0.13569325
87	0x09	0.020353988
88	0xfd	-0.0067846626
89	0x11	0.03844642
90	0x15	0.04749264
91	0xff	-0.0022615541
92	0xec	-0.04523108
93	0x30	0.1085546
94	0x35	0.11986237
95	0x4e	0.17640123
96	0xe9	-0.052015744
97	0xd0	-0.1085546
98	0xdd	-0.079154395
99	0x08	0.018092433
100	0xe2	-0.067846626
101	0xeb	-0.04749264
102	0x0a	0.02261554
103	0x08	0.018092433
104	0x2d	0.10176994
105	0xff	-0.0022615541
106	0xeb	-0.04749264
107	0xde	-0.07689284
108	0x14	0.04523108
109	0xf0	-0.036184866
110	0x02	0.0045231082
111	0x19	0.056538854
112	0x22	0.07689284
113	0x02	0.0045231082
114	0x11	0.03844642
115	0x02	0.0045231082
116	0xf1	-0.033923313
117	0xe0	-0.07236973
118	0xeb	-0.04749264
119	0xff	-0.0022615541
120	0xe3	-0.06558507
121	0x1e	0.067846626
122	0x0b	0.024877096
123	0x21	0.07463129
124	0x1a	0.058800407
125	0x10	0.036184866
126	0x22	0.07689284
127	0xff	-0.0022615541
128	0xe6	-0.058800407
129	0xf6	-0.02261554
130	0x29	0.09272372
131	0xe1	-0.070108175
132	0x30	0.1085546
133	0x02	0.0045231082
134	0xf0	-0.036184866
135	0x0f	0.033923313
136	0x12	0.040707976
137	0xaf	-0.18318589
138	0x14	0.04523108
139	0x1f	0.070108175
140	0x20	0.07236973
141	0xde	-0.07689284
142	0xbd	-0.15152413
143	0xf4	-0.02713865
144	0xfc	-0.0090462165
145	0xf7	-0.020353988
146	0x08	0.018092433
147	0x26	0.08593906
148	0x0f	0.033923313
149	0x3b	0.13343169
150	0xe6	-0.058800407
151	0x24	0.08141595
152	0x10	0.036184866
153	0x01	0.0022615541
154	0xf0	-0.036184866
155	0xe6	-0.058800407
156	0xe9	-0.052015744
157	0x19	0.056538854
158	0xd7	-0.09272372
159	0x13	0.04296953
160	0xa9	-0.19675522
161	0x17	0.052015744
162	0x14	0.04523108
163	0xf5	-0.024877096
164	0xdd	-0.079154395
165	0x33	0.11533926
166	0x31	0.11081615
167	0xed	-0.04296953
168	0x2c	0.09950838
169	0xe8	-0.0542773
170	0xfa	-0.013569325
171	0xe4	-0.06332351
172	0x28	0.09046216
173	0x17	0.052015744
174	0x09	0.020353988
175	0x02	0.0045231082
176	0x0b	0.024877096
177	0xe7	-0.056538854
178	0xcf	-0.11081615
179	0xe3	-0.06558507
180	0xba	-0.15830879
181	0x09	0.020353988
182	0xf6	-0.02261554
183	0xec	-0.04523108
184	0xba	-0.15830879
185	0x27	0.088200614
186	0xf5	-0.024877096
187	0xaa	-0.19449365
188	0xbf	-0.14700101
189	0xd4	-0.09950838
190	0xf6	-0.02261554
191	0xf9	-0.015830878
192	0xf4	-0.02713865
193	0x19	0.056538854
194	0xf0	-0.036184866
195	0xcd	-0.11533926
196	0xf3	-0.029400203
197	0x00	0.0
198	0xd9	-0.088200614
199	0x06	0.013569325
200	0xd4	-0.09950838
201	0xca	-0.12212392
202	0x11	0.03844642
203	0xe1	-0.070108175
204	0x09	0.020353988
205	0x1f	0.070108175
206	0x17	0.052015744
207	0x18	0.0542773
208	0xed	-0.04296953
209	0x28	0.09046216
210	0xe8	-0.0542773
211	0x12	0.040707976
212	0xf8	-0.018092433
213	0xe1	-0.070108175
214	0xe4	-0.06332351
215	0x00	0.0
216	0x1d	0.06558507
217	0x05	0.01130777
218	0xd2	-0.10403149
219	0x2c	0.09950838
220	0xd5	-0.097246826
221	0xf8	-0.018092433
222	0x1d	0.06558507
223	0xe7	-0.056538854
224	0x13	0.04296953
225	0xfb	-0.01130777
226	0xe3	-0.06558507
227	0x0b	0.024877096
228	0xd0	-0.1085546
229	0xf5	-0.024877096
230	0x13	0.04296953
231	0x15	0.04749264
232	0x0c	0.02713865
233	0x00	0.0
234	0xe9	-0.052015744
235	0x24	0.08141595
236	0xec	-0.04523108
237	0x18	0.0542773
238	0x0f	0.033923313
239	0x2a	0.09498528
240	0xfd	-0.0067846626
241	0xe9	-0.052015744
242	0x08	0.018092433
243	0x22	0.07689284
244	0x14	0.04523108
245	0x39	0.12890859
246	0x26	0.08593906
247	0x12	0.040707976
248	0xdc	-0.08141595
249	0xe6	-0.058800407
250	0x25	0.0836775
251	0x1b	0.06106196
252	0x24	0.08141595
253	0xde	-0.07689284
254	0xe9	-0.052015744
255	0xec	-0.04523108
