evaluation-code/output/models/tflite/LSTM_128units_framesize_5_20230624-145046.tflite (tflite, 87776 bytes, 4 tensors)

sequential_8/dense_8/MatMul i1 [10, 128] scale=0.0025805854 zero_point=0
000000 ca a6 d1 df c0 ac b0 09 24 54 f8 25 08 3c e2 40
       -0.1393516 -0.23225269 -0.12128752 -0.08515932 -0.16515747 -0.21676917 -0.20644683 0.023225268 0.09290107 0.21676917 -0.020644683 0.095481664 0.020644683 0.15483512 -0.07741756 0.16515747
000010 c3 13 9f fc 02 09 cb d7 3a ee bb 17 6a b5 34 1f
       -0.15741572 0.049031124 -0.2503168 -0.010322342 0.005161171 0.023225268 -0.13677102 -0.105804004 0.14967395 -0.046450537 -0.1780604 0.059353463 0.27354205 -0.19354391 0.13419044 0.07999815
000020 b2 f6 d2 f5 ca b8 cf 56 08 b4 bb 29 03 fe 49 da
       -0.20128566 -0.025805853 -0.11870693 -0.02838644 -0.1393516 -0.18580215 -0.12644869 0.22193034 0.020644683 -0.1961245 -0.1780604 0.105804004 0.0077417563 -0.005161171 0.18838273 -0.09806225
000030 1b 2d 37 a5 c8 fa 38 cc ad 25 05 eb b0 e3 b3 cc
       0.0696758 0.11612634 0.1419322 -0.23483327 -0.14451279 -0.015483513 0.14451279 -0.13419044 -0.21418859 0.095481664 0.012902927 -0.054192293 -0.20644683 -0.07483698 -0.19870508 -0.13419044
000040 a8 92 d6 e9 3c dc 01 fa 3a bf 59 2f 48 e4 39 20
       -0.22709152 -0.2838644 -0.10838459 -0.059353463 0.15483512 -0.09290107 0.0025805854 -0.015483513 0.14967395 -0.16773805 0.2296721 0.12128752 0.18580215 -0.072256394 0.14709337 0.08257873
000050 0b 13 a9 1b 42 48 19 4e e3 f4 50 3c fe 5f 5c 18
       0.02838644 0.049031124 -0.22451094 0.0696758 0.17031863 0.18580215 0.06451464 0.20128566 -0.07483698 -0.030967025 0.20644683 0.15483512 -0.005161171 0.24515562 0.23741385 0.06193405
000060 48 f2 e2 45 5a f4 11 d7 45 f1 e9 2d 35 13 29 33
       0.18580215 -0.036128197 -0.07741756 0.1780604 0.23225269 -0.030967025 0.043869954 -0.105804004 0.1780604 -0.03870878 -0.059353463 0.11612634 0.13677102 0.049031124 0.105804004 0.13160986
000070 21 0a d3 03 de 3f 0a d8 23 e8 74 d3 d2 da 4f df
       0.08515932 0.025805853 -0.11612634 0.0077417563 -0.08773991 0.16257688 0.025805853 -0.10322341 0.09032049 -0.06193405 0.2993479 -0.11612634 -0.11870693 -0.09806225 0.20386624 -0.08515932
000080 ee 2f 39 ee e8 ce f1 ce cc b6 25 53 57 ea bc cf
       -0.046450537 0.12128752 0.14709337 -0.046450537 -0.06193405 -0.12902927 -0.03870878 -0.12902927 -0.13419044 -0.19096333 0.095481664 0.21418859 0.22451094 -0.05677288 -0.17547981 -0.12644869
000090 21 f2 12 12 1b 3a 41 1b 8d 66 60 34 bb d8 bf da
       0.08515932 -0.036128197 0.046450537 0.046450537 0.0696758 0.14967395 0.16773805 0.0696758 -0.29676732 0.2632197 0.2477362 0.13419044 -0.1780604 -0.10322341 -0.16773805 -0.09806225
0000a0 1b a1 e6 b3 fd 59 17 c2 25 0f 5b 30 55 9a 4f 2f
       0.0696758 -0.24515562 -0.06709522 -0.19870508 -0.0077417563 0.2296721 0.059353463 -0.1599963 0.095481664 0.03870878 0.23483327 0.1238681 0.21934976 -0.2632197 0.20386624 0.12128752
0000b0 3c 6a c3 c8 21 b3 04 bc f7 05 4b 6c bc 6e d2 01
       0.15483512 0.27354205 -0.15741572 -0.14451279 0.08515932 -0.19870508 0.010322342 -0.17547981 -0.023225268 0.012902927 0.19354391 0.2787032 -0.17547981 0.2838644 -0.11870693 0.0025805854
0000c0 ca 03 d6 ca 08 cc 33 f5 dc 28 b0 ff d2 1f 60 e6
       -0.1393516 0.0077417563 -0.10838459 -0.1393516 0.020644683 -0.13419044 0.13160986 -0.02838644 -0.09290107 0.10322341 -0.20644683 -0.0025805854 -0.11870693 0.07999815 0.2477362 -0.06709522
0000d0 09 b4 0e 1d fd d4 34 47 0a 47 de ef d2 66 db 79
       0.023225268 -0.1961245 0.036128197 0.07483698 -0.0077417563 -0.11354576 0.13419044 0.18322156 0.025805853 0.18322156 -0.08773991 -0.043869954 -0.11870693 0.2632197 -0.095481664 0.31225082
0000e0 c7 5a fd 5f 29 8e c8 5c be 29 29 18 54 46 63 ef
       -0.14709337 0.23225269 -0.0077417563 0.24515562 0.105804004 -0.29418674 -0.14451279 0.23741385 -0.17031863 0.105804004 0.105804004 0.06193405 0.21676917 0.18064098 0.25547796 -0.043869954
0000f0 b2 41 2f fc 84 81 c9 48 29 d3 54 38 cc 28 eb 5e
       -0.20128566 0.16773805 0.12128752 -0.010322342 -0.3199926 -0.32773435 -0.1419322 0.18580215 0.105804004 -0.11612634 0.21676917 0.14451279 -0.13419044 0.10322341 -0.054192293 0.24257503

sequential_8/lstm_2/Read_2/ReadVariableOp1 i1 [512] scale=0.004225265 zero_point=-120
000000 94 94 8c 8a 8f 8a 8b 92 90 8b 8e 93 8b 8b 90 8d
       0.050703175 0.050703175 0.01690106 0.00845053 0.029576853 0.00845053 0.012675794 0.04225265 0.03380212 0.012675794 0.025351588 0.046477914 0.012675794 0.012675794 0.03380212 0.021126324
000010 8c 91 8d 8b 93 8d 92 8e 8a 8c 92 8b 8d 91 90 8c
       0.01690106 0.038027383 0.021126324 0.012675794 0.046477914 0.021126324 0.04225265 0.025351588 0.00845053 0.01690106 0.04225265 0.012675794 0.021126324 0.038027383 0.03380212 0.01690106
000020 8e 93 8e 8f 8f 92 8e 8e 8d 8e 8b 91 8b 8c 8f 8f
       0.025351588 0.046477914 0.025351588 0.029576853 0.029576853 0.04225265 0.025351588 0.025351588 0.021126324 0.025351588 0.012675794 0.038027383 0.012675794 0.01690106 0.029576853 0.029576853
000030 8b 8f 90 90 8d 91 8d 92 90 8d 8d 90 90 91 92 91
       0.012675794 0.029576853 0.03380212 0.03380212 0.021126324 0.038027383 0.021126324 0.04225265 0.03380212 0.021126324 0.021126324 0.03380212 0.03380212 0.038027383 0.04225265 0.038027383
000040 91 93 8b 8b 8b 89 8b 8d 8d 90 8f 8f 8d 8d 8b 92
       0.038027383 0.046477914 0.012675794 0.012675794 0.012675794 0.004225265 0.012675794 0.021126324 0.021126324 0.03380212 0.029576853 0.029576853 0.021126324 0.021126324 0.012675794 0.04225265
000050 8b 8b 8d 8f 8e 8c 8e 8a 8d 8d 8a 90 8d 8d 8f 92
       0.012675794 0.012675794 0.021126324 0.029576853 0.025351588 0.01690106 0.025351588 0.00845053 0.021126324 0.021126324 0.00845053 0.03380212 0.021126324 0.021126324 0.029576853 0.04225265
000060 8f 8d 95 8a 93 94 8a 8e 8b 8a 8d 91 8b 8d 8f 8a
       0.029576853 0.021126324 0.05492844 0.00845053 0.046477914 0.050703175 0.00845053 0.025351588 0.012675794 0.00845053 0.021126324 0.038027383 0.012675794 0.021126324 0.029576853 0.00845053
000070 8e 92 91 88 8f 8e 93 90 8b 8c 8c 8a 8d 8c 88 90
       0.025351588 0.04225265 0.038027383 0.0 0.029576853 0.025351588 0.046477914 0.03380212 0.012675794 0.01690106 0.01690106 0.00845053 0.021126324 0.01690106 0.0 0.03380212
000080 7b 7f 7b 77 7c 76 77 7f 7b 7a 78 7b 77 77 7a 75
       1.0267394 1.0436404 1.0267394 1.0098382 1.0309646 1.005613 1.0098382 1.0436404 1.0267394 1.0225141 1.0140636 1.0267394 1.0098382 1.0098382 1.0225141 1.0013877
000090 7a 7a 75 76 79 7a 7c 79 77 78 78 75 78 7a 7b 7a
       1.0225141 1.0225141 1.0013877 1.005613 1.0182889 1.0225141 1.0309646 1.0182889 1.0098382 1.0140636 1.0140636 1.0013877 1.0140636 1.0225141 1.0267394 1.0225141
0000a0 79 7a 7f 78 7b 7c 76 77 79 79 75 7b 7a 76 78 7b
       1.0182889 1.0225141 1.0436404 1.0140636 1.0267394 1.0309646 1.005613 1.0098382 1.0182889 1.0182889 1.0013877 1.0267394 1.0225141 1.005613 1.0140636 1.0267394
0000b0 77 78 79 7c 79 7b 77 7a 7b 78 75 78 76 7c 7c 79
       1.0098382 1.0140636 1.0182889 1.0309646 1.0182889 1.0267394 1.0098382 1.0225141 1.0267394 1.0140636 1.0013877 1.0140636 1.005613 1.0309646 1.0309646 1.0182889
0000c0 78 7a 77 77 76 77 76 79 78 7a 7a 7c 79 79 75 7b
       1.0140636 1.0225141 1.0098382 1.0098382 1.005613 1.0098382 1.005613 1.0182889 1.0140636 1.0225141 1.0225141 1.0309646 1.0182889 1.0182889 1.0013877 1.0267394
0000d0 77 77 78 77 78 79 7a 77 78 77 78 77 75 79 76 79
       1.0098382 1.0098382 1.0140636 1.0098382 1.0140636 1.0182889 1.0225141 1.0098382 1.0140636 1.0098382 1.0140636 1.0098382 1.0013877 1.0182889 1.005613 1.0182889
0000e0 79 77 76 77 7a 7c 74 78 76 77 77 7b 78 78 76 76
       1.0182889 1.0098382 1.005613 1.0098382 1.0225141 1.0309646 0.99716246 1.0140636 1.005613 1.0098382 1.0098382 1.0267394 1.0140636 1.0140636 1.005613 1.005613
0000f0 77 79 7a 75 79 78 76 7d 78 79 76 76 79 77 75 78
       1.0098382 1.0182889 1.0225141 1.0013877 1.0182889 1.0140636 1.005613 1.0351899 1.0140636 1.0182889 1.005613 1.005613 1.0182889 1.0098382 1.0013877 1.0140636

while/MatMul i1 [512, 15] scale=0.001446257 zero_point=0
000000 43 1f 4f 31 3e 29 25 46 0f f1 5d e8 5c 36 50 d8
       0.09689922 0.044833966 0.1142543 0.07086659 0.08966793 0.059296537 0.053511508 0.10123799 0.021693856 -0.021693856 0.1345019 -0.03471017 0.13305564 0.07809788 0.11570056 -0.05785028
000010 0d 49 28 e8 c7 eb e6 f5 09 0a df e9 65 f6 ef 4f
       0.01880134 0.10557676 0.05785028 -0.03471017 -0.08243665 -0.030371398 -0.03760268 -0.015908826 0.013016313 0.01446257 -0.047726482 -0.03326391 0.14607196 -0.01446257 -0.024586368 0.1142543
000020 d2 ff 25 3b 40 da ed 16 08 34 ff f5 43 0e d0 cf
       -0.06652782 -0.001446257 0.053511508 0.08532916 0.09256045 -0.054957766 -0.027478883 0.031817652 0.011570056 0.07520536 -0.001446257 -0.015908826 0.09689922 0.020247597 -0.06942034 -0.07086659
000030 d5 e4 41 3b 35 1b 08 02 bb bd 0c ce e5 dc df d5
       -0.06218905 -0.040495194 0.0940067 0.08532916 0.07665162 0.03904894 0.011570056 0.002892514 -0.099791735 -0.09689922 0.017355084 -0.07231285 -0.03904894 -0.052065253 -0.047726482 -0.06218905
000040 01 22 1a e3 2d 1a 04 3b cb 2d 2a 1f f0 47 02 cd
       0.001446257 0.049172737 0.03760268 -0.041941453 0.06508157 0.03760268 0.005785028 0.08532916 -0.07665162 0.06508157 0.060742795 0.044833966 -0.023140112 0.102684245 0.002892514 -0.07375911
000050 c2 1b d8 0f 43 f2 19 e1 03 cd e4 21 16 2d 32 ea
       -0.08966793 0.03904894 -0.05785028 0.021693856 0.09689922 -0.020247597 0.036156423 -0.044833966 0.004338771 -0.07375911 -0.040495194 0.047726482 0.031817652 0.06508157 0.07231285 -0.031817652
000060 c1 37 ea ef 0f d0 3f 3e d8 3f ea 18 f0 64 53 cf
       -0.09111419 0.079544134 -0.031817652 -0.024586368 0.021693856 -0.06942034 0.09111419 0.08966793 -0.05785028 0.09111419 -0.031817652 0.03471017 -0.023140112 0.1446257 0.12003933 -0.07086659
000070 2c 07 08 e9 fa e8 04 1c 40 e4 4d 21 15 ce d6 db
       0.063635305 0.010123799 0.011570056 -0.03326391 -0.008677542 -0.03471017 0.005785028 0.040495194 0.09256045 -0.040495194 0.11136179 0.047726482 0.030371398 -0.07231285 -0.060742795 -0.053511508
000080 46 00 d3 03 0c 0b 41 d2 1d e8 f6 e2 3c 45 13 09
       0.10123799 0.0 -0.06508157 0.004338771 0.017355084 0.015908826 0.0940067 -0.06652782 0.041941453 -0.03471017 -0.01446257 -0.04338771 0.08677542 0.099791735 0.027478883 0.013016313
000090 db 1e de 06 e4 4a f3 48 58 2c 15 48 0c 4c 14 f1
       -0.053511508 0.04338771 -0.049172737 0.008677542 -0.040495194 0.107023016 -0.01880134 0.10413051 0.12727061 0.063635305 0.030371398 0.10413051 0.017355084 0.10991553 0.02892514 -0.021693856
0000a0 d9 27 f1 e8 f5 7d fb 6a 6c 1a 0a 5c 65 2e 2d db
       -0.056404024 0.056404024 -0.021693856 -0.03471017 -0.015908826 0.18078212 -0.007231285 0.15330324 0.15619576 0.03760268 0.01446257 0.13305564 0.14607196 0.06652782 0.06508157 -0.053511508
0000b0 43 14 df 27 0b 2d 21 4e 4d 25 00 de 56 fc e3 f3
       0.09689922 0.02892514 -0.047726482 0.056404024 0.015908826 0.06508157 0.047726482 0.11280805 0.11136179 0.053511508 0.0 -0.049172737 0.1243781 -0.005785028 -0.041941453 -0.01880134
0000c0 24 be c8 3b 1b c9 db dd fc cb d4 35 fc 41 50 f6
       0.052065253 -0.095452964 -0.08099039 0.08532916 0.03904894 -0.079544134 -0.053511508 -0.050618995 -0.005785028 -0.07665162 -0.063635305 0.07665162 -0.005785028 0.0940067 0.11570056 -0.01446257
0000d0 cd 25 26 fd 34 46 09 e5 f2 2b e0 f0 18 44 fa 05
       -0.07375911 0.053511508 0.054957766 -0.004338771 0.07520536 0.10123799 0.013016313 -0.03904894 -0.020247597 0.06218905 -0.046280224 -0.023140112 0.03471017 0.09834547 -0.008677542 0.007231285
0000e0 e6 ea 1c ce 2c 47 42 11 cd f4 13 d2 2e 56 20 53
       -0.03760268 -0.031817652 0.040495194 -0.07231285 0.063635305 0.102684245 0.095452964 0.024586368 -0.07375911 -0.017355084 0.027478883 -0.06652782 0.06652782 0.1243781 0.046280224 0.12003933
0000f0 4a 0e 4e e7 f9 e5 1e 0a 0e 18 08 56 e9 f0 f8 f2
       0.107023016 0.020247597 0.11280805 -0.036156423 -0.010123799 -0.03904894 0.04338771 0.01446257 0.020247597 0.03471017 0.011570056 0.1243781 -0.03326391 -0.023140112 -0.011570056 -0.020247597

while/MatMul_11 i1 [512, 128] scale=0.0017351652 zero_point=0
000000 18 03 ee fc 33 15 17 e6 2a b8 05 05 ee f4 ec ee
       0.041643966 0.0052054957 -0.031232975 -0.006940661 0.08849343 0.03643847 0.0399088 -0.045114297 0.07287694 -0.1249319 0.008675827 0.008675827 -0.031232975 -0.020821983 -0.034703307 -0.031232975
000010 01 bf ea 18 04 fa d1 3c 0c 00 02 f4 cf c8 f4 de
       0.0017351652 -0.11278574 -0.038173635 0.041643966 0.006940661 -0.0104109915 -0.081552766 0.10410991 0.020821983 0.0 0.0034703305 -0.020821983 -0.0850231 -0.09716925 -0.020821983 -0.05899562
000020 15 14 e5 e7 02 15 cd d8 0e 01 3b de df 38 de 0e
       0.03643847 0.034703307 -0.046849463 -0.04337913 0.0034703305 0.03643847 -0.08849343 -0.06940661 0.024292313 0.0017351652 0.10237475 -0.05899562 -0.057260454 0.09716925 -0.05899562 0.024292313
000030 da 01 af d9 f0 dd 1d 0a 13 d1 e8 0a fa 11 d4 e6
       -0.06593628 0.0017351652 -0.14054838 -0.06767145 -0.027762644 -0.060730785 0.05031979 0.017351653 0.03296814 -0.081552766 -0.041643966 0.017351653 -0.0104109915 0.02949781 -0.07634727 -0.045114297
000040 cd 0d 06 d2 fa 1c d6 17 06 06 0b 06 f3 59 c1 2a
       -0.08849343 0.022557149 0.0104109915 -0.0798176 -0.0104109915 0.048584625 -0.07287694 0.0399088 0.0104109915 0.0104109915 0.019086817 0.0104109915 -0.022557149 0.1544297 -0.10931541 0.07287694
000050 2f f3 fd 04 12 f4 08 fd f2 e1 28 eb 9f ff cc f4
       0.081552766 -0.022557149 -0.0052054957 0.006940661 0.031232975 -0.020821983 0.013881322 -0.0052054957 -0.024292313 -0.053790122 0.06940661 -0.03643847 -0.16831103 -0.0017351652 -0.090228595 -0.020821983
000060 02 ca c4 04 f8 1e 22 f8 dc cf e4 ff fb 2a 0e 24
       0.0034703305 -0.093698926 -0.10410991 0.006940661 -0.013881322 0.052054957 0.05899562 -0.013881322 -0.06246595 -0.0850231 -0.048584625 -0.0017351652 -0.008675827 0.07287694 0.024292313 0.06246595
000070 0c 0f 27 f6 14 f8 d0 ea cf 14 e7 18 39 e7 24 dd
       0.020821983 0.026027478 0.06767145 -0.017351653 0.034703307 -0.013881322 -0.08328793 -0.038173635 -0.0850231 0.034703307 -0.04337913 0.041643966 0.098904416 -0.04337913 0.06246595 -0.060730785
000080 10 05 f8 cd 27 0b e6 a7 11 c2 31 f5 d3 fc 8f f9
       0.027762644 0.008675827 -0.013881322 -0.08849343 0.06767145 0.019086817 -0.045114297 -0.1544297 0.02949781 -0.107580245 0.0850231 -0.019086817 -0.078082435 -0.006940661 -0.19607367 -0.012146156
000090 08 c8 e0 fe ff ed c4 fb 1b 2d 1b de e3 e6 00 d0
       0.013881322 -0.09716925 -0.055525288 -0.0034703305 -0.0017351652 -0.03296814 -0.10410991 -0.008675827 0.046849463 0.078082435 0.046849463 -0.05899562 -0.05031979 -0.045114297 0.0 -0.08328793
0000a0 24 f3 bf fa 3b e0 f8 b2 97 0e 14 09 f1 f1 e0 05
       0.06246595 -0.022557149 -0.11278574 -0.0104109915 0.10237475 -0.055525288 -0.013881322 -0.1353429 -0.18219236 0.024292313 0.034703307 0.015616488 -0.026027478 -0.026027478 -0.055525288 0.008675827
0000b0 da 18 1a 30 f6 cd 12 f2 cc d7 f0 04 05 e5 d6 e8
       -0.06593628 0.041643966 0.045114297 0.08328793 -0.017351653 -0.08849343 0.031232975 -0.024292313 -0.090228595 -0.07114177 -0.027762644 0.006940661 0.008675827 -0.046849463 -0.07287694 -0.041643966
0000c0 cc 26 e4 f1 2d ff ca fb d5 17 b9 05 08 f7 cc 22
       -0.090228595 0.06593628 -0.048584625 -0.026027478 0.078082435 -0.0017351652 -0.093698926 -0.008675827 -0.0746121 0.0399088 -0.123196736 0.008675827 0.013881322 -0.015616488 -0.090228595 0.05899562
0000d0 03 e6 19 c3 3b 55 24 ee f9 0e 26 f1 0f f1 e4 ed
       0.0052054957 -0.045114297 0.04337913 -0.10584508 0.10237475 0.14748904 0.06246595 -0.031232975 -0.012146156 0.024292313 0.06593628 -0.026027478 0.026027478 -0.026027478 -0.048584625 -0.03296814
0000e0 da 14 1b ed 07 fb f9 14 1e dd 0d e6 30 60 1f 0d
       -0.06593628 0.034703307 0.046849463 -0.03296814 0.012146156 -0.008675827 -0.012146156 0.034703307 0.052054957 -0.060730785 0.022557149 -0.045114297 0.08328793 0.16657586 0.053790122 0.022557149
0000f0 26 21 07 d6 0a f5 f6 2c f7 fe f2 50 1f c9 3a fb
       0.06593628 0.057260454 0.012146156 -0.07287694 0.017351653 -0.019086817 -0.017351653 0.07634727 -0.015616488 -0.0034703305 -0.024292313 0.13881323 0.053790122 -0.09543409 0.10063958 -0.008675827
