evaluation-code/output/models/tflite/LSTM_32units_framesize_5_20230624-144351.tflite (tflite, 19216 bytes, 4 tensors)

sequential_6/dense_6/MatMul i1 [10, 32] scale=0.0043391734 zero_point=0
00000000: 52c3 1de5 cfc2 b455 ecb7 145f b63b ff5c
00000010: d6d0 c1d5 2516 2638 ad25 2306 cb28 cfef
00000020: c623 73cc 7545 5400 a04a c0fc fde5 6ec6
00000030: d151 0cef 559b cff5 0c5f 5a74 251a 54f2
00000040: f3ef f512 fa2a c049 05b0 11ef fa44 ce56
00000050: eab1 d82d c1b0 9c36 f8d7 1eda 0b0b a752
00000060: 692e e7e5 37c1 f22a 0936 e3ce acd9 d910
00000070: 18fb 4109 9f4e 0ecd baf8 1e2f bef6 e0d5
00000080: cd27 a5d0 2919 cf09 2446 dae2 1aa7 bde4
00000090: d0f5 21cd e1da d428 1e54 36cb 31c8 1db4
000000a0: c1df c237 20bc f910 33ec 2111 c01c 0edb
000000b0: 24cf 04bd ae1d 56d6 d0c0 221b 49bb e2fa
000000c0: 48c5 e009 b9e8 c11d 4456 043d fe44 cee0
000000d0: dfff 4604 af29 b39e 3300 dac2 0b45 f73a
000000e0: e8f9 2830 ad44 52d6 ea29 43cd 44da c013
000000f0: c3bb 02e4 35cf ae5a 2667 2c5a f8b8 b837
0.35581222 -0.26468956 0.12583603 -0.11715768 -0.2126195 -0.26902875 -0.32977718 0.36882973
-0.08678347 -0.31675965 0.08678347 0.4122215 -0.32109883 0.25601125 -0.0043391734 0.39920396
-0.18224528 -0.20828032 -0.27336794 -0.18658446 0.16054942 0.095461816 0.16488859 0.24299371
-0.3601514 0.16054942 0.15187107 0.02603504 -0.22997619 0.17356694 -0.2126195 -0.07376595
-0.25167206 0.15187107 0.49900496 -0.22563702 0.5076833 0.29940295 0.36449057 0.0
-0.41656065 0.32109883 -0.2777071 -0.017356694 -0.01301752 -0.11715768 0.47730908 -0.25167206
-0.20394115 0.35147303 0.05207008 -0.07376595 0.36882973 -0.4382565 -0.2126195 -0.047730908
0.05207008 0.4122215 0.3905256 0.5033441 0.16054942 0.11281851 0.36449057 -0.060748428
-0.056409255 -0.07376595 -0.047730908 0.07810512 -0.02603504 0.18224528 -0.2777071 0.31675965
0.021695867 -0.34713387 0.07376595 -0.07376595 -0.02603504 0.2950638 -0.21695867 0.37316892
-0.095461816 -0.34279472 -0.17356694 0.1952628 -0.27336794 -0.34713387 -0.43391734 0.23431537
-0.034713387 -0.17790611 0.1301752 -0.16488859 0.047730908 0.047730908 -0.38618642 0.35581222
0.4556132 0.19960198 -0.108479336 -0.11715768 0.23865454 -0.27336794 -0.060748428 0.18224528
0.03905256 0.23431537 -0.12583603 -0.21695867 -0.36449057 -0.16922776 -0.16922776 0.069426775
0.10414016 -0.021695867 0.28204626 0.03905256 -0.4208998 0.33845553 0.060748428 -0.22129785
-0.30374214 -0.034713387 0.1301752 0.20394115 -0.28638545 -0.043391734 -0.13885355 -0.18658446
-0.22129785 0.16922776 -0.3948648 -0.20828032 0.17790611 0.108479336 -0.2126195 0.03905256
0.15621024 0.30374214 -0.16488859 -0.1301752 0.11281851 -0.38618642 -0.29072464 -0.121496856
-0.20828032 -0.047730908 0.14319272 -0.22129785 -0.13451438 -0.16488859 -0.19092363 0.17356694
0.1301752 0.36449057 0.23431537 -0.22997619 0.2126195 -0.24299371 0.12583603 -0.32977718
-0.27336794 -0.14319272 -0.26902875 0.23865454 0.13885355 -0.2950638 -0.030374214 0.069426775
0.22129785 -0.08678347 0.14319272 0.07376595 -0.2777071 0.121496856 0.060748428 -0.16054942
0.15621024 -0.2126195 0.017356694 -0.29072464 -0.35581222 0.12583603 0.37316892 -0.18224528
-0.20828032 -0.2777071 0.1475319 0.11715768 0.31675965 -0.29940295 -0.1301752 -0.02603504
0.3124205 -0.25601125 -0.13885355 0.03905256 -0.30808133 -0.10414016 -0.27336794 0.12583603
0.2950638 0.37316892 0.017356694 0.26468956 -0.008678347 0.2950638 -0.21695867 -0.13885355
-0.14319272 -0.0043391734 0.30374214 0.017356694 -0.35147303 0.17790611 -0.33411634 -0.425239
0.22129785 0.0 -0.16488859 -0.26902875 0.047730908 0.29940295 -0.03905256 0.25167206
-0.10414016 -0.030374214 0.17356694 0.20828032 -0.3601514 0.2950638 0.35581222 -0.18224528
-0.095461816 0.17790611 0.29072464 -0.22129785 0.2950638 -0.16488859 -0.2777071 0.082444295
-0.26468956 -0.29940295 0.008678347 -0.121496856 0.22997619 -0.2126195 -0.35581222 0.3905256
0.16488859 0.44693488 0.19092363 0.3905256 -0.034713387 -0.3124205 -0.3124205 0.23865454

sequential_6/lstm/Read_2/ReadVariableOp1 i1 [128] scale=0.0045199865 zero_point=-117
00000000: 9288 9393 9193 9195 8f99 9094 8c99 8f91
00000010: 9188 8d97 9290 918e 9695 a496 8a8b a18a
00000020: 6e64 7070 6b6c 6e6b 6a76 686e 696c 656d
00000030: 6f69 6b69 6c6e 6d6b 7673 7a73 686b 7f68
00000040: 8f8c 888b 9084 8a8a 878f 8c81 8282 8985
00000050: 8a91 8a86 8188 9088 858e 8b80 858f 8e85
00000060: 9388 9493 9793 9394 8d98 9091 8d99 9295
00000070: 978c 8f94 9696 918e 9796 a598 888e a18b
0.031639904 -0.01355996 0.03615989 0.03615989 0.02711992 0.03615989 0.02711992 0.045199864
0.018079946 0.06327981 0.022599932 0.04067988 0.0045199865 0.06327981 0.018079946 0.02711992
0.02711992 -0.01355996 0.009039973 0.05423984 0.031639904 0.022599932 0.02711992 0.01355996
0.04971985 0.045199864 0.11299966 0.04971985 -0.0045199865 0.0 0.0994397 -0.0045199865
1.026037 0.98083705 1.0350769 1.0350769 1.0124769 1.016997 1.026037 1.0124769
1.007957 1.0621969 0.998917 1.026037 1.003437 1.016997 0.98535705 1.0215169
1.0305569 1.003437 1.0124769 1.003437 1.016997 1.026037 1.0215169 1.0124769
1.0621969 1.0486369 1.0802767 1.0486369 0.998917 1.0124769 1.1028767 0.998917
0.018079946 0.0045199865 -0.01355996 0.0 0.022599932 -0.031639904 -0.0045199865 -0.0045199865
-0.018079946 0.018079946 0.0045199865 -0.045199864 -0.04067988 -0.04067988 -0.009039973 -0.02711992
-0.0045199865 0.02711992 -0.0045199865 -0.022599932 -0.045199864 -0.01355996 0.022599932 -0.01355996
-0.02711992 0.01355996 0.0 -0.04971985 -0.02711992 0.018079946 0.01355996 -0.02711992
0.03615989 -0.01355996 0.04067988 0.03615989 0.05423984 0.03615989 0.03615989 0.04067988
0.009039973 0.058759823 0.022599932 0.02711992 0.009039973 0.06327981 0.031639904 0.045199864
0.05423984 0.0045199865 0.018079946 0.04067988 0.04971985 0.04971985 0.02711992 0.01355996
0.05423984 0.04971985 0.11751965 0.058759823 -0.01355996 0.01355996 0.0994397 0.0

while/MatMul i1 [128, 15] scale=0.002384404 zero_point=0
00000000: 4112 0513 e8c5 f958 fec1 0df6 b107 2ee6
00000010: e9e1 e12b 15b4 da15 0af6 4ec4 e9fb b6bf
00000020: dff0 41cc f6b5 2943 3534 c14b fd32 c9f5
00000030: e7cb 51e0 5be1 0620 aaf1 f1d8 ff01 a9ec
00000040: ce3a d9cc ba1e cfed f503 b820 e702 1502
00000050: 0536 06ee 4eff 2ec4 df4f 1210 145e 4ed6
00000060: 21c2 52d3 cf4e f8e3 0b1f d607 cab9 f2ed
00000070: bcfd 5a95 4d33 36fd d5bb 1f34 16f0 def4
00000080: 4ad3 33c4 be06 0d54 4f1e 3acd ca1a 50ee
00000090: f0d0 c434 0e19 fb3f 595f e141 0fed c41b
000000a0: 340d 153f 412d eab3 42b3 ce51 be09 3fc4
000000b0: f002 36c1 b910 c02c aacc a6d6 c741 47c0
000000c0: d3d8 1ee4 e4d3 fd2c d040 7221 6527 cbd6
000000d0: 2e3f 3bf1 f01b bef4 3ce6 cbcb 53e1 264b
000000e0: 4d45 e919 51c1 ec02 1e20 3f2c 32b9 fe22
000000f0: f6c9 0f0e 2c0e 5a1f 25c6 cc54 3b03 4ebd
0.15498626 0.04291927 0.0119220195 0.045303676 -0.057225697 -0.14067984 -0.016690828 0.20982754
-0.004768808 -0.15021744 0.030997252 -0.023844039 -0.18836792 0.016690828 0.10968258 -0.061994504
-0.05484129 -0.073916525 -0.073916525 0.10252937 0.050072484 -0.1812147 -0.09060735 0.050072484
0.023844039 -0.023844039 0.18598351 -0.14306423 -0.05484129 -0.0119220195 -0.17644589 -0.15498626
-0.07868533 -0.038150463 0.15498626 -0.12398901 -0.023844039 -0.1788303 0.097760566 0.15975507
0.12637341 0.12398901 -0.15021744 0.1788303 -0.007153212 0.1192202 -0.13114221 -0.026228443
-0.0596101 -0.12637341 0.19313672 -0.07630093 0.21698076 -0.073916525 0.014306424 0.07630093
-0.20505874 -0.035766058 -0.035766058 -0.095376156 -0.002384404 0.002384404 -0.20744315 -0.047688078
-0.1192202 0.13829543 -0.092991754 -0.12398901 -0.16690828 0.071532115 -0.116835795 -0.045303676
-0.026228443 0.007153212 -0.17167708 0.07630093 -0.0596101 0.004768808 0.050072484 0.004768808
0.0119220195 0.12875782 0.014306424 -0.04291927 0.18598351 -0.002384404 0.10968258 -0.14306423
-0.07868533 0.18836792 0.04291927 0.038150463 0.047688078 0.22413397 0.18598351 -0.10014497
0.07868533 -0.14783305 0.19552113 -0.10729818 -0.116835795 0.18598351 -0.019075232 -0.06914771
0.026228443 0.073916525 -0.10014497 0.016690828 -0.12875782 -0.16929267 -0.033381656 -0.045303676
-0.16213948 -0.007153212 0.21459636 -0.2551312 0.1835991 0.1216046 0.12875782 -0.007153212
-0.10252937 -0.16452387 0.073916525 0.12398901 0.052456886 -0.038150463 -0.08106974 -0.028612848
0.17644589 -0.10729818 0.1216046 -0.14306423 -0.15737066 0.014306424 0.030997252 0.20028993
0.18836792 0.071532115 0.13829543 -0.1216046 -0.12875782 0.061994504 0.19075231 -0.04291927
-0.038150463 -0.11445139 -0.14306423 0.12398901 0.033381656 0.0596101 -0.0119220195 0.15021744
0.21221195 0.22651838 -0.073916525 0.15498626 0.035766058 -0.045303676 -0.14306423 0.06437891
0.12398901 0.030997252 0.050072484 0.15021744 0.15498626 0.10729818 -0.052456886 -0.1835991
0.15737066 -0.1835991 -0.1192202 0.19313672 -0.15737066 0.021459635 0.15021744 -0.14306423
-0.038150463 0.004768808 0.12875782 -0.15021744 -0.16929267 0.038150463 -0.15260185 0.10491377
-0.20505874 -0.12398901 -0.21459636 -0.10014497 -0.13591103 0.15498626 0.16929267 -0.15260185
-0.10729818 -0.095376156 0.071532115 -0.06676331 -0.06676331 -0.10729818 -0.007153212 0.10491377
-0.11445139 0.15260185 0.27182207 0.07868533 0.2408248 0.092991754 -0.12637341 -0.10014497
0.10968258 0.15021744 0.14067984 -0.035766058 -0.038150463 0.06437891 -0.15737066 -0.028612848
0.14306423 -0.061994504 -0.12637341 -0.12637341 0.19790553 -0.073916525 0.09060735 0.1788303
0.1835991 0.16452387 -0.05484129 0.0596101 0.19313672 -0.15021744 -0.047688078 0.004768808
0.071532115 0.07630093 0.15021744 0.10491377 0.1192202 -0.16929267 -0.004768808 0.08106974
-0.023844039 -0.13114221 0.035766058 0.033381656 0.10491377 0.033381656 0.21459636 0.073916525
0.08822294 -0.13829543 -0.12398901 0.20028993 0.14067984 0.007153212 0.18598351 -0.15975507

while/MatMul_11 i1 [128, 32] scale=0.0028578758 zero_point=0
00000000: 0af4 02ef ff48 2ff2 0efa 11ed e0d3 fdd8
00000010: 3b1e 410c 1f2e 10f1 1239 f620 b715 08ea
00000020: d7dc d0fd d010 e114 0fdc f41e f6e1 23f3
00000030: 063c 1504 0cf6 38e6 24df bbda ec2e edf6
00000040: e400 05f8 e9fa fef8 fe0b 10ee f7c0 2925
00000050: 23f6 dd04 0e00 cffe 1401 0200 0b12 e0f6
00000060: 0217 e907 fcfa 0223 e936 24fd 14d1 fa14
00000070: ff03 27ea 1718 e525 1c0a 03b3 e60d 613b
00000080: bff1 17c0 313e 24f9 0a16 bbce bdcb 220d
00000090: 1401 f506 dca8 fe43 f4ee 1226 bcf7 23f8
000000a0: a310 0ef1 24d7 19ef de21 ec0c 0017 37c2
000000b0: 330c e3ce 1de4 4d0d 1b1a 0102 0efb 36ce
000000c0: f3dc 0cf3 3710 00fd db1a effc 14cf 3014
000000d0: c89b d106 24bd ddfe 05fd 2210 00c3 1115
000000e0: f002 fee9 d8f9 d23c 220d eef0 e54a 213b
000000f0: e1f3 2253 f50f f51c 1410 0ee2 1729 f4c3
0.028578758 -0.03429451 0.0057157516 -0.048583888 -0.0028578758 0.20576705 0.13432015 -0.040010262
0.040010262 -0.017147254 0.048583888 -0.05429964 -0.091452025 -0.12860441 -0.008573627 -0.11431503
0.16861467 0.085736275 0.18576193 0.03429451 0.088594146 0.13146229 0.045726012 -0.042868137
0.051441763 0.16289891 -0.028578758 0.091452025 -0.20862493 0.06001539 0.022863006 -0.06287327
-0.117172904 -0.102883525 -0.13717803 -0.008573627 -0.13717803 0.045726012 -0.088594146 0.057157516
0.042868137 -0.102883525 -0.03429451 0.085736275 -0.028578758 -0.088594146 0.100025654 -0.037152383
0.017147254 0.17147255 0.06001539 0.011431503 0.03429451 -0.028578758 0.16004105 -0.07430477
0.102883525 -0.0943099 -0.19719343 -0.10859928 -0.057157516 0.13146229 -0.05429964 -0.028578758
-0.080020525 0.0 0.014289379 -0.022863006 -0.065731145 -0.017147254 -0.0057157516 -0.022863006
-0.0057157516 0.031436633 0.045726012 -0.051441763 -0.025720881 -0.18290405 0.117172904 0.105741404
0.100025654 -0.028578758 -0.100025654 0.011431503 0.040010262 0.0 -0.14003591 -0.0057157516
0.057157516 0.0028578758 0.0057157516 0.0 0.031436633 0.051441763 -0.091452025 -0.028578758
0.0057157516 0.065731145 -0.065731145 0.020005131 -0.011431503 -0.017147254 0.0057157516 0.100025654
-0.065731145 0.15432529 0.102883525 -0.008573627 0.057157516 -0.13432015 -0.017147254 0.057157516
-0.0028578758 0.008573627 0.111457154 -0.06287327 0.065731145 0.06858902 -0.077162646 0.105741404
0.080020525 0.028578758 0.008573627 -0.22005643 -0.07430477 0.037152383 0.27721396 0.16861467
-0.18576193 -0.042868137 0.065731145 -0.18290405 0.14003591 0.17718829 0.102883525 -0.020005131
0.028578758 0.06287327 -0.19719343 -0.14289379 -0.19147767 -0.15146741 0.097167775 0.037152383
0.057157516 0.0028578758 -0.031436633 0.017147254 -0.102883525 -0.25149307 -0.0057157516 0.19147767
-0.03429451 -0.051441763 0.051441763 0.10859928 -0.19433555 -0.025720881 0.100025654 -0.022863006
-0.26578245 0.045726012 0.040010262 -0.042868137 0.102883525 -0.117172904 0.071446896 -0.048583888
-0.097167775 0.0943099 -0.057157516 0.03429451 0.0 0.065731145 0.15718317 -0.17718829
0.14575167 0.03429451 -0.082878396 -0.14289379 0.082878396 -0.080020525 0.22005643 0.037152383
0.077162646 0.07430477 0.0028578758 0.0057157516 0.040010262 -0.014289379 0.15432529 -0.14289379
-0.037152383 -0.102883525 0.03429451 -0.037152383 0.15718317 0.045726012 0.0 -0.008573627
-0.105741404 0.07430477 -0.048583888 -0.011431503 0.057157516 -0.14003591 0.13717803 0.057157516
-0.16004105 -0.28864545 -0.13432015 0.017147254 0.102883525 -0.19147767 -0.100025654 -0.0057157516
0.014289379 -0.008573627 0.097167775 0.045726012 0.0 -0.17433043 0.048583888 0.06001539
-0.045726012 0.0057157516 -0.0057157516 -0.065731145 -0.11431503 -0.020005131 -0.13146229 0.17147255
0.097167775 0.037152383 -0.051441763 -0.045726012 -0.077162646 0.21148281 0.0943099 0.16861467
-0.088594146 -0.037152383 0.097167775 0.23720369 -0.031436633 0.042868137 -0.031436633 0.080020525
0.057157516 0.045726012 0.040010262 -0.085736275 0.065731145 0.117172904 -0.03429451 -0.17433043
