evaluation-code/output/models/tflite/RNN_64_units_framesize_5_20230624-122721.tflite (tflite, 17656 bytes, 3 tensors)

sequential_1/dense_1/MatMul i1 [10, 64] scale=0.0033769184 zero_point=0
000000 6c 19 d1 bd 01 a6 32 ed aa ea 60 c4 ed b3 d8 45
       0.36470717 0.08442296 -0.15871516 -0.22625352 0.0033769184 -0.30392265 0.16884592 -0.06416145 -0.290415 -0.074292205 0.32418418 -0.2026151 -0.06416145 -0.26002273 -0.13507673 0.23300737
000010 c1 05 e5 09 1e 59 28 4b cf d0 23 5c fa 32 31 ed
       -0.21274586 0.016884591 -0.09117679 0.030392265 0.10130755 0.30054572 0.13507673 0.25326887 -0.165469 -0.16209209 0.118192144 0.3106765 -0.020261511 0.16884592 0.165469 -0.06416145
000020 24 ff 39 f4 33 5e e1 ee 0f 25 cf c9 1b 10 f6 ca
       0.12156906 -0.0033769184 0.19248435 -0.040523022 0.17222284 0.31743032 -0.10468447 -0.06078453 0.050653774 0.12494598 -0.165469 -0.18573052 0.09117679 0.054030694 -0.033769183 -0.18235359
000030 f4 a1 f3 a4 cb 05 0c 05 06 40 33 38 16 b8 15 b9
       -0.040523022 -0.32080725 -0.04389994 -0.3106765 -0.17897667 0.016884591 0.040523022 0.016884591 0.020261511 0.21612278 0.17222284 0.18910743 0.074292205 -0.24313812 0.07091529 -0.2397612
000040 d2 97 9b 63 c9 f4 8c 54 fd e1 fe d3 02 de f0 29
       -0.15533824 -0.35457644 -0.34106874 0.3343149 -0.18573052 -0.040523022 -0.39172253 0.28366116 -0.010130756 -0.10468447 -0.0067538368 -0.15196133 0.0067538368 -0.11481523 -0.054030694 0.13845365
000050 71 05 0a da e0 aa b0 ad ba 06 ee 20 50 13 23 bf
       0.38159177 0.016884591 0.033769183 -0.1283229 -0.10806139 -0.290415 -0.27015346 -0.28028423 -0.23638429 0.020261511 -0.06078453 0.10806139 0.27015346 0.06416145 0.118192144 -0.21949969
000060 ce c7 c0 b3 52 a3 d2 06 f5 81 32 59 ef 65 8f c8
       -0.16884592 -0.19248435 -0.21612278 -0.26002273 0.2769073 -0.31405342 -0.15533824 0.020261511 -0.037146103 -0.42886862 0.16884592 0.30054572 -0.057407614 0.34106874 -0.38159177 -0.18910743
000070 c3 1c b9 55 1e cd 21 60 fa ef 2f c0 4d e1 e6 45
       -0.20599203 0.09455372 -0.2397612 0.28703806 0.10130755 -0.17222284 0.111438304 0.32418418 -0.020261511 -0.057407614 0.15871516 -0.21612278 0.26002273 -0.10468447 -0.08779988 0.23300737
000080 3b a2 14 10 f9 ed 44 ff e4 26 fd c6 1b 8e ee f3
       0.19923818 -0.31743032 0.067538366 0.054030694 -0.02363843 -0.06416145 0.22963046 -0.0033769184 -0.09455372 0.1283229 -0.010130756 -0.19586127 0.09117679 -0.3849687 -0.06078453 -0.04389994
000090 d6 26 28 06 2f 38 12 fa 55 00 f6 64 c5 0d 62 ba
       -0.14183058 0.1283229 0.13507673 0.020261511 0.15871516 0.18910743 0.06078453 -0.020261511 0.28703806 0.0 -0.033769183 0.33769184 -0.19923818 0.04389994 0.330938 -0.23638429
0000a0 a7 ed 37 d6 00 f0 bd e3 b7 1c c8 bb e2 c5 57 aa
       -0.30054572 -0.06416145 0.18573052 -0.14183058 0.0 -0.054030694 -0.22625352 -0.09793063 -0.24651504 0.09455372 -0.18910743 -0.23300737 -0.10130755 -0.19923818 0.2937919 -0.290415
0000b0 15 2d 57 cd 13 2f 17 94 eb 3f 4e 5c c9 06 27 e4
       0.07091529 0.15196133 0.2937919 -0.17222284 0.06416145 0.15871516 0.07766912 -0.36470717 -0.07091529 0.21274586 0.26339963 0.3106765 -0.18573052 0.020261511 0.13169982 -0.09455372
0000c0 27 d7 0c b9 b8 b1 0c 0b 19 8e da 67 25 53 d0 02
       0.13169982 -0.13845365 0.040523022 -0.2397612 -0.24313812 -0.26677656 0.040523022 0.037146103 0.08442296 -0.3849687 -0.1283229 0.3478226 0.12494598 0.28028423 -0.16209209 0.0067538368
0000d0 b1 e0 a5 77 ff 0c 05 b6 2c 64 d0 e1 45 e5 22 cf
       -0.26677656 -0.10806139 -0.30729958 0.4018533 -0.0033769184 0.040523022 0.016884591 -0.24989197 0.14858441 0.33769184 -0.16209209 -0.10468447 0.23300737 -0.09117679 0.11481523 -0.165469
0000e0 03 3d 02 19 d6 c8 07 20 16 3d f5 18 df fa 37 0b
       0.010130756 0.20599203 0.0067538368 0.08442296 -0.14183058 -0.18910743 0.02363843 0.10806139 0.074292205 0.20599203 -0.037146103 0.081046045 -0.111438304 -0.020261511 0.18573052 0.037146103
0000f0 4d 54 5a 04 ae f2 dc b2 e2 ee 51 51 0a 0d ee b6
       0.26002273 0.28366116 0.30392265 0.0135076735 -0.2769073 -0.04727686 -0.12156906 -0.26339963 -0.10130755 -0.06078453 0.2735304 0.2735304 0.033769183 0.04389994 -0.06078453 -0.24989197

sequential_1/simple_rnn_1/while/simple_rnn_cell_1/MatMul i1 [64, 15] scale=0.0023716774 zero_point=0
000000 b4 f2 8e cc d3 2e a6 61 40 cd 8f 6a f6 24 54 fa
       -0.18024749 -0.033203483 -0.27037123 -0.123327225 -0.106725484 0.10909716 -0.21345097 0.23005271 0.15178736 -0.12095555 -0.26799956 0.25139782 -0.023716774 0.08538039 0.19922091 -0.014230065
000010 53 38 1d ee 5e 22 8b fa 38 4c 1f af 5c 0b 65 28
       0.19684923 0.13281393 0.06877865 -0.042690195 0.22293767 0.08063703 -0.27748626 -0.014230065 0.13281393 0.18024749 0.073522 -0.19210587 0.21819432 0.026088452 0.23953941 0.094867095
000020 d3 62 5b e8 85 0d e7 66 6a 1a dd 84 61 ef c4 28
       -0.106725484 0.2324244 0.21582265 -0.05692026 -0.29171634 0.030831806 -0.059291936 0.2419111 0.25139782 0.061663613 -0.08300871 -0.294088 0.23005271 -0.040318515 -0.14230065 0.094867095
000030 ea db c9 43 61 23 33 c9 13 96 70 9f ba 36 f7 f9
       -0.052176904 -0.08775207 -0.13044226 0.15890239 0.23005271 0.08300871 0.12095555 -0.13044226 0.04506187 -0.25139782 0.26562786 -0.23005271 -0.16601741 0.12807058 -0.021345098 -0.016601741
000040 43 f9 18 53 94 5c c8 c8 4a 84 d4 db aa 51 6d b1
       0.15890239 -0.016601741 0.05692026 0.19684923 -0.25614116 0.21819432 -0.13281393 -0.13281393 0.17550413 -0.294088 -0.10435381 -0.08775207 -0.20396426 0.19210587 0.25851285 -0.18736252
000050 d7 fb 4e 11 fd 21 bc fa df f0 a4 cf 3f 99 48 d6
       -0.09723877 -0.011858387 0.18499084 0.040318515 -0.0071150325 0.078265354 -0.16127406 -0.014230065 -0.078265354 -0.03794684 -0.21819432 -0.1162122 0.14941567 -0.24428278 0.17076078 -0.099610455
000060 ff be 52 f7 a9 f2 58 de d6 19 0c fc 39 fb d5 9f
       -0.0023716774 -0.15653071 0.19447754 -0.021345098 -0.20633593 -0.033203483 0.20870762 -0.08063703 -0.099610455 0.059291936 0.02846013 -0.00948671 0.13518561 -0.011858387 -0.10198213 -0.23005271
000070 c2 bf 53 cb aa ef f2 16 01 5a f8 68 31 b6 0f 6f
       -0.147044 -0.15415904 0.19684923 -0.12569891 -0.20396426 -0.040318515 -0.033203483 0.052176904 0.0023716774 0.21345097 -0.01897342 0.24665445 0.1162122 -0.17550413 0.035575163 0.2632562
000080 de 1e 02 d6 c2 cd 4f df 97 6c 28 28 0f e0 b9 ab
       -0.08063703 0.071150325 0.004743355 -0.099610455 -0.147044 -0.12095555 0.18736252 -0.078265354 -0.24902613 0.25614116 0.094867095 0.094867095 0.035575163 -0.07589368 -0.1683891 -0.20159258
000090 18 fc 1f f6 d7 32 cd 32 17 a7 6b 6e 4f a7 91 38
       0.05692026 -0.00948671 0.073522 -0.023716774 -0.09723877 0.11858387 -0.12095555 0.11858387 0.05454858 -0.21107928 0.2537695 0.26088452 0.18736252 -0.21107928 -0.2632562 0.13281393
0000a0 05 1f e4 42 a9 e0 f9 d3 56 49 06 ee 5f c2 d9 f4
       0.011858387 0.073522 -0.066406965 0.15653071 -0.20633593 -0.07589368 -0.016601741 -0.106725484 0.20396426 0.17313245 0.014230065 -0.042690195 0.22530936 -0.147044 -0.09249542 -0.02846013
0000b0 4c 9a 69 a8 07 59 5d 3f 3d f7 eb e4 40 28 86 65
       0.18024749 -0.2419111 0.24902613 -0.20870762 0.016601741 0.21107928 0.220566 0.14941567 0.14467232 -0.021345098 -0.049805228 -0.066406965 0.15178736 0.094867095 -0.28934464 0.23953941
0000c0 a3 31 c7 4f 9f 68 e6 00 fa c6 67 fe a6 61 f7 65
       -0.220566 0.1162122 -0.13518561 0.18736252 -0.23005271 0.24665445 -0.061663613 0.0 -0.014230065 -0.1375573 0.24428278 -0.004743355 -0.21345097 0.23005271 -0.021345098 0.23953941
0000d0 f5 5a 48 55 49 a1 b4 77 ae a5 24 32 18 b4 d3 a3
       -0.026088452 0.21345097 0.17076078 0.20159258 0.17313245 -0.22530936 -0.18024749 0.2822296 -0.19447754 -0.21582265 0.08538039 0.11858387 0.05692026 -0.18024749 -0.106725484 -0.220566
0000e0 9e c7 70 ef ad 1b 22 0d f0 d9 17 f9 ae 53 ea 1b
       -0.2324244 -0.13518561 0.26562786 -0.040318515 -0.19684923 0.06403529 0.08063703 0.030831806 -0.03794684 -0.09249542 0.05454858 -0.016601741 -0.19447754 0.19684923 -0.052176904 0.06403529
0000f0 32 97 6f 9f fa fa 3c 97 78 1d ce fb 29 96 f7 ce
       0.11858387 -0.24902613 0.2632562 -0.23005271 -0.014230065 -0.014230065 0.14230065 -0.24902613 0.2846013 0.06877865 -0.11858387 -0.011858387 0.09723877 -0.25139782 -0.021345098 -0.11858387

sequential_1/simple_rnn_1/while/simple_rnn_cell_1/MatMul_11 i1 [64, 64] scale=0.003554866 zero_point=0
000000 07 16 c9 c4 e2 d8 0f fc f2 dc 17 13 fb d8 fd c8
       0.024884062 0.07820705 -0.19551763 -0.21329196 -0.10664598 -0.14219464 0.05332299 -0.014219464 -0.049768124 -0.12797518 0.08176192 0.067542456 -0.01777433 -0.14219464 -0.010664598 -0.1990725
000010 09 08 0a 9d fc fd f5 ea 1f ca 44 08 00 e2 ce 16
       0.031993795 0.028438928 0.03554866 -0.35193172 -0.014219464 -0.010664598 -0.039103527 -0.07820705 0.110200845 -0.19196276 0.24173088 0.028438928 0.0 -0.10664598 -0.1777433 0.07820705
000020 0a 01 36 3d 12 21 cd 0b d1 f7 fc a3 17 dc 19 27
       0.03554866 0.003554866 0.19196276 0.21684682 0.06398759 0.117310576 -0.18129817 0.039103527 -0.1670787 -0.031993795 -0.014219464 -0.33060253 0.08176192 -0.12797518 0.08887165 0.13863978
000030 f1 e9 2a 27 e5 18 1c 27 14 d0 23 00 fe 0d d7 d8
       -0.05332299 -0.08176192 0.14930438 0.13863978 -0.09598138 0.085316785 0.09953625 0.13863978 0.07109732 -0.17063357 0.12442031 0.0 -0.007109732 0.046213258 -0.14574951 -0.14219464
000040 6f 4e d5 cf 54 01 db 22 db b7 f6 f9 eb 1e 2e 1a
       0.3945901 0.27727956 -0.15285924 -0.17418844 0.29860875 0.003554866 -0.13153005 0.12086544 -0.13153005 -0.2595052 -0.03554866 -0.024884062 -0.07465219 0.10664598 0.16352384 0.092426516
000050 da e3 27 f6 3d 3f fc db cd f4 f6 dd dc 22 dc f6
       -0.13508491 -0.10309111 0.13863978 -0.03554866 0.21684682 0.22395656 -0.014219464 -0.13153005 -0.18129817 -0.042658392 -0.03554866 -0.12442031 -0.12797518 0.12086544 -0.12797518 -0.03554866
000060 00 ec e8 02 1c 0b 07 0a f6 2e 07 3f e8 f6 ee d5
       0.0 -0.07109732 -0.085316785 0.007109732 0.09953625 0.039103527 0.024884062 0.03554866 -0.03554866 0.16352384 0.024884062 0.22395656 -0.085316785 -0.03554866 -0.06398759 -0.15285924
000070 1b ef e2 31 cc f6 0d 33 3f 0c 27 f4 c6 cd f3 1f
       0.09598138 -0.06043272 -0.10664598 0.17418844 -0.18485303 -0.03554866 0.046213258 0.18129817 0.22395656 0.042658392 0.13863978 -0.042658392 -0.20618223 -0.18129817 -0.046213258 0.110200845
000080 1b 1c eb 1d fe f4 2e 1d ff 12 27 cc fd 3d 04 14
       0.09598138 0.09953625 -0.07465219 0.10309111 -0.007109732 -0.042658392 0.16352384 0.10309111 -0.003554866 0.06398759 0.13863978 -0.18485303 -0.010664598 0.21684682 0.014219464 0.07109732
000090 f9 03 df 13 19 13 05 01 11 0b d9 e7 bb f8 14 3b
       -0.024884062 0.010664598 -0.117310576 0.067542456 0.08887165 0.067542456 0.01777433 0.003554866 0.06043272 0.039103527 -0.13863978 -0.08887165 -0.24528575 -0.028438928 0.07109732 0.20973709
0000a0 2e f4 5c d8 e2 f9 3f 0a 06 d0 c6 f9 e6 cc d5 45
       0.16352384 -0.042658392 0.32704768 -0.14219464 -0.10664598 -0.024884062 0.22395656 0.03554866 0.021329196 -0.17063357 -0.20618223 -0.024884062 -0.092426516 -0.18485303 -0.15285924 0.24528575
0000b0 2b ec 58 58 ef 00 b8 fc f9 16 2b 0e 09 e3 eb 02
       0.15285924 -0.07109732 0.3128282 0.3128282 -0.06043272 0.0 -0.25595036 -0.014219464 -0.024884062 0.07820705 0.15285924 0.049768124 0.031993795 -0.10309111 -0.07465219 0.007109732
0000c0 f7 2d dc 58 d8 07 a1 0b d5 05 e4 e3 0b df 01 21
       -0.031993795 0.15996897 -0.12797518 0.3128282 -0.14219464 0.024884062 -0.33771226 0.039103527 -0.15285924 0.01777433 -0.09953625 -0.10309111 0.039103527 -0.117310576 0.003554866 0.117310576
0000d0 d6 08 1f ac 2b 10 4f dd 1a 01 cb f7 28 c6 0a 02
       -0.14930438 0.028438928 0.110200845 -0.29860875 0.15285924 0.056877855 0.2808344 -0.12442031 0.092426516 0.003554866 -0.1884079 -0.031993795 0.14219464 -0.20618223 0.03554866 0.007109732
0000e0 d1 f5 fd 27 e7 e0 ed c2 24 fa eb e8 be 03 e1 e4
       -0.1670787 -0.039103527 -0.010664598 0.13863978 -0.08887165 -0.11375571 -0.067542456 -0.22040169 0.12797518 -0.021329196 -0.07465219 -0.085316785 -0.23462115 0.010664598 -0.110200845 -0.09953625
0000f0 e8 ff 1b e7 e4 d8 2b 0b 01 10 2d 1a 32 08 1b e6
       -0.085316785 -0.003554866 0.09598138 -0.08887165 -0.09953625 -0.14219464 0.15285924 0.039103527 0.003554866 0.056877855 0.15996897 0.092426516 0.1777433 0.028438928 0.09598138 -0.092426516
