evaluation-code/output/models/tflite/RNN_128_units_framesize_5_20230624-123950.tflite (tflite, 31800 bytes, 3 tensors)

sequential_2/dense_2/MatMul i1 [10, 128] scale=0.0028382768 zero_point=0
0	0xec	-0.056765534
1	0x2a	0.11920763
2	0x3f	0.17881143
3	0x87	-0.3434315
4	0x55	0.24125353
5	0x0f	0.042574152
6	0xdc	-0.10217796
7	0x03	0.008514831
8	0x4b	0.21287076
9	0x48	0.20435593
10	0xe0	-0.09082486
11	0xf6	-0.028382767
12	0xcd	-0.14475212
13	0x0f	0.042574152
14	0xd7	-0.11636935
15	0xb3	-0.21854731
16	0xf9	-0.019867938
17	0xf1	-0.042574152
18	0xda	-0.107854515
19	0xac	-0.23841526
20	0xbd	-0.19016455
21	0x47	0.20151766
22	0x2d	0.12772246
23	0xe3	-0.08231003
24	0x23	0.09933969
25	0xbc	-0.19300282
26	0xfa	-0.017029662
27	0x29	0.11636935
28	0xf8	-0.022706214
29	0xc5	-0.16745833
30	0xde	-0.09650141
31	0xd8	-0.11353107
32	0x9e	-0.27815112
33	0xc3	-0.17313488
34	0x0c	0.034059323
35	0xdf	-0.09366313
36	0x16	0.06244209
37	0xe9	-0.06528036
38	0xb3	-0.21854731
39	0xf7	-0.02554449
40	0x2f	0.13339901
41	0xa1	-0.2696363
42	0x31	0.13907556
43	0xde	-0.09650141
44	0x08	0.022706214
45	0x2a	0.11920763
46	0x09	0.02554449
47	0xdc	-0.10217796
48	0x2b	0.122045904
49	0xf0	-0.04541243
50	0x6f	0.31504872
51	0xa7	-0.25260663
52	0xce	-0.14191385
53	0x2b	0.122045904
54	0x08	0.022706214
55	0xd1	-0.13339901
56	0xfa	-0.017029662
57	0xc9	-0.15610522
58	0x09	0.02554449
59	0xc8	-0.1589435
60	0xce	-0.14191385
61	0xd4	-0.12488418
62	0x10	0.04541243
63	0xc5	-0.16745833
64	0x1f	0.08798658
65	0x03	0.008514831
66	0x27	0.11069279
67	0xe8	-0.06811865
68	0xcb	-0.15042867
69	0x41	0.184488
70	0xce	-0.14191385
71	0x39	0.16178177
72	0x2c	0.12488418
73	0xbd	-0.19016455
74	0x45	0.1958411
75	0xcc	-0.1475904
76	0x22	0.09650141
77	0x62	0.27815112
78	0x07	0.019867938
79	0x01	0.0028382768
80	0x15	0.059603814
81	0x46	0.19867937
82	0xd4	-0.12488418
83	0x47	0.20151766
84	0x09	0.02554449
85	0xc7	-0.16178177
86	0xe8	-0.06811865
87	0x06	0.017029662
88	0xe5	-0.076633476
89	0xdc	-0.10217796
90	0xdb	-0.10501624
91	0xaf	-0.22990042
92	0xa9	-0.24693008
93	0x09	0.02554449
94	0xe3	-0.08231003
95	0xbc	-0.19300282
96	0xf2	-0.039735876
97	0xd9	-0.11069279
98	0xf7	-0.02554449
99	0x09	0.02554449
100	0xf4	-0.034059323
101	0xe2	-0.085148305
102	0xcf	-0.13907556
103	0x28	0.11353107
104	0x4b	0.21287076
105	0x05	0.0141913835
106	0xec	-0.056765534
107	0xf0	-0.04541243
108	0x1d	0.08231003
109	0xc8	-0.1589435
110	0xd3	-0.12772246
111	0xc9	-0.15610522
112	0x19	0.07095692
113	0xd5	-0.122045904
114	0xcd	-0.14475212
115	0xec	-0.056765534
116	0xf8	-0.022706214
117	0x28	0.11353107
118	0xdb	-0.10501624
119	0xae	-0.2327387
120	0xe1	-0.08798658
121	0xbf	-0.184488
122	0x3a	0.16462006
123	0xb0	-0.22706214
124	0xdf	-0.09366313
125	0x15	0.059603814
126	0x4b	0.21287076
127	0x1e	0.085148305
128	0x0d	0.0368976
129	0x31	0.13907556
130	0xe8	-0.06811865
131	0x1f	0.08798658
132	0xd0	-0.1362373
133	0x7f	0.36046115
134	0x41	0.184488
135	0xca	-0.15326695
136	0x0e	0.039735876
137	0x30	0.1362373
138	0xeb	-0.059603814
139	0xfa	-0.017029662
140	0x41	0.184488
141	0x28	0.11353107
142	0xb9	-0.20151766
143	0xdc	-0.10217796
144	0xd7	-0.11636935
145	0xac	-0.23841526
146	0xc4	-0.17029661
147	0x47	0.20151766
148	0x50	0.22706214
149	0x47	0.20151766
150	0xc8	-0.1589435
151	0x02	0.0056765536
152	0xa5	-0.2582832
153	0x3d	0.17313488
154	0xd5	-0.122045904
155	0xd9	-0.11069279
156	0xff	-0.0028382768
157	0xb6	-0.21003248
158	0xe7	-0.07095692
159	0xc4	-0.17029661
160	0x85	-0.34910804
161	0x3a	0.16462006
162	0x38	0.1589435
163	0xf3	-0.0368976
164	0x6e	0.31221044
165	0x8f	-0.3207253
166	0xfc	-0.011353107
167	0xb9	-0.20151766
168	0xd8	-0.11353107
169	0xdd	-0.09933969
170	0x4c	0.21570903
171	0x2e	0.13056073
172	0x25	0.10501624
173	0xd6	-0.11920763
174	0x1b	0.076633476
175	0x0c	0.034059323
176	0xc1	-0.17881143
177	0x5f	0.2696363
178	0xf2	-0.039735876
179	0xa4	-0.26112145
180	0x22	0.09650141
181	0xbe	-0.18732627
182	0x61	0.27531284
183	0x04	0.011353107
184	0xba	-0.19867937
185	0xb6	-0.21003248
186	0x16	0.06244209
187	0xba	-0.19867937
188	0x08	0.022706214
189	0x65	0.28666595
190	0xe1	-0.08798658
191	0xdc	-0.10217796
192	0xfd	-0.008514831
193	0xf8	-0.022706214
194	0x0e	0.039735876
195	0xba	-0.19867937
196	0xcc	-0.1475904
197	0x54	0.23841526
198	0x2f	0.13339901
199	0xaf	-0.22990042
200	0xdf	-0.09366313
201	0x26	0.107854515
202	0xf6	-0.028382767
203	0x2f	0.13339901
204	0x11	0.048250705
205	0xe7	-0.07095692
206	0xd5	-0.122045904
207	0x1e	0.085148305
208	0x08	0.022706214
209	0xa0	-0.2724746
210	0xed	-0.053927258
211	0xa7	-0.25260663
212	0xdb	-0.10501624
213	0xbe	-0.18732627
214	0x11	0.048250705
215	0x39	0.16178177
216	0xc7	-0.16178177
217	0x40	0.18164971
218	0x28	0.11353107
219	0x1b	0.076633476
220	0xd7	-0.11636935
221	0xfe	-0.0056765536
222	0x5d	0.26395974
223	0xb8	-0.20435593
224	0x09	0.02554449
225	0x43	0.19016455
226	0x02	0.0056765536
227	0x5d	0.26395974
228	0x28	0.11353107
229	0xcd	-0.14475212
230	0x60	0.2724746
231	0xda	-0.107854515
232	0x12	0.05108898
233	0x25	0.10501624
234	0x15	0.059603814
235	0x2a	0.11920763
236	0xb6	-0.21003248
237	0xfc	-0.011353107
238	0x1e	0.085148305
239	0x20	0.09082486
240	0xe0	-0.09082486
241	0x2b	0.122045904
242	0xb4	-0.21570903
243	0xd7	-0.11636935
244	0x6d	0.30937216
245	0xf5	-0.031221045
246	0x47	0.20151766
247	0xf9	-0.019867938
248	0xa9	-0.24693008
249	0xe2	-0.085148305
250	0x5f	0.2696363
251	0xda	-0.107854515
252	0xef	-0.048250705
253	0x2f	0.13339901
254	0xaf	-0.22990042
255	0x2e	0.13056073

sequential_2/simple_rnn_2/while/simple_rnn_cell_2/MatMul i1 [128, 15] scale=0.0018329696 zero_point=0
0	0xd0	-0.08798254
1	0xef	-0.031160483
2	0xac	-0.15396945
3	0xf6	-0.018329697
4	0xa6	-0.16496727
5	0x03	0.005498909
6	0x9f	-0.17779805
7	0x6b	0.19612774
8	0xda	-0.06965285
9	0x24	0.06598691
10	0x29	0.07515176
11	0x6a	0.19429478
12	0xbf	-0.119143024
13	0x60	0.17596509
14	0xbb	-0.1264749
15	0xc9	-0.10081333
16	0x29	0.07515176
17	0x1a	0.04765721
18	0x0a	0.018329697
19	0x5d	0.17046617
20	0xd6	-0.076984726
21	0x31	0.08981551
22	0x9b	-0.18512993
23	0x37	0.10081333
24	0x62	0.17963102
25	0xcc	-0.09531442
26	0x54	0.15396945
27	0x24	0.06598691
28	0xfb	-0.009164848
29	0xb4	-0.1393057
30	0x9a	-0.1869629
31	0x99	-0.18879586
32	0xd8	-0.07331879
33	0x5e	0.17229915
34	0xcc	-0.09531442
35	0x61	0.17779805
36	0x24	0.06598691
37	0xb3	-0.14113866
38	0x42	0.12097599
39	0xfa	-0.010997818
40	0xf5	-0.020162666
41	0x54	0.15396945
42	0x21	0.060487997
43	0xe3	-0.05315612
44	0x97	-0.1924618
45	0xcc	-0.09531442
46	0x4e	0.14297163
47	0x2a	0.076984726
48	0xaa	-0.15763539
49	0x9d	-0.18146399
50	0x5f	0.17413211
51	0xa2	-0.17229915
52	0x1b	0.04949018
53	0x56	0.15763539
54	0xe9	-0.042158302
55	0xe4	-0.05132315
56	0xbc	-0.12464193
57	0x9c	-0.18329696
58	0x63	0.18146399
59	0x75	0.21445744
60	0xa6	-0.16496727
61	0xcd	-0.09348145
62	0x3a	0.10631224
63	0xa2	-0.17229915
64	0xf1	-0.027494544
65	0x48	0.13197382
66	0xc8	-0.1026463
67	0x36	0.09898036
68	0x18	0.04399127
69	0xb8	-0.13197382
70	0x2e	0.084316604
71	0xe6	-0.04765721
72	0xc3	-0.111811146
73	0x5e	0.17229915
74	0x0d	0.023828605
75	0x29	0.07515176
76	0xe6	-0.04765721
77	0xeb	-0.038492363
78	0xf4	-0.021995636
79	0xf0	-0.029327514
80	0x39	0.10447927
81	0x50	0.14663757
82	0xb3	-0.14113866
83	0xb0	-0.14663757
84	0xe4	-0.05132315
85	0x6f	0.20345962
86	0x9d	-0.18146399
87	0x56	0.15763539
88	0xa9	-0.15946835
89	0xe9	-0.042158302
90	0xfe	-0.0036659392
91	0x14	0.036659393
92	0x5d	0.17046617
93	0x29	0.07515176
94	0xfb	-0.009164848
95	0x5c	0.16863321
96	0x3b	0.10814521
97	0xd2	-0.084316604
98	0xde	-0.062320966
99	0x3b	0.10814521
100	0xd6	-0.076984726
101	0xd9	-0.07148582
102	0xb9	-0.13014084
103	0x22	0.062320966
104	0x9f	-0.17779805
105	0x25	0.06781988
106	0x18	0.04399127
107	0x1e	0.05498909
108	0x10	0.029327514
109	0xcf	-0.08981551
110	0xdf	-0.060487997
111	0x3a	0.10631224
112	0xec	-0.036659393
113	0x4d	0.14113866
114	0x11	0.031160483
115	0xec	-0.036659393
116	0x15	0.038492363
117	0x16	0.040325332
118	0x51	0.14847054
119	0xe8	-0.04399127
120	0xee	-0.032993454
121	0x3d	0.111811146
122	0xba	-0.12830788
123	0x0f	0.027494544
124	0x16	0.040325332
125	0x64	0.18329696
126	0x12	0.032993454
127	0xc7	-0.10447927
128	0xc9	-0.10081333
129	0xd3	-0.082483634
130	0x05	0.009164848
131	0x58	0.16130133
132	0x66	0.1869629
133	0xed	-0.034826424
134	0x4f	0.1448046
135	0xe4	-0.05132315
136	0x91	-0.20345962
137	0x4d	0.14113866
138	0x40	0.117310055
139	0xed	-0.034826424
140	0x41	0.119143024
141	0x27	0.07148582
142	0x43	0.12280896
143	0xa6	-0.16496727
144	0xaf	-0.14847054
145	0xb4	-0.1393057
146	0xdb	-0.06781988
147	0xeb	-0.038492363
148	0x35	0.09714739
149	0xed	-0.034826424
150	0x4f	0.1448046
151	0xe7	-0.04582424
152	0x42	0.12097599
153	0x99	-0.18879586
154	0x8d	-0.2107915
155	0x30	0.08798254
156	0x02	0.0036659392
157	0x48	0.13197382
158	0xb1	-0.1448046
159	0x17	0.042158302
160	0xcc	-0.09531442
161	0xca	-0.09898036
162	0x3a	0.10631224
163	0xc3	-0.111811146
164	0xd5	-0.078817695
165	0xed	-0.034826424
166	0x52	0.15030351
167	0x67	0.18879586
168	0x9f	-0.17779805
169	0xf8	-0.014663757
170	0x0b	0.020162666
171	0x31	0.08981551
172	0xb8	-0.13197382
173	0x57	0.15946835
174	0xdf	-0.060487997
175	0x29	0.07515176
176	0xd3	-0.082483634
177	0x0d	0.023828605
178	0x34	0.09531442
179	0x93	-0.19979368
180	0x6c	0.19796072
181	0xac	-0.15396945
182	0xe3	-0.05315612
183	0x4d	0.14113866
184	0xa3	-0.17046617
185	0x3f	0.115477085
186	0xfc	-0.0073318784
187	0x08	0.014663757
188	0x1c	0.05132315
189	0xce	-0.09164848
190	0x9a	-0.1869629
191	0xac	-0.15396945
192	0x69	0.1924618
193	0xc8	-0.1026463
194	0xf2	-0.025661575
195	0xbd	-0.12280896
196	0xe6	-0.04765721
197	0xf2	-0.025661575
198	0xde	-0.062320966
199	0xad	-0.15213647
200	0x4b	0.13747272
201	0xe0	-0.058655027
202	0x1e	0.05498909
203	0xff	-0.0018329696
204	0xfc	-0.0073318784
205	0x31	0.08981551
206	0x60	0.17596509
207	0xa2	-0.17229915
208	0x12	0.032993454
209	0xab	-0.15580241
210	0x4f	0.1448046
211	0x3d	0.111811146
212	0x33	0.09348145
213	0xd9	-0.07148582
214	0x64	0.18329696
215	0x20	0.058655027
216	0xb6	-0.13563976
217	0x22	0.062320966
218	0x2a	0.076984726
219	0xd2	-0.084316604
220	0xbe	-0.12097599
221	0x15	0.038492363
222	0x94	-0.19796072
223	0xd3	-0.082483634
224	0xc2	-0.113644116
225	0x63	0.18146399
226	0x04	0.0073318784
227	0x93	-0.19979368
228	0xc3	-0.111811146
229	0xd3	-0.082483634
230	0x27	0.07148582
231	0xd8	-0.07331879
232	0x58	0.16130133
233	0x5a	0.16496727
234	0xdd	-0.06415394
235	0xba	-0.12830788
236	0xe6	-0.04765721
237	0x4f	0.1448046
238	0x15	0.038492363
239	0xf3	-0.023828605
240	0xb9	-0.13014084
241	0x99	-0.18879586
242	0x61	0.17779805
243	0x50	0.14663757
244	0xd8	-0.07331879
245	0x52	0.15030351
246	0xf5	-0.020162666
247	0x51	0.14847054
248	0x36	0.09898036
249	0x9b	-0.18512993
250	0xef	-0.031160483
251	0x39	0.10447927
252	0xd1	-0.08614957
253	0x47	0.13014084
254	0xeb	-0.038492363
255	0xe7	-0.04582424

sequential_2/simple_rnn_2/while/simple_rnn_cell_2/MatMul_11 i1 [128, 128] scale=0.0028739062 zero_point=0
0	0x05	0.014369531
1	0x0c	0.034486875
2	0x2f	0.13507359
3	0xc6	-0.16668656
4	0xf5	-0.031612966
5	0x00	0.0
6	0x06	0.017243437
7	0xdc	-0.103460625
8	0x42	0.1896778
9	0x12	0.051730312
10	0xfc	-0.011495625
11	0x12	0.051730312
12	0x0e	0.040234685
13	0xf9	-0.020117342
14	0xff	-0.0028739062
15	0x15	0.06035203
16	0xd3	-0.12932578
17	0xf4	-0.034486875
18	0xdc	-0.103460625
19	0xd8	-0.114956245
20	0x1b	0.077595465
21	0xe5	-0.077595465
22	0x03	0.008621719
23	0xe8	-0.06897375
24	0xdd	-0.10058671
25	0x1f	0.08909109
26	0xe0	-0.091965
27	0x08	0.02299125
28	0x0e	0.040234685
29	0xde	-0.09771281
30	0xe2	-0.08621719
31	0xf5	-0.031612966
32	0xf0	-0.0459825
33	0x18	0.06897375
34	0xf7	-0.025865156
35	0x04	0.011495625
36	0xa9	-0.25002983
37	0x10	0.0459825
38	0x21	0.0948389
39	0xc3	-0.17530827
40	0x17	0.066099845
41	0xff	-0.0028739062
42	0x05	0.014369531
43	0x0e	0.040234685
44	0xf4	-0.034486875
45	0xd3	-0.12932578
46	0xe8	-0.06897375
47	0x3d	0.17530827
48	0xec	-0.057478122
49	0x2f	0.13507359
50	0x06	0.017243437
51	0xf7	-0.025865156
52	0xc1	-0.18105608
53	0x3e	0.17818218
54	0xec	-0.057478122
55	0xe3	-0.08334328
56	0x27	0.11208234
57	0xce	-0.14369531
58	0xfb	-0.014369531
59	0x1d	0.08334328
60	0x07	0.020117342
61	0x14	0.057478122
62	0x33	0.1465692
63	0xda	-0.109208435
64	0xe9	-0.066099845
65	0xf3	-0.03736078
66	0xcb	-0.15231703
67	0xff	-0.0028739062
68	0x0b	0.031612966
69	0x2e	0.13219969
70	0x23	0.10058671
71	0xf8	-0.02299125
72	0xdf	-0.0948389
73	0xe6	-0.07472156
74	0xe1	-0.08909109
75	0x0c	0.034486875
76	0x13	0.054604217
77	0xf2	-0.040234685
78	0x12	0.051730312
79	0x08	0.02299125
80	0xc7	-0.16381265
81	0x2a	0.12070406
82	0x23	0.10058671
83	0x36	0.15519093
84	0x24	0.103460625
85	0xfd	-0.008621719
86	0x04	0.011495625
87	0x0a	0.028739061
88	0x07	0.020117342
89	0x1a	0.07472156
90	0x09	0.025865156
91	0xdc	-0.103460625
92	0xf9	-0.020117342
93	0xc3	-0.17530827
94	0x44	0.19542561
95	0xf8	-0.02299125
96	0xec	-0.057478122
97	0xea	-0.06322593
98	0xe5	-0.077595465
99	0x0d	0.03736078
100	0xf7	-0.025865156
101	0xec	-0.057478122
102	0xf1	-0.043108594
103	0xe5	-0.077595465
104	0xd0	-0.1379475
105	0xef	-0.048856404
106	0x10	0.0459825
107	0x5c	0.26439938
108	0xf6	-0.028739061
109	0x08	0.02299125
110	0x10	0.0459825
111	0xd7	-0.11783015
112	0x27	0.11208234
113	0x4c	0.21841687
114	0xd2	-0.13219969
115	0x3a	0.16668656
116	0xee	-0.051730312
117	0xdd	-0.10058671
118	0x04	0.011495625
119	0x09	0.025865156
120	0xdf	-0.0948389
121	0xf2	-0.040234685
122	0xd9	-0.11208234
123	0xf7	-0.025865156
124	0xee	-0.051730312
125	0xd5	-0.12357797
126	0x0a	0.028739061
127	0x2c	0.12645186
128	0xed	-0.054604217
129	0x1a	0.07472156
130	0xf9	-0.020117342
131	0xc8	-0.16093874
132	0xfa	-0.017243437
133	0xee	-0.051730312
134	0x20	0.091965
135	0xfa	-0.017243437
136	0xfc	-0.011495625
137	0xee	-0.051730312
138	0xe7	-0.071847655
139	0x54	0.24140812
140	0x0f	0.043108594
141	0x12	0.051730312
142	0x0a	0.028739061
143	0xff	-0.0028739062
144	0xdd	-0.10058671
145	0x16	0.06322593
146	0x19	0.071847655
147	0xf8	-0.02299125
148	0x2e	0.13219969
149	0x0d	0.03736078
150	0x21	0.0948389
151	0x2d	0.12932578
152	0xf6	-0.028739061
153	0xf3	-0.03736078
154	0x2e	0.13219969
155	0x24	0.103460625
156	0xee	-0.051730312
157	0xf2	-0.040234685
158	0xf3	-0.03736078
159	0xf8	-0.02299125
160	0xd4	-0.12645186
161	0xb1	-0.22703859
162	0xff	-0.0028739062
163	0x24	0.103460625
164	0x11	0.048856404
165	0x17	0.066099845
166	0xfc	-0.011495625
167	0x2c	0.12645186
168	0x22	0.09771281
169	0xd2	-0.13219969
170	0xd0	-0.1379475
171	0xe9	-0.066099845
172	0xf6	-0.028739061
173	0x04	0.011495625
174	0x1a	0.07472156
175	0xf0	-0.0459825
176	0xc2	-0.17818218
177	0x2c	0.12645186
178	0x16	0.06322593
179	0xf6	-0.028739061
180	0x04	0.011495625
181	0xf5	-0.031612966
182	0xe3	-0.08334328
183	0x04	0.011495625
184	0x06	0.017243437
185	0x22	0.09771281
186	0xf4	-0.034486875
187	0xd5	-0.12357797
188	0xe7	-0.071847655
189	0xe6	-0.07472156
190	0xf1	-0.043108594
191	0xf4	-0.034486875
192	0x28	0.114956245
193	0xe4	-0.08046937
194	0x07	0.020117342
195	0x14	0.057478122
196	0x04	0.011495625
197	0xeb	-0.06035203
198	0x21	0.0948389
199	0x08	0.02299125
200	0x00	0.0
201	0x07	0.020117342
202	0xe9	-0.066099845
203	0xdf	-0.0948389
204	0x0c	0.034486875
205	0xc1	-0.18105608
206	0xb4	-0.21841687
207	0xea	-0.06322593
208	0xfb	-0.014369531
209	0xfd	-0.008621719
210	0x10	0.0459825
211	0xf9	-0.020117342
212	0x15	0.06035203
213	0x19	0.071847655
214	0xc1	-0.18105608
215	0x15	0.06035203
216	0xe6	-0.07472156
217	0x46	0.20117342
218	0x46	0.20117342
219	0xf1	-0.043108594
220	0xec	-0.057478122
221	0xee	-0.051730312
222	0x0b	0.031612966
223	0xfc	-0.011495625
224	0x1e	0.08621719
225	0x1e	0.08621719
226	0x00	0.0
227	0x0b	0.031612966
228	0xff	-0.0028739062
229	0xee	-0.051730312
230	0x0a	0.028739061
231	0xd4	-0.12645186
232	0xf8	-0.02299125
233	0x19	0.071847655
234	0xf5	-0.031612966
235	0x26	0.109208435
236	0x19	0.071847655
237	0xe1	-0.08909109
238	0x04	0.011495625
239	0x0e	0.040234685
240	0xd9	-0.11208234
241	0xc9	-0.15806484
242	0x9d	-0.28451672
243	0x12	0.051730312
244	0xdc	-0.103460625
245	0x24	0.103460625
246	0xda	-0.109208435
247	0xdb	-0.10633453
248	0xde	-0.09771281
249	0xe2	-0.08621719
250	0x1e	0.08621719
251	0xff	-0.0028739062
252	0xb7	-0.20979515
253	0xff	-0.0028739062
254	0x0d	0.03736078
255	0xe2	-0.08621719
