evaluation-code/output/models/tflite/RNN_32_units_framesize_5_20230624-121600.tflite (tflite, 13352 bytes, 3 tensors)

sequential/dense/MatMul i1 [10, 32] scale=0.0038103932 zero_point=0
0	0x13	0.07239747
1	0x2b	0.16384691
2	0x08	0.030483145
3	0xe0	-0.12193258
4	0x41	0.24767555
5	0x02	0.0076207863
6	0x07	0.026672753
7	0x2e	0.17527808
8	0x08	0.030483145
9	0x51	0.30864185
10	0x16	0.08382865
11	0xc3	-0.23243399
12	0xa6	-0.34293538
13	0x5f	0.36198735
14	0x81	-0.48391992
15	0xe7	-0.09525983
16	0xeb	-0.08001826
17	0xc4	-0.22862358
18	0x9a	-0.3886601
19	0x07	0.026672753
20	0xc5	-0.2248132
21	0x9b	-0.3848497
22	0xe4	-0.10669101
23	0xb9	-0.2705379
24	0xf8	-0.030483145
25	0xed	-0.07239747
26	0x19	0.09525983
27	0x5d	0.35436657
28	0xf2	-0.053345505
29	0xc8	-0.21338202
30	0x3a	0.2210028
31	0x46	0.2667275
32	0xd2	-0.17527808
33	0x1f	0.11812219
34	0x01	0.0038103932
35	0xc1	-0.24005477
36	0x82	-0.48010954
37	0xd6	-0.16003652
38	0x21	0.12574297
39	0x5d	0.35436657
40	0x44	0.25910673
41	0xbe	-0.25148594
42	0x1e	0.11431179
43	0x1b	0.10288061
44	0x4a	0.2819691
45	0x0b	0.041914325
46	0x3e	0.23624438
47	0x3e	0.23624438
48	0xa3	-0.35436657
49	0x3d	0.23243399
50	0xd0	-0.18289888
51	0xe4	-0.10669101
52	0x86	-0.46486798
53	0x63	0.37722892
54	0x88	-0.45724717
55	0xb0	-0.30483145
56	0x1e	0.11431179
57	0x1a	0.09907022
58	0x98	-0.39628088
59	0xb7	-0.2781587
60	0x5c	0.35055616
61	0x17	0.08763904
62	0x25	0.14098455
63	0x1f	0.11812219
64	0x54	0.32007304
65	0xf7	-0.03429354
66	0xf3	-0.04953511
67	0x71	0.43057442
68	0x2b	0.16384691
69	0xd2	-0.17527808
70	0x52	0.31245223
71	0x1f	0.11812219
72	0xc7	-0.21719241
73	0x0f	0.057155896
74	0x11	0.06477668
75	0x4a	0.2819691
76	0xbf	-0.24767555
77	0x20	0.12193258
78	0xd2	-0.17527808
79	0x9d	-0.37722892
80	0x65	0.3848497
81	0xa6	-0.34293538
82	0x92	-0.41914326
83	0x0d	0.04953511
84	0xbd	-0.25529635
85	0xad	-0.31626263
86	0x3a	0.2210028
87	0x08	0.030483145
88	0xf3	-0.04953511
89	0x13	0.07239747
90	0xc5	-0.2248132
91	0x2f	0.17908847
92	0x9c	-0.38103932
93	0x18	0.09144944
94	0x3f	0.24005477
95	0xdd	-0.13336375
96	0x2a	0.16003652
97	0xc4	-0.22862358
98	0x0c	0.04572472
99	0xbb	-0.26291713
100	0xf1	-0.057155896
101	0xd5	-0.16384691
102	0xd1	-0.17908847
103	0xcc	-0.19814044
104	0xae	-0.31245223
105	0xea	-0.08382865
106	0x3d	0.23243399
107	0x59	0.33912498
108	0xc9	-0.20957163
109	0x40	0.24386516
110	0xb5	-0.28577948
111	0xc8	-0.21338202
112	0x13	0.07239747
113	0xcd	-0.19433005
114	0x20	0.12193258
115	0x53	0.31626263
116	0x4e	0.29721066
117	0x0b	0.041914325
118	0x54	0.32007304
119	0x05	0.019051965
120	0x32	0.19051966
121	0xb8	-0.27434832
122	0xe2	-0.11431179
123	0xed	-0.07239747
124	0xcb	-0.20195083
125	0x21	0.12574297
126	0x02	0.0076207863
127	0xae	-0.31245223
128	0xf3	-0.04953511
129	0xc7	-0.21719241
130	0x8f	-0.43057442
131	0x2f	0.17908847
132	0xd7	-0.15622611
133	0x1b	0.10288061
134	0xcd	-0.19433005
135	0x3b	0.2248132
136	0x59	0.33912498
137	0xca	-0.20576122
138	0xf8	-0.030483145
139	0xef	-0.06477668
140	0xe5	-0.10288061
141	0x0e	0.053345505
142	0xc6	-0.2210028
143	0xc7	-0.21719241
144	0x28	0.15241572
145	0x12	0.06858708
146	0xef	-0.06477668
147	0xcc	-0.19814044
148	0x0a	0.03810393
149	0x5c	0.35055616
150	0x88	-0.45724717
151	0xe5	-0.10288061
152	0x5a	0.34293538
153	0x26	0.14479494
154	0x3e	0.23624438
155	0x22	0.12955336
156	0x05	0.019051965
157	0x07	0.026672753
158	0xff	-0.0038103932
159	0xbb	-0.26291713
160	0x2c	0.1676573
161	0x09	0.03429354
162	0xaf	-0.30864185
163	0xa5	-0.3467458
164	0xe8	-0.09144944
165	0x01	0.0038103932
166	0xe5	-0.10288061
167	0xfe	-0.0076207863
168	0x41	0.24767555
169	0xc2	-0.23624438
170	0x4e	0.29721066
171	0x59	0.33912498
172	0xf9	-0.026672753
173	0x2f	0.17908847
174	0xbf	-0.24767555
175	0xb3	-0.2934003
176	0xb1	-0.30102107
177	0x07	0.026672753
178	0x1c	0.10669101
179	0x0f	0.057155896
180	0xf3	-0.04953511
181	0x1e	0.11431179
182	0xc9	-0.20957163
183	0x62	0.37341854
184	0x17	0.08763904
185	0x17	0.08763904
186	0x42	0.25148594
187	0x4c	0.28958988
188	0x99	-0.3924705
189	0x5b	0.3467458
190	0xe7	-0.09525983
191	0xb3	-0.2934003
192	0x17	0.08763904
193	0xe3	-0.1105014
194	0xe7	-0.09525983
195	0x1a	0.09907022
196	0x3f	0.24005477
197	0xcb	-0.20195083
198	0xb7	-0.2781587
199	0xbf	-0.24767555
200	0x36	0.20576122
201	0x20	0.12193258
202	0xca	-0.20576122
203	0x13	0.07239747
204	0xc3	-0.23243399
205	0x21	0.12574297
206	0xc0	-0.24386516
207	0xd2	-0.17527808
208	0xc5	-0.2248132
209	0x06	0.02286236
210	0xfd	-0.01143118
211	0x3c	0.22862358
212	0x49	0.2781587
213	0x0b	0.041914325
214	0xe4	-0.10669101
215	0x29	0.15622611
216	0x1e	0.11431179
217	0xf8	-0.030483145
218	0xd0	-0.18289888
219	0x5a	0.34293538
220	0xf2	-0.053345505
221	0x62	0.37341854
222	0x34	0.19814044
223	0x12	0.06858708
224	0x44	0.25910673
225	0xf3	-0.04953511
226	0x28	0.15241572
227	0xd1	-0.17908847
228	0xbb	-0.26291713
229	0x33	0.19433005
230	0x1c	0.10669101
231	0x49	0.2781587
232	0x4f	0.30102107
233	0x46	0.2667275
234	0x4b	0.28577948
235	0xa5	-0.3467458
236	0x5b	0.3467458
237	0x10	0.06096629
238	0x0e	0.053345505
239	0x29	0.15622611
240	0xf5	-0.041914325
241	0x9b	-0.3848497
242	0x33	0.19433005
243	0xe2	-0.11431179
244	0xf4	-0.04572472
245	0x36	0.20576122
246	0xab	-0.3238834
247	0xda	-0.14479494
248	0x4b	0.28577948
249	0x5b	0.3467458
250	0x22	0.12955336
251	0xf9	-0.026672753
252	0x4d	0.2934003
253	0xd7	-0.15622611
254	0xd1	-0.17908847
255	0x16	0.08382865

sequential/simple_rnn/while/simple_rnn_cell/MatMul i1 [32, 15] scale=0.0031493104 zero_point=0
0	0x47	0.22360103
1	0xfd	-0.009447931
2	0x04	0.012597241
3	0x12	0.056687586
4	0x27	0.122823104
5	0x40	0.20155586
6	0x33	0.16061483
7	0x91	-0.34957346
8	0xb9	-0.22360103
9	0x97	-0.3306776
10	0x48	0.22675034
11	0xb6	-0.23304896
12	0xe4	-0.08818069
13	0xbd	-0.2110038
14	0x36	0.17006277
15	0x47	0.22360103
16	0x27	0.122823104
17	0x48	0.22675034
18	0x62	0.3086324
19	0x41	0.20470518
20	0x29	0.12912172
21	0xf5	-0.034642413
22	0x81	-0.39996243
23	0x2c	0.13856965
24	0x30	0.1511669
25	0x39	0.1795107
26	0xe4	-0.08818069
27	0x4c	0.23934759
28	0x2e	0.14486827
29	0xc2	-0.19525725
30	0xc6	-0.18266
31	0xb8	-0.22675034
32	0x51	0.25509414
33	0x1d	0.09133
34	0x64	0.31493104
35	0x92	-0.34642413
36	0x5b	0.28658724
37	0x2f	0.14801759
38	0xf4	-0.037791725
39	0xbb	-0.21730241
40	0x5f	0.29918447
41	0x0c	0.037791725
42	0x10	0.050388966
43	0xa1	-0.29918447
44	0x3a	0.18266
45	0x6f	0.34957346
46	0x3d	0.19210793
47	0xa6	-0.28343794
48	0x38	0.17636138
49	0xbc	-0.21415311
50	0xac	-0.26454207
51	0x16	0.06928483
52	0x5c	0.28973654
53	0xee	-0.056687586
54	0x9a	-0.32122967
55	0x43	0.2110038
56	0x9d	-0.31178173
57	0xbd	-0.2110038
58	0xe0	-0.10077793
59	0x5f	0.29918447
60	0x99	-0.32437897
61	0xf9	-0.022045173
62	0x28	0.12597242
63	0x4e	0.24564621
64	0x0d	0.040941034
65	0x4d	0.2424969
66	0x2c	0.13856965
67	0x61	0.3054831
68	0xb0	-0.25194484
69	0x15	0.06613552
70	0x37	0.17321207
71	0xbd	-0.2110038
72	0xbd	-0.2110038
73	0x4f	0.24879552
74	0xa1	-0.29918447
75	0x2a	0.13227104
76	0x25	0.11652448
77	0x42	0.20785448
78	0x3b	0.18580931
79	0xcd	-0.16061483
80	0x06	0.018895863
81	0x4a	0.23304896
82	0xef	-0.053538278
83	0x4e	0.24564621
84	0x17	0.072434135
85	0xef	-0.053538278
86	0x1c	0.08818069
87	0x3a	0.18266
88	0x2c	0.13856965
89	0x32	0.15746552
90	0xf8	-0.025194483
91	0xd0	-0.1511669
92	0xe9	-0.072434135
93	0x63	0.31178173
94	0x90	-0.35272276
95	0xe8	-0.07558345
96	0x52	0.25824344
97	0xd7	-0.12912172
98	0xf0	-0.050388966
99	0xa6	-0.28343794
100	0x56	0.2708407
101	0x32	0.15746552
102	0x38	0.17636138
103	0x07	0.022045173
104	0x5e	0.29603517
105	0xc0	-0.20155586
106	0x30	0.1511669
107	0x10	0.050388966
108	0xfd	-0.009447931
109	0x19	0.07873276
110	0x0e	0.044090346
111	0xe7	-0.07873276
112	0x55	0.26769137
113	0xba	-0.22045173
114	0xce	-0.15746552
115	0x9f	-0.3054831
116	0xc2	-0.19525725
117	0xec	-0.06298621
118	0xd9	-0.122823104
119	0xdf	-0.10392724
120	0x2b	0.13542035
121	0x42	0.20785448
122	0xdb	-0.11652448
123	0xbd	-0.2110038
124	0x27	0.122823104
125	0xb8	-0.22675034
126	0xa2	-0.29603517
127	0xe5	-0.08503138
128	0x26	0.119673796
129	0x1f	0.09762862
130	0xa7	-0.28028864
131	0x60	0.3023338
132	0x02	0.0062986207
133	0x2b	0.13542035
134	0x36	0.17006277
135	0xa6	-0.28343794
136	0x25	0.11652448
137	0x07	0.022045173
138	0x44	0.21415311
139	0x93	-0.34327483
140	0xe7	-0.07873276
141	0xa9	-0.27399
142	0xb9	-0.22360103
143	0xee	-0.056687586
144	0xdc	-0.11337517
145	0x00	0.0
146	0x4d	0.2424969
147	0x5f	0.29918447
148	0x1c	0.08818069
149	0x3b	0.18580931
150	0xe9	-0.072434135
151	0x51	0.25509414
152	0x1c	0.08818069
153	0x53	0.26139277
154	0x1c	0.08818069
155	0xfa	-0.018895863
156	0xda	-0.119673796
157	0xba	-0.22045173
158	0x1c	0.08818069
159	0x9e	-0.3086324
160	0x0c	0.037791725
161	0xc5	-0.18580931
162	0x09	0.028343793
163	0xa2	-0.29603517
164	0x0b	0.034642413
165	0x30	0.1511669
166	0x54	0.26454207
167	0xed	-0.059836898
168	0xac	-0.26454207
169	0xac	-0.26454207
170	0x46	0.22045173
171	0xa4	-0.28973654
172	0x52	0.25824344
173	0x05	0.015746552
174	0xb0	-0.25194484
175	0xbe	-0.20785448
176	0x66	0.32122967
177	0xc9	-0.17321207
178	0x63	0.31178173
179	0x39	0.1795107
180	0x10	0.050388966
181	0x9d	-0.31178173
182	0x2a	0.13227104
183	0x38	0.17636138
184	0xb0	-0.25194484
185	0x1c	0.08818069
186	0xd7	-0.12912172
187	0x99	-0.32437897
188	0x92	-0.34642413
189	0xbf	-0.20470518
190	0x59	0.28028864
191	0x0d	0.040941034
192	0x19	0.07873276
193	0x69	0.3306776
194	0x1b	0.08503138
195	0xd2	-0.14486827
196	0x14	0.06298621
197	0xa6	-0.28343794
198	0xf4	-0.037791725
199	0xca	-0.17006277
200	0x30	0.1511669
201	0x65	0.31808034
202	0xc7	-0.1795107
203	0x02	0.0062986207
204	0x61	0.3054831
205	0xf3	-0.040941034
206	0xb7	-0.22989966
207	0x12	0.056687586
208	0x15	0.06613552
209	0xd6	-0.13227104
210	0xf7	-0.028343793
211	0xd4	-0.13856965
212	0xa9	-0.27399
213	0x62	0.3086324
214	0x61	0.3054831
215	0x28	0.12597242
216	0xb8	-0.22675034
217	0x0b	0.034642413
218	0xc6	-0.18266
219	0x9e	-0.3086324
220	0x4a	0.23304896
221	0x50	0.25194484
222	0x13	0.059836898
223	0xd3	-0.14171897
224	0x1a	0.08188207
225	0x39	0.1795107
226	0x10	0.050388966
227	0xb7	-0.22989966
228	0xeb	-0.06613552
229	0xc8	-0.17636138
230	0xf8	-0.025194483
231	0x08	0.025194483
232	0xd1	-0.14801759
233	0x6d	0.34327483
234	0xdb	-0.11652448
235	0x34	0.16376413
236	0x5a	0.28343794
237	0xd6	-0.13227104
238	0x00	0.0
239	0xe4	-0.08818069
240	0x2d	0.14171897
241	0x3f	0.19840655
242	0x96	-0.3338269
243	0xb4	-0.23934759
244	0x33	0.16061483
245	0x29	0.12912172
246	0xdd	-0.110225864
247	0xdc	-0.11337517
248	0x9a	-0.32122967
249	0xeb	-0.06613552
250	0xb9	-0.22360103
251	0x5c	0.28973654
252	0x56	0.2708407
253	0x1b	0.08503138
254	0x68	0.32752827
255	0x28	0.12597242

sequential/simple_rnn/while/simple_rnn_cell/MatMul_11 i1 [32, 32] scale=0.004142537 zero_point=0
0	0x3a	0.24026713
1	0x0a	0.04142537
2	0xe9	-0.095278345
3	0x4d	0.31897533
4	0xe5	-0.111848496
5	0x10	0.06628059
6	0x00	0.0
7	0x0f	0.06213805
8	0xc8	-0.23198205
9	0x29	0.169844
10	0x29	0.169844
11	0x24	0.14913133
12	0x1e	0.1242761
13	0x22	0.14084625
14	0xa6	-0.3728283
15	0x18	0.09942088
16	0x34	0.21541192
17	0x37	0.22783953
18	0xf2	-0.057995513
19	0x18	0.09942088
20	0x01	0.004142537
21	0xca	-0.22369699
22	0x03	0.01242761
23	0xc5	-0.24440967
24	0x28	0.16570148
25	0xe5	-0.111848496
26	0xfb	-0.020712685
27	0xee	-0.074565664
28	0x20	0.13256118
29	0x96	-0.4391089
30	0x2d	0.18641415
31	0x01	0.004142537
32	0x21	0.13670371
33	0xc8	-0.23198205
34	0xe1	-0.12841864
35	0x3d	0.25269476
36	0x0d	0.05385298
37	0xc9	-0.22783953
38	0x16	0.09113581
39	0xfc	-0.016570147
40	0x13	0.0787082
41	0x07	0.028997757
42	0x04	0.016570147
43	0xf9	-0.028997757
44	0x52	0.339688
45	0xb6	-0.30654773
46	0x33	0.21126938
47	0x14	0.08285074
48	0x20	0.13256118
49	0xdc	-0.14913133
50	0xeb	-0.08699327
51	0xe2	-0.1242761
52	0x52	0.339688
53	0xcf	-0.2029843
54	0xf9	-0.028997757
55	0xa6	-0.3728283
56	0xc4	-0.2485522
57	0xa9	-0.3604007
58	0x13	0.0787082
59	0xfe	-0.008285074
60	0xc9	-0.22783953
61	0x27	0.16155894
62	0x38	0.23198205
63	0x21	0.13670371
64	0x25	0.15327387
65	0xf6	-0.04142537
66	0xd5	-0.17812908
67	0xe3	-0.120133564
68	0xbf	-0.26926488
69	0x1a	0.10770596
70	0x19	0.10356342
71	0xf6	-0.04142537
72	0xf9	-0.028997757
73	0xe3	-0.120133564
74	0x2a	0.17398654
75	0x00	0.0
76	0x4c	0.3148328
77	0xf9	-0.028997757
78	0x8f	-0.46810666
79	0xb1	-0.3272604
80	0xe7	-0.10356342
81	0xbb	-0.28583503
82	0x2d	0.18641415
83	0xd7	-0.169844
84	0x09	0.037282832
85	0x0b	0.045567904
86	0x2f	0.19469923
87	0x2c	0.18227161
88	0xf5	-0.045567904
89	0x06	0.02485522
90	0x54	0.34797308
91	0x01	0.004142537
92	0x10	0.06628059
93	0x29	0.169844
94	0x0e	0.057995513
95	0x2b	0.17812908
96	0xe0	-0.13256118
97	0x15	0.08699327
98	0x2e	0.19055669
99	0x08	0.033140294
100	0xb7	-0.30240518
101	0xee	-0.074565664
102	0x1f	0.12841864
103	0xb5	-0.31069025
104	0xde	-0.14084625
105	0x41	0.26926488
106	0xf8	-0.033140294
107	0x07	0.028997757
108	0x0f	0.06213805
109	0xd9	-0.16155894
110	0x15	0.08699327
111	0x9d	-0.41011113
112	0xf5	-0.045567904
113	0xc5	-0.24440967
114	0xea	-0.09113581
115	0xe5	-0.111848496
116	0x28	0.16570148
117	0xcd	-0.21126938
118	0xcf	-0.2029843
119	0xe4	-0.115991026
120	0x31	0.2029843
121	0x48	0.29826266
122	0xcf	-0.2029843
123	0x4d	0.31897533
124	0xff	-0.004142537
125	0xde	-0.14084625
126	0xff	-0.004142537
127	0xed	-0.0787082
128	0xe6	-0.10770596
129	0x1f	0.12841864
130	0xf2	-0.057995513
131	0xd4	-0.18227161
132	0x27	0.16155894
133	0xf9	-0.028997757
134	0xe6	-0.10770596
135	0xdb	-0.15327387
136	0x95	-0.44325143
137	0xfa	-0.02485522
138	0x4f	0.3272604
139	0x39	0.23612459
140	0xea	-0.09113581
141	0xec	-0.08285074
142	0xdb	-0.15327387
143	0x05	0.020712685
144	0x2f	0.19469923
145	0x0a	0.04142537
146	0xba	-0.28997758
147	0xfb	-0.020712685
148	0xf6	-0.04142537
149	0xf8	-0.033140294
150	0xf3	-0.05385298
151	0xf2	-0.057995513
152	0x96	-0.4391089
153	0x1b	0.111848496
154	0xef	-0.070423126
155	0x17	0.095278345
156	0xdd	-0.14498879
157	0x16	0.09113581
158	0x01	0.004142537
159	0x5c	0.38111338
160	0xf2	-0.057995513
161	0xee	-0.074565664
162	0xc0	-0.26512235
163	0x96	-0.4391089
164	0xd4	-0.18227161
165	0xc2	-0.25683728
166	0x29	0.169844
167	0x1d	0.120133564
168	0x10	0.06628059
169	0x10	0.06628059
170	0x1b	0.111848496
171	0x16	0.09113581
172	0x45	0.28583503
173	0x42	0.27340743
174	0x2d	0.18641415
175	0x39	0.23612459
176	0x09	0.037282832
177	0xf3	-0.05385298
178	0x60	0.39768353
179	0xfc	-0.016570147
180	0xbb	-0.28583503
181	0xd9	-0.16155894
182	0xf7	-0.037282832
183	0xeb	-0.08699327
184	0xe2	-0.1242761
185	0x24	0.14913133
186	0xce	-0.20712684
187	0xe2	-0.1242761
188	0x33	0.21126938
189	0x2d	0.18641415
190	0x08	0.033140294
191	0xed	-0.0787082
192	0xdc	-0.14913133
193	0x07	0.028997757
194	0x18	0.09942088
195	0x3c	0.2485522
196	0xd6	-0.17398654
197	0xe5	-0.111848496
198	0x00	0.0
199	0x0a	0.04142537
200	0xf8	-0.033140294
201	0x87	-0.5012469
202	0x20	0.13256118
203	0x1c	0.115991026
204	0x06	0.02485522
205	0x70	0.4639641
206	0x03	0.01242761
207	0xec	-0.08285074
208	0x0e	0.057995513
209	0x02	0.008285074
210	0xfb	-0.020712685
211	0x23	0.14498879
212	0x17	0.095278345
213	0xca	-0.22369699
214	0xe7	-0.10356342
215	0xef	-0.070423126
216	0x09	0.037282832
217	0x23	0.14498879
218	0x05	0.020712685
219	0xe6	-0.10770596
220	0xac	-0.34797308
221	0x2d	0.18641415
222	0x0d	0.05385298
223	0xe9	-0.095278345
224	0xc1	-0.26097983
225	0x20	0.13256118
226	0xf6	-0.04142537
227	0x11	0.070423126
228	0x20	0.13256118
229	0x2e	0.19055669
230	0x32	0.20712684
231	0x02	0.008285074
232	0x41	0.26926488
233	0xdd	-0.14498879
234	0xd7	-0.169844
235	0x7b	0.50953203
236	0xfa	-0.02485522
237	0xce	-0.20712684
238	0x12	0.074565664
239	0xf7	-0.037282832
240	0x19	0.10356342
241	0x06	0.02485522
242	0x1e	0.1242761
243	0x1d	0.120133564
244	0xf8	-0.033140294
245	0xf7	-0.037282832
246	0x01	0.004142537
247	0xd5	-0.17812908
248	0x2b	0.17812908
249	0x03	0.01242761
250	0x1d	0.120133564
251	0xf3	-0.05385298
252	0x0e	0.057995513
253	0xd2	-0.19055669
254	0xaa	-0.35625815
255	0x43	0.27754995
