evaluation-code/output/models/tflite/test_20230622-104403.tflite (tflite, 676152 bytes, 5 tensors)

sequential_11/dense_11/MatMul i1 [10, 128] scale=0.0016484538 zero_point=0
00000000: 25d4 72b5 5f01 b08a 019b 2921 0540 6015
00000010: 2f4c 11e9 1ab5 8f4d 928a dde4 01a2 4c42
00000020: 89f9 0ae7 5bb9 a1f2 7d4f 902c 3ff5 d5f5
00000030: 1b69 66c5 df1f 289e b32c 6ea6 8d43 59a3
00000040: 31e7 5225 b9e3 252c 7331 f7a5 95bc 8590
00000050: 2b70 d826 119c a875 786a 4a79 b242 8bc2
00000060: 1a6a 2f11 3de8 ac0c ff3a 25e9 768f 92fd
00000070: 9be8 5c73 f81d 5cb9 6c38 7a37 8bd3 870b
00000080: 58ab 4bbd 9cd4 90ce b103 e459 98da 1b49
00000090: eada 0119 ec2f f4cd e356 9477 e4a8 2764
000000a0: 3097 516e 0ae2 9dfb 9650 11ab e490 2888
000000b0: 45a3 faf5 eb73 f484 afe3 2bf1 b000 a9ce
000000c0: 1f1f 415d 8bd0 b0f5 5d20 4e2f 4bb9 e4ea
000000d0: ef74 914b 1099 1be6 aa6e 8e8c 6f1f f3a3
000000e0: d1ef 0fc7 d778 5dfb db98 f12b 74d6 163b
000000f0: 6529 5ebf 3949 c57f faaf b86d 179f 0254
0.06099279 -0.07253197 0.18792373 -0.12363403 0.15660311 0.0016484538 -0.1318763 -0.19451754
0.0016484538 -0.16649383 0.0675866 0.054398973 0.008242269 0.10550104 0.15825155 0.03461753
0.07747733 0.12528248 0.028023714 -0.037914436 0.042859796 -0.12363403 -0.18627527 0.12693094
-0.18132992 -0.19451754 -0.05769588 -0.046156704 0.0016484538 -0.15495466 0.12528248 0.108797945
-0.196166 -0.011539176 0.016484538 -0.041211344 0.15000929 -0.11704022 -0.15660311 -0.023078352
0.20605671 0.13022785 -0.18462682 0.07253197 0.103852585 -0.018132992 -0.07088351 -0.018132992
0.044508252 0.17308764 0.16814229 -0.09725877 -0.054398973 0.05110207 0.06593815 -0.16154847
-0.12693094 0.07253197 0.18132992 -0.14836083 -0.18957219 0.1104464 0.14671238 -0.1533062
0.08077423 -0.041211344 0.1351732 0.06099279 -0.11704022 -0.04780516 0.06099279 0.07253197
0.18957219 0.08077423 -0.014836084 -0.15000929 -0.17638455 -0.11209486 -0.20275982 -0.18462682
0.07088351 0.18462682 -0.06593815 0.06264124 0.028023714 -0.16484538 -0.14506394 0.1928691
0.19781445 0.1747361 0.12198558 0.1994629 -0.1285794 0.108797945 -0.1928691 -0.10220414
0.042859796 0.1747361 0.07747733 0.028023714 0.10055568 -0.03956289 -0.13847011 0.019781444
-0.0016484538 0.09561032 0.06099279 -0.037914436 0.19451754 -0.18627527 -0.18132992 -0.004945361
-0.16649383 -0.03956289 0.15165775 0.18957219 -0.01318763 0.04780516 0.15165775 -0.11704022
0.17803301 0.09231341 0.20111136 0.09066496 -0.1928691 -0.07418042 -0.1994629 0.018132992
0.14506394 -0.14011857 0.12363403 -0.1104464 -0.16484538 -0.07253197 -0.18462682 -0.08242269
-0.13022785 0.004945361 -0.046156704 0.14671238 -0.17143919 -0.06264124 0.044508252 0.12033712
-0.036265984 -0.06264124 0.0016484538 0.041211344 -0.032969076 0.07747733 -0.019781444 -0.084071144
-0.04780516 0.14176702 -0.17803301 0.196166 -0.046156704 -0.14506394 0.0642897 0.16484538
0.07912578 -0.17308764 0.13352476 0.18132992 0.016484538 -0.049453612 -0.16319692 -0.008242269
-0.1747361 0.1318763 0.028023714 -0.14011857 -0.046156704 -0.18462682 0.06593815 -0.19781445
0.11374331 -0.1533062 -0.009890722 -0.018132992 -0.03461753 0.18957219 -0.019781444 -0.20440827
-0.13352476 -0.04780516 0.07088351 -0.024726806 -0.1318763 0.0 -0.14341548 -0.08242269
0.05110207 0.05110207 0.1071495 0.1533062 -0.1928691 -0.07912578 -0.1318763 -0.018132992
0.1533062 0.05275052 0.1285794 0.07747733 0.12363403 -0.11704022 -0.046156704 -0.036265984
-0.028023714 0.19122064 -0.18297836 0.12363403 0.02637526 -0.16979074 0.044508252 -0.042859796
-0.14176702 0.18132992 -0.18792373 -0.19122064 0.18297836 0.05110207 -0.021429898 -0.1533062
-0.07747733 -0.028023714 0.024726806 -0.093961865 -0.0675866 0.19781445 0.1533062 -0.008242269
-0.06099279 -0.17143919 -0.024726806 0.07088351 0.19122064 -0.06923506 0.036265984 0.09725877
0.16649383 0.0675866 0.15495466 -0.1071495 0.093961865 0.12033712 -0.09725877 0.20935363
-0.009890722 -0.13352476 -0.11868867 0.17968147 0.037914436 -0.15990001 0.0032969075 0.13847011

sequential_11/time_distributed_35/conv2d_18/Conv2D i1 [128, 3, 1, 1]
00000000: 8f7f 0e81 9ed5 1593 8189 1b7f 7fb0 947f
00000010: e930 8f10 7f0b 7581 dc9c 7fe1 81ec 3b7f
00000020: 587f 09d2 81a3 08c6 81fc ea9f 817f c767
00000030: 6e81 0381 d311 1138 8148 81e4 7fe5 2fb5
00000040: 7f00 813e 296b 2381 fb75 7f61 a081 98cf
00000050: 81c3 7b7f 7fe9 4681 9065 8182 c5ed 8155
00000060: 8c81 369a 7f3e 1212 7f17 7f94 61ea 8142
00000070: e981 1c10 8174 7f2c 8b1d 81f2 c481 68cf
00000080: 8181 5128 e67f 1601 81cc 4781 ac94 e481
00000090: 7fbb 8458 fe7f 8119 bc90 3b7f 81b7 fc81
000000a0: 9302 1505 7f81 59aa 21a3 81c6 7fd6 d3e2
000000b0: 7f7f c4dd 8102 7081 01cd 40ae 818a 1c7f
000000c0: 7fde 127f e68a ba7f 18c3 bf7f 7df7 7f81
000000d0: 89ff 7ff1 3000 7f70 9b9a 7fb9 813a 8165
000000e0: 1c95 7f9a c6d9 7f83 9381 811e a63a d281
000000f0: f781 589f d97f 81c8 aefb 7f2d ba2f 7f7f
-113 127 14 -127 -98 -43 21 -109
-127 -119 27 127 127 -80 -108 127
-23 48 -113 16 127 11 117 -127
-36 -100 127 -31 -127 -20 59 127
88 127 9 -46 -127 -93 8 -58
-127 -4 -22 -97 -127 127 -57 103
110 -127 3 -127 -45 17 17 56
-127 72 -127 -28 127 -27 47 -75
127 0 -127 62 41 107 35 -127
-5 117 127 97 -96 -127 -104 -49
-127 -61 123 127 127 -23 70 -127
-112 101 -127 -126 -59 -19 -127 85
-116 -127 54 -102 127 62 18 18
127 23 127 -108 97 -22 -127 66
-23 -127 28 16 -127 116 127 44
-117 29 -127 -14 -60 -127 104 -49
-127 -127 81 40 -26 127 22 1
-127 -52 71 -127 -84 -108 -28 -127
127 -69 -124 88 -2 127 -127 25
-68 -112 59 127 -127 -73 -4 -127
-109 2 21 5 127 -127 89 -86
33 -93 -127 -58 127 -42 -45 -30
127 127 -60 -35 -127 2 112 -127
1 -51 64 -82 -127 -118 28 127
127 -34 18 127 -26 -118 -70 127
24 -61 -65 127 125 -9 127 -127
-119 -1 127 -15 48 0 127 112
-101 -102 127 -71 -127 58 -127 101
28 -107 127 -102 -58 -39 127 -125
-109 -127 -127 30 -90 58 -46 -127
-9 -127 88 -97 -39 127 -127 -56
-82 -5 127 45 -70 47 127 127

sequential_11/lstm_6/Read_2/ReadVariableOp1 i1 [512] scale=0.003964144 zero_point=-126
00000000: 8282 8180 8181 8281 8282 8081 8181 8081
00000010: 8181 8282 8281 8181 8181 8181 8181 8282
00000020: 8181 8181 8382 8181 8281 8181 8182 8180
00000030: 8280 8081 8181 8282 8181 8282 8181 8281
00000040: 8281 8281 8281 8181 8282 8182 8081 8180
00000050: 8182 8081 8081 8182 8081 8282 8181 8181
00000060: 8282 8381 8081 8081 8281 8181 8181 8281
00000070: 8281 8281 8181 8281 8182 8081 8182 8082
00000080: 7f7e 7d7c 7e7e 7e7d 7e7e 7d7d 7e7d 7c7d
00000090: 7d7d 7e7d 7e7e 7d7d 7d7d 7e7d 7d7e 7f7e
000000a0: 7d7e 7d7d 7f7e 7e7d 7e7d 7d7d 7d7e 7e7c
000000b0: 7e7d 7c7d 7d7d 7e7f 7d7d 7f7e 7e7d 7e7d
000000c0: 7e7e 7e7d 7e7d 7d7d 7e7e 7d7d 7d7e 7c7d
000000d0: 7d7e 7c7d 7c7e 7e7e 7e7e 7e7e 7d7e 7e7d
000000e0: 7e7e 7f7e 7c7d 7d7d 7e7d 7d7d 7d7d 7e7e
000000f0: 7e7d 7e7e 7d7e 7d7d 7e7e 7c7d 7d7e 7c7e
0.0 0.0 -0.003964144 -0.007928288 -0.003964144 -0.003964144 0.0 -0.003964144
0.0 0.0 -0.007928288 -0.003964144 -0.003964144 -0.003964144 -0.007928288 -0.003964144
-0.003964144 -0.003964144 0.0 0.0 0.0 -0.003964144 -0.003964144 -0.003964144
-0.003964144 -0.003964144 -0.003964144 -0.003964144 -0.003964144 -0.003964144 0.0 0.0
-0.003964144 -0.003964144 -0.003964144 -0.003964144 0.003964144 0.0 -0.003964144 -0.003964144
0.0 -0.003964144 -0.003964144 -0.003964144 -0.003964144 0.0 -0.003964144 -0.007928288
0.0 -0.007928288 -0.007928288 -0.003964144 -0.003964144 -0.003964144 0.0 0.0
-0.003964144 -0.003964144 0.0 0.0 -0.003964144 -0.003964144 0.0 -0.003964144
0.0 -0.003964144 0.0 -0.003964144 0.0 -0.003964144 -0.003964144 -0.003964144
0.0 0.0 -0.003964144 0.0 -0.007928288 -0.003964144 -0.003964144 -0.007928288
-0.003964144 0.0 -0.007928288 -0.003964144 -0.007928288 -0.003964144 -0.003964144 0.0
-0.007928288 -0.003964144 0.0 0.0 -0.003964144 -0.003964144 -0.003964144 -0.003964144
0.0 0.0 0.003964144 -0.003964144 -0.007928288 -0.003964144 -0.007928288 -0.003964144
0.0 -0.003964144 -0.003964144 -0.003964144 -0.003964144 -0.003964144 0.0 -0.003964144
0.0 -0.003964144 0.0 -0.003964144 -0.003964144 -0.003964144 0.0 -0.003964144
-0.003964144 0.0 -0.007928288 -0.003964144 -0.003964144 0.0 -0.007928288 0.0
1.0029284 0.99896425 0.9950001 0.99103594 0.99896425 0.99896425 0.99896425 0.9950001
0.99896425 0.99896425 0.9950001 0.9950001 0.99896425 0.9950001 0.99103594 0.9950001
0.9950001 0.9950001 0.99896425 0.9950001 0.99896425 0.99896425 0.9950001 0.9950001
0.9950001 0.9950001 0.99896425 0.9950001 0.9950001 0.99896425 1.0029284 0.99896425
0.9950001 0.99896425 0.9950001 0.9950001 1.0029284 0.99896425 0.99896425 0.9950001
0.99896425 0.9950001 0.9950001 0.9950001 0.9950001 0.99896425 0.99896425 0.99103594
0.99896425 0.9950001 0.99103594 0.9950001 0.9950001 0.9950001 0.99896425 1.0029284
0.9950001 0.9950001 1.0029284 0.99896425 0.99896425 0.9950001 0.99896425 0.9950001
0.99896425 0.99896425 0.99896425 0.9950001 0.99896425 0.9950001 0.9950001 0.9950001
0.99896425 0.99896425 0.9950001 0.9950001 0.9950001 0.99896425 0.99103594 0.9950001
0.9950001 0.99896425 0.99103594 0.9950001 0.99103594 0.99896425 0.99896425 0.99896425
0.99896425 0.99896425 0.99896425 0.99896425 0.9950001 0.99896425 0.99896425 0.9950001
0.99896425 0.99896425 1.0029284 0.99896425 0.99103594 0.9950001 0.9950001 0.9950001
0.99896425 0.9950001 0.9950001 0.9950001 0.9950001 0.9950001 0.99896425 0.99896425
0.99896425 0.9950001 0.99896425 0.99896425 0.9950001 0.99896425 0.9950001 0.9950001
0.99896425 0.99896425 0.99103594 0.9950001 0.9950001 0.99896425 0.99103594 0.99896425

while/MatMul i1 [512, 1152] scale=0.0005718655 zero_point=0
00000000: b7ef ebba bdb3 eda6 602f b740 ef3b 4f0b
00000010: 0b5c 5d2e b564 64d8 b165 00e1 482e efd4
00000020: d5f1 ccf3 b05c 3ce1 3751 1ad1 fd9c b227
00000030: cac5 2ab8 bd59 a0a6 d447 f4d8 5cd5 66e7
00000040: d500 a44d e4dc 0417 0054 61c0 dba0 409f
00000050: a8a9 cd17 54b0 f531 e211 f3f8 5a11 b2d7
00000060: 93d3 b5e8 d0ff a6a5 02cc e3c6 1324 25c3
00000070: 0ea0 da2d 3844 42f9 ad2f 22b4 3398 a025
00000080: bb2a 65eb fbe1 b6a5 cc9e c219 aaaa a4ab
00000090: e034 aecb 481a aed2 a0f4 c35c 3631 a6c4
000000a0: 609a 2b40 6220 cf63 3dba e1c4 b6e8 52b9
000000b0: d8b8 e3d1 35b1 68cd 05b0 f412 0323 c6df
000000c0: 5925 b416 a79c fbba aa48 5e54 b39d a222
000000d0: 1225 3cee 5aa1 1327 3cc6 50fc a930 489f
000000e0: 56fa 2759 36dd c316 f453 ab1c 5817 ba29
000000f0: a350 6823 3a65 9b39 31c6 41e8 52f1 b3eb
-0.04174618 -0.009721713 -0.012009175 -0.040030584 -0.038314987 -0.044033643 -0.010865444 -0.05146789
0.054899085 0.026877677 -0.04174618 0.03659939 -0.009721713 0.033740062 0.045177374 0.00629052
0.00629052 0.052611623 0.05318349 0.026305811 -0.04288991 0.057186548 0.057186548 -0.02287462
-0.045177374 0.057758413 0.0 -0.01772783 0.041174315 0.026305811 -0.009721713 -0.02516208
-0.024590215 -0.008577982 -0.029737005 -0.0074342513 -0.04574924 0.052611623 0.034311928 -0.01772783
0.0314526 0.0463211 0.0148685025 -0.026877677 -0.0017155964 -0.057186548 -0.04460551 0.022302754
-0.030880736 -0.033740062 0.02401835 -0.041174315 -0.038314987 0.050896026 -0.054899085 -0.05146789
-0.02516208 0.04060245 -0.0068623857 -0.02287462 0.052611623 -0.024590215 0.05833028 -0.014296637
-0.024590215 0.0 -0.052611623 0.044033643 -0.016012233 -0.020587157 0.002287462 0.013152906
0.0 0.0480367 0.05547095 -0.03659939 -0.021159023 -0.054899085 0.03659939 -0.05547095
-0.05032416 -0.049752295 -0.02916514 0.013152906 0.0480367 -0.04574924 -0.00629052 0.028021408
-0.017155964 0.009721713 -0.0074342513 -0.004574924 0.05146789 0.009721713 -0.04460551 -0.023446484
-0.062333338 -0.025733946 -0.04288991 -0.013724771 -0.027449543 -0.0005718655 -0.05146789 -0.052039757
0.001143731 -0.029737005 -0.016584098 -0.033168197 0.010865444 0.020587157 0.021159023 -0.034883793
0.008006116 -0.054899085 -0.021730889 0.025733946 0.032024466 0.038886853 0.03774312 -0.004003058
-0.047464833 0.026877677 0.019443426 -0.043461777 0.02916514 -0.05947401 -0.054899085 0.021159023
-0.03945872 0.02401835 0.057758413 -0.012009175 -0.0028593275 -0.01772783 -0.042318046 -0.052039757
-0.029737005 -0.056042816 -0.03545566 0.014296637 -0.04918043 -0.04918043 -0.052611623 -0.048608564
-0.018299695 0.029737005 -0.046892967 -0.03030887 0.041174315 0.0148685025 -0.046892967 -0.026305811
-0.054899085 -0.0068623857 -0.034883793 0.052611623 0.030880736 0.028021408 -0.05146789 -0.034311928
0.054899085 -0.05833028 0.024590215 0.03659939 0.056042816 0.018299695 -0.028021408 0.056614682
0.034883793 -0.040030584 -0.01772783 -0.034311928 -0.042318046 -0.013724771 0.046892967 -0.04060245
-0.02287462 -0.041174315 -0.016584098 -0.026877677 0.03030887 -0.045177374 0.05947401 -0.02916514
0.0028593275 -0.04574924 -0.0068623857 0.010293579 0.0017155964 0.020015292 -0.033168197 -0.01887156
0.050896026 0.021159023 -0.043461777 0.01258104 -0.050896026 -0.057186548 -0.0028593275 -0.040030584
-0.04918043 0.041174315 0.053755354 0.0480367 -0.044033643 -0.056614682 -0.053755354 0.019443426
0.010293579 0.021159023 0.034311928 -0.010293579 0.05146789 -0.05432722 0.010865444 0.022302754
0.034311928 -0.033168197 0.04574924 -0.002287462 -0.049752295 0.027449543 0.041174315 -0.05547095
0.04918043 -0.0034311928 0.022302754 0.050896026 0.030880736 -0.020015292 -0.034883793 0.01258104
-0.0068623857 0.047464833 -0.048608564 0.016012233 0.05032416 0.013152906 -0.040030584 0.023446484
-0.05318349 0.04574924 0.05947401 0.020015292 0.033168197 0.057758413 -0.057758413 0.03259633
0.028021408 -0.033168197 0.037171256 -0.013724771 0.046892967 -0.008577982 -0.044033643 -0.012009175

while/MatMul_11 i1 [512, 128] scale=0.0015340148 zero_point=0
00000000: eb2b 43db 14dd 1003 322c 14f3 f5c3 e12d
00000010: fb14 f100 de3a 5127 2d0d 58f1 d7c2 f816
00000020: 0919 081c e100 0315 0a40 f5f4 0529 f002
00000030: 25f9 010a fb0e d8f3 da0b f613 2934 1219
00000040: 200b 11f3 edfe 1430 20ff 0a06 1f0b 1bf2
00000050: 09f6 0d10 3c09 09ed 07f0 dd1a db22 060a
00000060: 1df6 e1d8 010d fc01 e6f3 fbf8 e6f8 0e12
00000070: dedd 46fa ebfc f800 ebf9 1f0b 030b 0e10
00000080: d5fb eb3f 1758 f805 eb24 cae7 e420 df0e
00000090: 0af3 fc01 fdfd f802 dfe7 07f5 1102 1af3
000000a0: f610 110f 0223 fd13 f310 df3d 1216 dfe1
000000b0: f0c6 00ff b4f7 eaed e311 f114 ef0e 1efd
000000c0: f61d d918 e600 0309 1bc2 0fe6 1710 fdc2
000000d0: f20a e9e8 0fdb f0ee ffde 1deb 02e1 fd0b
000000e0: 0fe9 31c7 02ee ead9 05f1 f40c f617 d305
000000f0: f11d 46f6 fee2 f001 2402 0524 150d fef6
-0.03221431 0.065962635 0.10277899 -0.05675855 0.030680297 -0.05369052 0.024544237 0.0046020444
0.07670074 0.06749665 0.030680297 -0.019942192 -0.016874162 -0.093574904 -0.04755446 0.069030665
-0.0076700742 0.030680297 -0.023010222 0.0 -0.052156504 0.08897286 0.1242552 0.05982658
0.069030665 0.019942192 0.1349933 -0.023010222 -0.062894605 -0.09510892 -0.012272119 0.033748325
0.0138061335 0.03835037 0.012272119 0.042952415 -0.04755446 0.0 0.0046020444 0.03221431
0.0153401485 0.09817695 -0.016874162 -0.018408177 0.0076700742 0.062894605 -0.024544237 0.0030680296
0.05675855 -0.010738104 0.0015340148 0.0153401485 -0.0076700742 0.021476207 -0.061360594 -0.019942192
-0.058292564 0.016874162 -0.0153401485 0.029146282 0.062894605 0.07976877 0.027612267 0.03835037
0.049088474 0.016874162 0.026078252 -0.019942192 -0.029146282 -0.0030680296 0.030680297 0.07363271
0.049088474 -0.0015340148 0.0153401485 0.009204089 0.04755446 0.016874162 0.0414184 -0.021476207
0.0138061335 -0.0153401485 0.019942192 0.024544237 0.09204089 0.0138061335 0.0138061335 -0.029146282
0.010738104 -0.024544237 -0.05369052 0.039884385 -0.05675855 0.052156504 0.009204089 0.0153401485
0.04448643 -0.0153401485 -0.04755446 -0.061360594 0.0015340148 0.019942192 -0.0061360593 0.0015340148
-0.039884385 -0.019942192 -0.0076700742 -0.012272119 -0.039884385 -0.012272119 0.021476207 0.027612267
-0.052156504 -0.05369052 0.10738104 -0.009204089 -0.03221431 -0.0061360593 -0.012272119 0.0
-0.03221431 -0.010738104 0.04755446 0.016874162 0.0046020444 0.016874162 0.021476207 0.024544237
-0.065962635 -0.0076700742 -0.03221431 0.096642934 0.03528234 0.1349933 -0.012272119 0.0076700742
-0.03221431 0.055224534 -0.0828368 -0.03835037 -0.042952415 0.049088474 -0.05062249 0.021476207
0.0153401485 -0.019942192 -0.0061360593 0.0015340148 -0.0046020444 -0.0046020444 -0.012272119 0.0030680296
-0.05062249 -0.03835037 0.010738104 -0.016874162 0.026078252 0.0030680296 0.039884385 -0.019942192
-0.0153401485 0.024544237 0.026078252 0.023010222 0.0030680296 0.05369052 -0.0046020444 0.029146282
-0.019942192 0.024544237 -0.05062249 0.093574904 0.027612267 0.033748325 -0.05062249 -0.04755446
-0.024544237 -0.08897286 0.0 -0.0015340148 -0.11658513 -0.0138061335 -0.033748325 -0.029146282
-0.04448643 0.026078252 -0.023010222 0.030680297 -0.026078252 0.021476207 0.046020444 -0.0046020444
-0.0153401485 0.04448643 -0.05982658 0.036816355 -0.039884385 0.0 0.0046020444 0.0138061335
0.0414184 -0.09510892 0.023010222 -0.039884385 0.03528234 0.024544237 -0.0046020444 -0.09510892
-0.021476207 0.0153401485 -0.03528234 -0.036816355 0.023010222 -0.05675855 -0.024544237 -0.027612267
-0.0015340148 -0.052156504 0.04448643 -0.03221431 0.0030680296 -0.04755446 -0.0046020444 0.016874162
0.023010222 -0.03528234 0.075166725 -0.087438844 0.0030680296 -0.027612267 -0.033748325 -0.05982658
0.0076700742 -0.023010222 -0.018408177 0.018408177 -0.0153401485 0.03528234 -0.069030665 0.0076700742
-0.023010222 0.04448643 0.10738104 -0.0153401485 -0.0030680296 -0.046020444 -0.024544237 0.0015340148
0.055224534 0.0030680296 0.0076700742 0.055224534 0.03221431 0.019942192 -0.0030680296 -0.0153401485
