evaluation-code/output/models/tflite/test_20230622-095320.tflite (tflite, 610520 bytes, 5 tensors)

sequential/dense/MatMul i1 [10, 128] scale=0.0016467156 zero_point=0
0.14655769 0.02964088 -0.0016467156 0.20254602 -0.036227744 0.13009053 -0.054341614 0.102096364
0.10044965 0.07574891 0.19595915 -0.1267971 0.11032994 -0.009880293 0.07739563 -0.19431244
-0.14161754 -0.05928176 -0.19266573 -0.051048182 0.1482044 -0.17619857 -0.037874456 -0.080689065
0.079042345 -0.10868323 -0.09715622 -0.026347449 0.011527009 -0.13173725 -0.17290513 0.14326425
-0.1597314 -0.09715622 0.0 0.026347449 0.15314455 -0.11362337 -0.016467156 0.0
-0.14491098 0.0 -0.079042345 -0.13832411 -0.10703651 -0.167965 0.15643798 -0.07080877
0.07739563 -0.15479127 -0.090569355 -0.20254602 -0.12350367 -0.14655769 0.15149783 0.12021024
-0.10868323 0.17455184 -0.04775475 0.18443215 0.12185695 0.051048182 -0.19266573 -0.17619857
-0.19431244 -0.18607886 0.052694898 -0.18113871 0.0955095 0.054341614 0.051048182 0.08892264
0.13832411 0.0032934311 -0.04775475 0.1482044 0.01482044 -0.023054019 0.054341614 -0.16631827
0.08233578 0.1482044 0.02964088 0.18278542 -0.008233578 0.08727592 -0.1696117 0.12350367
-0.1696117 0.15643798 0.16467156 -0.14491098 -0.0032934311 -0.031287596 0.18607886 -0.2008993
-0.08562921 -0.13173725 0.116916806 0.17619857 -0.105389796 0.20583944 0.0016467156 -0.069162056
0.080689065 -0.13503067 0.036227744 0.11856352 0.13173725 -0.049401466 -0.17619857 0.12021024
-0.12350367 -0.20254602 0.17290513 -0.080689065 -0.090569355 -0.019760586 0.2008993 0.0741022
0.09880293 0.090569355 -0.16467156 0.13338396 0.11856352 0.11032994 -0.11856352 0.009880293
-0.0065868623 -0.14985111 0.04446132 0.18937229 -0.19595915 0.067515336 -0.19760586 0.17455184
-0.07739563 -0.016467156 -0.13997082 -0.19266573 -0.11032994 0.12350367 0.03293431 0.18443215
-0.20748617 -0.1366774 0.11032994 0.13832411 0.15314455 0.15808469 0.116916806 0.067515336
0.18113871 -0.18772557 -0.18113871 -0.18113871 -0.12350367 0.17619857 0.06257519 0.19760586
-0.19925259 0.03293431 -0.20748617 -0.046108037 0.07080877 -0.054341614 -0.20254602 0.0131737245
-0.19595915 -0.090569355 -0.06586862 -0.19760586 0.13997082 -0.01482044 -0.09715622 -0.12021024
0.191019 0.0131737245 -0.16137813 0.10044965 -0.11362337 -0.060928475 -0.054341614 -0.16467156
-0.05598833 0.13503067 -0.13338396 -0.10703651 0.17455184 -0.08892264 0.07739563 0.20913288
0.027994165 -0.103743084 -0.011527009 -0.04446132 -0.13832411 -0.08233578 0.057635047 -0.0955095
0.07739563 0.011527009 -0.0016467156 0.1366774 0.13338396 0.046108037 -0.0065868623 0.09386279
-0.03293431 -0.06586862 0.11362337 -0.105389796 0.0016467156 -0.04116789 0.17784528 -0.09715622
-0.06586862 -0.0049401466 -0.037874456 -0.105389796 0.12185695 0.042814605 -0.14655769 -0.060928475
-0.07739563 0.20254602 -0.15643798 0.11527009 0.18278542 0.179492 -0.046108037 0.08233578
0.14985111 -0.19266573 0.2008993 -0.13832411 0.17290513 -0.13503067 -0.07574891 0.16137813
-0.17784528 -0.191019 -0.105389796 -0.080689065 0.15314455 -0.16302484 -0.15314455 -0.08727592
0.02964088 -0.179492 -0.10868323 0.19266573 0.13338396 0.18607886 -0.16467156 -0.054341614
00000000: 5912 ff7b ea4f df3e 3d2e 77b3 43fa 2f8a
00000010: aadc 8be1 5a95 e9cf 30be c5f0 07b0 9757
00000020: 9fc5 0010 5dbb f600 a800 d0ac bf9a 5fd5
00000030: 2fa2 c985 b5a7 5c49 be6a e370 4a1f 8b95
00000040: 8a8f 2092 3a21 1f36 5402 e35a 09f2 219b
00000050: 325a 126f fb35 994b 995f 64a8 feed 7186
00000060: ccb0 476b c07d 01d6 31ae 1648 50e2 9549
00000070: b585 69cf c9f4 7a2d 3c37 9c51 4843 b806
00000080: fca5 1b73 8929 886a d1f6 ab8b bd4b 1470
00000090: 82ad 4354 5d60 4729 6e8e 9292 b56b 2678
000000a0: 8714 82e4 2bdf 8508 89c9 d888 55f7 c5b7
000000b0: 7408 9e3d bbdb df9c de52 afbf 6aca 2f7f
000000c0: 11c1 f9e5 acce 23c6 2f07 ff53 511c fc39
000000d0: ecd8 45c0 01e7 6cc5 d8fd e9c0 4a1a a7db
000000e0: d17b a146 6f6d e432 5b8b 7aac 69ae d262
000000f0: 948c c0cf 5d9d a3cb 1293 be75 5171 9cdf

sequential/time_distributed_1/conv2d/Conv2D i1 [128, 2, 2, 1]
-2 -127 -73 126 -111 127 -127 22
118 111 -127 37 -102 -17 127 -34
-24 41 127 127 -127 -69 -107 -6
127 -53 79 -103 33 111 127 -55
61 127 22 -29 73 -46 127 87
-75 22 127 -81 74 127 -92 -30
-127 10 -102 -74 -127 -23 42 112
-21 35 121 -127 -48 -127 -1 -77
8 103 -93 127 -103 -127 -124 -14
126 -30 -127 -32 -127 48 -28 -81
121 -38 -127 -78 75 101 127 31
-127 -43 -66 114 -77 -126 127 91
-58 28 127 -102 -49 127 -61 106
-6 127 66 64 20 112 127 97
-14 -127 -47 75 43 97 71 -127
-38 -59 -127 -96 35 -127 -119 -122
127 14 -111 -76 -127 15 -14 18
0 57 127 36 127 -10 60 -114
48 117 105 -127 -127 5 84 67
-97 -127 -27 70 -4 -17 127 -84
-94 -72 118 127 -127 -12 15 -34
-127 88 108 36 127 -54 45 115
39 -6 -102 127 -72 -25 127 64
69 -110 -71 -127 -117 90 127 -121
46 -62 -110 127 -84 127 -79 -40
-63 -47 -127 -88 -127 -83 80 -71
127 9 56 127 127 -58 -13 -44
-64 -44 95 -127 79 -75 84 -127
6 93 127 -2 -127 -10 -37 123
-56 -35 -82 127 127 -118 60 80
-93 -127 73 -124 24 -69 -72 -127
88 -45 25 127 -127 70 -74 -34
00000000: fe81 b77e 917f 8116 766f 8125 9aef 7fde
00000010: e829 7f7f 81bb 95fa 7fcb 4f99 216f 7fc9
00000020: 3d7f 16e3 49d2 7f57 b516 7faf 4a7f a4e2
00000030: 810a 9ab6 81e9 2a70 eb23 7981 d081 ffb3
00000040: 0867 a37f 9981 84f2 7ee2 81e0 8130 e4af
00000050: 79da 81b2 4b65 7f1f 81d5 be72 b382 7f5b
00000060: c61c 7f9a cf7f c36a fa7f 4240 1470 7f61
00000070: f281 d14b 2b61 4781 dac5 81a0 2381 8986
00000080: 7f0e 91b4 810f f212 0039 7f24 7ff6 3c8e
00000090: 3075 6981 8105 5443 9f81 e546 fcef 7fac
000000a0: a2b8 767f 81f4 0fde 8158 6c24 7fca 2d73
000000b0: 27fa 9a7f b8e7 7f40 4592 b981 8b5a 7f87
000000c0: 2ec2 927f ac7f b1d8 c1d1 81a8 81ad 50b9
000000d0: 7f09 387f 7fc6 f3d4 c0d4 5f81 4fb5 5481
000000e0: 065d 7ffe 81f6 db7b c8dd ae7f 7f8a 3c50
000000f0: a381 4984 18bb b881 58d3 197f 8146 b6de

sequential/lstm/Read_2/ReadVariableOp1 i1 [512] scale=0.003941412 zero_point=-128
0.0 0.0 0.0 0.0 0.0 0.0 0.0 0.0
0.0 0.0 0.0 0.0 0.0 0.0 0.0 0.0
0.0 0.0 0.0 0.0 0.0 0.0 0.0 0.0
0.0 0.0 0.0 0.0 0.0 0.0 0.0 0.0
0.0 0.0 0.0 0.0 0.0 0.0 0.0 0.0
0.0 0.0 0.0 0.0 0.0 0.0 0.0 0.0
0.0 0.0 0.0 0.003941412 0.0 0.0 0.0 0.0
0.0 0.0 0.0 0.0 0.0 0.0 0.0 0.0
0.0 0.0 0.0 0.0 0.003941412 0.0 0.0 0.0
0.003941412 0.0 0.0 0.0 0.0 0.0 0.0 0.0
0.0 0.0 0.0 0.0 0.0 0.0 0.0 0.0
0.0 0.0 0.0 0.0 0.0 0.0 0.0 0.0
0.0 0.0 0.0 0.0 0.0 0.0 0.0 0.0
0.0 0.0 0.0 0.0 0.0 0.0 0.0 0.0
0.0 0.0 0.0 0.0 0.0 0.0 0.0 0.0
0.0 0.0 0.0 0.0 0.0 0.0 0.0 0.0
0.99717724 1.0011187 1.0011187 1.0011187 1.0011187 1.0011187 1.0011187 1.0011187
1.0011187 0.99717724 1.0011187 0.99717724 1.0011187 1.0011187 1.0011187 0.99717724
1.0011187 1.0011187 1.0011187 1.0011187 1.0011187 1.0011187 1.0011187 1.0011187
1.0011187 0.99717724 1.0011187 0.99717724 0.99717724 1.0011187 1.0011187 1.0011187
1.0011187 1.0011187 1.0011187 1.0011187 1.0011187 1.0011187 1.0011187 1.0011187
0.99717724 1.0011187 1.0011187 1.0011187 1.0011187 0.99717724 1.0011187 1.0011187
1.0011187 1.0011187 1.0011187 1.0011187 1.0011187 1.0011187 0.99717724 1.0011187
1.0011187 1.0011187 1.0011187 1.0011187 1.0011187 0.99717724 1.0011187 1.0011187
1.0011187 1.0011187 1.0011187 1.0011187 1.0011187 1.0011187 0.99717724 1.0011187
1.0050601 0.99717724 1.0011187 1.0011187 1.0011187 1.0011187 1.0011187 1.0011187
0.99717724 1.0011187 0.99717724 0.99717724 1.0011187 1.0011187 1.0011187 1.0011187
1.0011187 1.0011187 1.0011187 0.99717724 0.99717724 1.0011187 1.0011187 1.0011187
1.0011187 1.0011187 1.0011187 1.0011187 0.99717724 1.0011187 1.0011187 1.0011187
1.0011187 1.0011187 1.0011187 1.0011187 1.0011187 1.0011187 1.0011187 1.0011187
1.0011187 1.0011187 1.0011187 1.0011187 0.99717724 1.0011187 1.0011187 1.0011187
1.0011187 1.0011187 0.99717724 1.0011187 1.0011187 1.0011187 1.0011187 1.0011187
00000000: 8080 8080 8080 8080 8080 8080 8080 8080
00000010: 8080 8080 8080 8080 8080 8080 8080 8080
00000020: 8080 8080 8080 8080 8080 8080 8080 8080
00000030: 8080 8081 8080 8080 8080 8080 8080 8080
00000040: 8080 8080 8180 8080 8180 8080 8080 8080
00000050: 8080 8080 8080 8080 8080 8080 8080 8080
00000060: 8080 8080 8080 8080 8080 8080 8080 8080
00000070: 8080 8080 8080 8080 8080 8080 8080 8080
00000080: 7d7e 7e7e 7e7e 7e7e 7e7d 7e7d 7e7e 7e7d
00000090: 7e7e 7e7e 7e7e 7e7e 7e7d 7e7d 7d7e 7e7e
000000a0: 7e7e 7e7e 7e7e 7e7e 7d7e 7e7e 7e7d 7e7e
000000b0: 7e7e 7e7e 7e7e 7d7e 7e7e 7e7e 7e7d 7e7e
000000c0: 7e7e 7e7e 7e7e 7d7e 7f7d 7e7e 7e7e 7e7e
000000d0: 7d7e 7d7d 7e7e 7e7e 7e7e 7e7d 7d7e 7e7e
000000e0: 7e7e 7e7e 7d7e 7e7e 7e7e 7e7e 7e7e 7e7e
000000f0: 7e7e 7e7e 7d7e 7e7e 7e7e 7d7e 7e7e 7e7e

while/MatMul i1 [512, 1024] scale=0.00052901 zero_point=0
0.03914674 -0.02539248 0.03808872 -0.04602387 -0.06295219 0.03755971 0.013754261 0.029095551
-0.01692832 0.042320803 -0.055546053 -0.055017043 0.015870301 -0.01269624 -0.0476109 0.03597268
0.027508521 -0.03597268 0.042849813 -0.04813991 -0.01798634 0.04708189 -0.02962456 0.00899317
0.0 -0.04972694 0.022218421 -0.04655288 0.044436842 0.03597268 -0.021689411 -0.026979512
-0.00899317 -0.01216723 0.00476109 -0.040733773 -0.01639931 0.043378823 -0.00211604 -0.03438565
0.02539248 0.00740614 0.06030714 -0.05025595 0.054488033 0.00052901 0.00211604 0.00740614
-0.040204763 0.03015357 0.00370307 -0.028037531 0.03015357 -0.06083615 0.05924912 0.00476109
-0.020102382 -0.031740602 0.051313974 -0.01904436 -0.062423185 0.03438565 -0.01957337 -0.00105802
0.010051191 0.06189417 -0.03385664 0.021689411 0.044436842 0.032269612 -0.044965852 0.02486347
0.00105802 0.00899317 0.057662092 -0.028566541 -0.021689411 -0.056604072 -0.01851535 0.026979512
-0.04655288 0.00423208 -0.014283271 -0.032269612 -0.05025595 -0.03544367 0.043378823 -0.03861773
-0.0476109 0.04972694 -0.01851535 -0.0026450502 -0.00634812 0.041791793 0.05924912 0.03755971
-0.03650169 -0.0370307 -0.00952218 -0.032269612 -0.053430013 -0.0068771304 -0.03914674 0.04602387
0.051313974 -0.039675754 0.04919793 -0.02433446 0.043907832 -0.02327644 -0.05924912 0.0068771304
-0.013225251 -0.041262783 -0.053959023 -0.02327644 0.0 0.052371994 -0.00317406 0.01957337
-0.055546053 -0.00476109 0.057133082 -0.041262783 0.01904436 -0.01639931 0.01692832 0.03861773
-0.05872011 -0.04919793 -0.04813991 -0.00581911 -0.013754261 -0.053430013 -0.039675754 0.06030714
0.040204763 -0.01957337 0.056075063 -0.041262783 -0.0052901004 -0.010051191 0.00634812 -0.00105802
-0.03068258 0.040204763 0.01163822 0.03438565 -0.01798634 0.00476109 0.02433446 -0.00423208
0.028566541 -0.045494862 -0.03332763 -0.01481228 -0.05977813 -0.053959023 0.01534129 -0.028566541
0.051842984 0.0079351505 0.03914674 0.040204763 0.02327644 -0.026979512 -0.021689411 0.03015357
-0.025921492 -0.056075063 -0.013225251 -0.06295219 0.02962456 -0.013754261 0.01904436 0.055546053
0.03068258 -0.027508521 -0.00105802 -0.00952218 0.02539248 0.051313974 0.03332763 0.043907832
-0.058191102 0.011109211 0.04919793 -0.053430013 0.042849813 0.013225251 -0.026450502 0.0
-0.00317406 0.055546053 0.052901004 -0.028037531 -0.02962456 -0.0079351505 -0.056604072 -0.051842984
0.02433446 -0.01798634 0.021689411 0.01904436 0.00370307 -0.02380545 -0.04655288 0.03544367
-0.057662092 0.03068258 0.022218421 -0.044436842 -0.042320803 0.056604072 0.04972694 0.0068771304
0.04866892 0.027508521 0.021160401 -0.053430013 -0.03597268 0.040733773 0.01851535 0.040733773
-0.00158703 0.00370307 0.02380545 0.05872011 -0.026450502 -0.052371994 -0.00899317 -0.011109211
0.03068258 -0.01481228 -0.01216723 -0.01957337 0.01798634 -0.03808872 0.058191102 -0.040733773
-0.05078496 0.010580201 -0.01534129 -0.06136516 0.04972694 0.021160401 -0.00158703 0.021689411
-0.01904436 0.00634812 0.01163822 0.021689411 -0.029095551 0.022218421 0.053959023 0.03544367
00000000: 4ad0 48a9 8947 1a37 e050 9798 1ee8 a644
00000010: 34bc 51a5 de59 c811 00a2 2aa8 5444 d7cd
00000020: efe9 09b3 e152 fcbf 300e 72a1 6701 040e
00000030: b439 07cb 398d 7009 dac4 61dc 8a41 dbfe
00000040: 1375 c029 543d ab2f 0211 6dca d795 dd33
00000050: a808 e5c3 a1bd 52b7 a65e ddfb f44f 7047
00000060: bbba eec3 9bf3 b657 61b5 5dd2 53d4 900d
00000070: e7b2 9ad4 0063 fa25 97f7 6cb2 24e1 2049
00000080: 91a3 a5f5 e69b b572 4cdb 6ab2 f6ed 0cfe
00000090: c64c 1641 de09 2ef8 36aa c1e4 8f9a 1dca
000000a0: 620f 4a4c 2ccd d739 cf96 e789 38e6 2469
000000b0: 3acc feee 3061 3f53 9215 5d9b 5119 ce00
000000c0: fa69 64cb c8f1 959e 2ede 2924 07d3 a843
000000d0: 933a 2aac b06b 5e0d 5c34 289b bc4d 234d
000000e0: fd07 2d6f ce9d efeb 3ae4 e9db 22b8 6eb3
000000f0: a014 e38c 5e28 fd29 dc0c 1629 c92a 6643

while/MatMul_11 i1 [512, 128] scale=0.0015367937 zero_point=0
0.026125493 0.019978318 -0.018441524 -0.052250985 -0.0015367937 -0.04303022 0.03688305 0.010757555
-0.06761892 0.041493427 -0.03380946 -0.035346255 0.110649146 0.049177397 0.061471745 -0.0722293
0.0030735873 -0.05071419 0.027662287 0.05378778 0.035346255 0.038419843 0.019978318 0.007683968
-0.010757555 -0.004610381 -0.007683968 -0.018441524 0.03380946 0.041493427 -0.058398157 0.019978318
-0.029199079 -0.029199079 -0.032272667 -0.013831143 0.018441524 0.007683968 -0.009220762 -0.056861367
0.08606044 -0.052250985 0.055324573 -0.010757555 0.06454533 0.06300854 -0.06454533 0.027662287
0.06300854 -0.106038764 0.0030735873 -0.027662287 -0.004610381 -0.024588699 0.076839685 -0.039956637
-0.007683968 -0.056861367 0.056861367 -0.030735873 -0.024588699 -0.06300854 0.047640603 -0.030735873
0.07991327 -0.04303022 -0.056861367 -0.056861367 0.024588699 -0.03380946 -0.007683968 -0.035346255
0.087597236 -0.0030735873 -0.0030735873 -0.06608213 0.07991327 0.027662287 -0.038419843 -0.004610381
0.0 0.076839685 0.019978318 0.02151511 -0.024588699 -0.02151511 0.01690473 -0.004610381
-0.015367936 0.041493427 -0.02151511 0.0 0.038419843 -0.012294349 -0.096818 -0.049177397
-0.029199079 0.02151511 0.026125493 0.004610381 -0.0015367937 -0.019978318 0.009220762 0.047640603
0.095281206 -0.01690473 0.009220762 -0.004610381 0.110649146 0.0015367937 0.047640603 0.027662287
-0.04303022 0.076839685 -0.10911235 0.009220762 0.052250985 -0.041493427 -0.039956637 -0.06300854
-0.05993495 -0.013831143 -0.06300854 -0.02151511 0.055324573 0.01690473 0.039956637 0.024588699
0.023051905 -0.015367936 0.007683968 0.044567015 0.039956637 -0.047640603 0.069155715 -0.026125493
0.049177397 0.007683968 0.02151511 0.018441524 0.030735873 -0.030735873 0.019978318 0.012294349
-0.082986854 0.06454533 -0.087597236 -0.035346255 0.07069251 0.06454533 -0.0061471746 0.023051905
0.03688305 -0.04610381 0.0015367937 -0.052250985 0.035346255 0.024588699 -0.0061471746 -0.102965176
0.023051905 0.056861367 -0.055324573 -0.06608213 -0.039956637 -0.05993495 0.0015367937 -0.019978318
-0.007683968 0.013831143 -0.08913403 0.0030735873 0.035346255 0.01690473 -0.029199079 -0.039956637
0.03688305 0.0 -0.05993495 -0.029199079 0.04610381 0.02151511 0.0030735873 0.029199079
0.03380946 0.06608213 -0.018441524 -0.01690473 -0.0015367937 -0.07530289 0.0061471746 -0.019978318
0.023051905 0.07991327 0.007683968 0.010757555 0.058398157 -0.06608213 0.06608213 -0.041493427
-0.055324573 0.044567015 0.039956637 -0.024588699 0.07069251 0.058398157 0.007683968 0.06761892
0.056861367 0.009220762 0.04610381 0.0030735873 -0.010757555 -0.030735873 -0.007683968 0.018441524
0.041493427 0.019978318 -0.0061471746 -0.015367936 0.026125493 -0.055324573 0.0015367937 -0.058398157
-0.106038764 0.0030735873 -0.05071419 0.032272667 0.027662287 -0.03380946 -0.01690473 -0.004610381
0.02151511 -0.03688305 -0.018441524 0.06454533 -0.029199079 0.04610381 -0.015367936 0.076839685
0.10911235 0.0061471746 -0.019978318 0.12294349 -0.041493427 0.03380946 0.012294349 -0.030735873
0.027662287 0.07069251 -0.027662287 0.07991327 -0.05378778 0.004610381 -0.038419843 -0.029199079
00000000: 110d f4de ffe4 1807 d41b eae9 4820 28d1
00000010: 02df 1223 1719 0d05 f9fd fbf4 161b da0d
00000020: eded ebf7 0c05 fadb 38de 24f9 2a29 d612
00000030: 29bb 02ee fdf0 32e6 fbdb 25ec f0d7 1fec
00000040: 34e4 dbdb 10ea fbe9 39fe fed5 3412 e7fd
00000050: 0032 0d0e f0f2 0bfd f61b f200 19f8 c1e0
00000060: ed0e 1103 fff3 061f 3ef5 06fd 4801 1f12
00000070: e432 b906 22e5 e6d7 d9f7 d7f2 240b 1a10
00000080: 0ff6 051d 1ae1 2def 2005 0e0c 14ec 0d08
00000090: ca2a c7e9 2e2a fc0f 18e2 01de 1710 fcbd
000000a0: 0f25 dcd5 e6d9 01f3 fb09 c602 170b ede6
000000b0: 1800 d9ed 1e0e 0213 162b f4f5 ffcf 04f3
000000c0: 0f34 0507 26d5 2be5 dc1d 1af0 2e26 052c
000000d0: 2506 1e02 f9ec fb0c 1b0d fcf6 11dc 01da
000000e0: bb02 df15 12ea f5fd 0ee8 f42a ed1e f632
000000f0: 4704 f350 e516 08ec 122e ee34 dd03 e7ed
